best_model.pt (torch, 45805 bytes, 8 tensors)

0.weight f4 [64, 126]
000000 f3 1b f3 3e 91 ce 27 3e 49 45 82 3d d6 c8 bc 3e
       0.4748226 0.16387393 0.06360871 0.36871976
000010 c6 05 8e bf 3d 62 98 3e 85 79 00 bf 1c 3d a7 bd
       -1.1095512 0.2976245 -0.50185424 -0.081659526
000020 6c 60 83 be 42 a2 f3 3b ca 33 50 bc 5a 92 31 be
       -0.25659502 0.007435114 -0.01270766 -0.17340985
000030 6c 00 95 ba 1b 96 ef bc 2b e0 44 bf 41 19 27 3e
       -0.0011367924 -0.02924638 -0.76904553 0.16318227
000040 ac 87 02 3d 43 fe 79 bf 3a 91 1a 3e c2 d1 ec be
       0.031867668 -0.976536 0.15094462 -0.46253783
000050 3c 38 75 3e 3b f7 3c c0 ce 20 44 3f de ba 91 3f
       0.23947233 -2.9525898 0.76612556 1.1385152
000060 76 4b 70 3f 3c f7 e3 bf de 6b 20 bf be 8f 68 bf
       0.93865144 -1.7809825 -0.6266459 -0.90844333
000070 a5 31 10 3d 64 51 94 3e 08 de 87 be 56 53 2b bd
       0.035203595 0.28968346 -0.26536584 -0.041827522
000080 13 e2 4e be b6 3d bc be 5e 2b 99 be 30 e1 90 3e
       -0.20203428 -0.36765832 -0.299159 0.28296804
000090 1a d1 df 3e 96 49 ab 3e e0 16 63 bf a8 2c 39 3d
       0.4371422 0.3345458 -0.8870678 0.045208603
0000a0 14 5d 86 3d 01 40 26 be 6e 99 2f 3f 1d 06 18 3e
       0.06560722 -0.16235353 0.6859349 0.14846082
0000b0 60 5c 1d bf c0 fc 31 3e b8 22 89 bf ef e8 70 bf
       -0.6146908 0.17381573 -1.071372 -0.9410543
0000c0 5d b0 60 bf c1 65 4b be 7e 45 c0 be 9a 4f 5f bf
       -0.8776911 -0.19863035 -0.37553018 -0.8723084
0000d0 3b d7 d1 bc 3b 84 82 3c 63 8f 15 3d cf 22 79 bf
       -0.025615325 0.015932193 0.036513697 -0.9731874
0000e0 29 04 c7 3d 44 53 fc bd 5b a1 2e bf da c9 54 be
       0.0971759 -0.12320569 -0.6821496 -0.20780125
0000f0 06 dd f2 bd 84 84 39 bf 56 2c c5 bf d9 04 12 be
       -0.11858563 -0.7246783 -1.5404155 -0.14259662
000100 de ac 64 3b 7b f0 bc bd 6d 27 50 be 8e 36 1d be
       0.0034893076 -0.092255555 -0.2032754 -0.15352842
000110 2f 71 e8 bd b4 00 43 bd 7f 3d 7f 3b b2 30 12 3d
       -0.11349713 -0.047608092 0.0038946567 0.03569097
000120 6d c4 bf 3d e7 17 92 bd 51 ec b8 3c 66 61 7c bd
       0.09363637 -0.07133465 0.022573622 -0.061616324
000130 71 60 3c 3d ea 44 39 be 03 00 a6 be fc 19 ae be
       0.04599041 -0.18092695 -0.32421884 -0.340042
000140 21 48 91 be e6 21 55 be 42 76 59 be b6 55 fa bd
       -0.28375342 -0.20813712 -0.21236518 -0.12223379
000150 e9 d4 d4 bf fe 19 d8 bf 56 24 c6 bf b0 3a aa bf
       -1.6627475 -1.6882932 -1.5479839 -1.329916
000160 4c 09 81 bf 41 df 81 bf 92 da 6b bf 40 1e 62 be
       -1.0080962 -1.0146257 -0.92130387 -0.22081852
000170 b0 62 34 be c3 9b 04 be ff 90 25 be ab 51 1c be
       -0.17615771 -0.12950043 -0.16168593 -0.15265529
000180 3e a8 7e be a1 2f 2a be 52 6c b8 3d b9 ed 07 3e
       -0.24868867 -0.16619731 0.090050355 0.13274278
000190 e3 f2 46 3e 1e 74 3c 3d 9c 3e 55 3e fb 69 ea 3d
       0.19428591 0.046009175 0.20824665 0.114459954
0001a0 20 1c 60 3e 29 56 8d be d3 7f be be 03 dc a2 be
       0.21885729 -0.27604797 -0.37206897 -0.3180848
0001b0 8b de 95 be d4 34 b4 be c8 5b 62 be 4b f6 ac be
       -0.2927135 -0.35196555 -0.22105324 -0.33781657
0001c0 74 77 27 be 37 bb 1f be 8f 56 70 be 39 8a 02 be
       -0.16354162 -0.1559876 -0.2347052 -0.1274804
0001d0 ea 10 56 be 36 ab 40 be a2 8e fb bd 78 e6 bb 3c
       -0.2090489 -0.18815312 -0.122830644 0.022937045
0001e0 47 13 d6 bc ca c8 01 3c 9c 25 cd bc 27 df 22 3d
       -0.026132239 0.007921407 -0.025042348 0.039763596
0001f0 c6 04 33 3d d4 8d ac 3d e4 36 9c bf 6a 1d 20 3e
       0.043705724 0.08425489 -1.2204251 0.1563622
000200 02 6b eb 3e fd fe 33 be 3d d1 61 be 0b a2 69 be
       0.45980078 -0.17577739 -0.22052474 -0.2281572
000210 c5 14 85 bf 71 04 79 3d 6e 3c 27 be 8b 33 c2 be
       -1.0396963 0.06079525 -0.16331646 -0.3792995
000220 e6 47 ac 3d 34 6b 13 bf 1e 9a 55 bf ef 2c 29 bf
       0.08412151 -0.57585454 -0.8343829 -0.6608419
000230 b4 80 98 bd df b2 ce 3e cd 84 b1 3e 3a 6a 1f 3e
       -0.07446423 0.40370843 0.3467163 0.15567866
000240 1c 93 c9 3e 8e 41 3d 3d d7 f3 ab 3e 8d 6e 23 bf
       0.39370048 0.046205096 0.33584473 -0.6384056
000250 40 38 d1 be 96 98 ec 3e 6f 66 fa bd 07 8f f3 3e
       -0.40863228 0.46210164 -0.12226569 0.4757006
000260 a2 d7 d5 3d db fe 91 3e cc ef 6f bd c1 47 c2 bc
       0.10441519 0.28514752 -0.058578297 -0.023715856
000270 12 28 36 bf ff ef 2b bf ee 47 9d 3e 6d a4 0a 3f
       -0.7115489 -0.6716308 0.3071894 0.54157144
000280 b9 56 f6 3d 99 31 50 bf 55 00 aa 3d 2c c2 b9 bd
       0.1202826 -0.8132568 0.083008446 -0.090702385
000290 b5 25 0b bd 17 6d 09 be 9e b1 d8 3e 4b 30 02 bf
       -0.033971507 -0.1342052 0.4232301 -0.5085494
0002a0 bb 14 45 3f 48 2d 0f 3e 8b 8e 39 bf 3e 00 d4 3e
       0.7698476 0.13982117 -0.7248313 0.41406435
0002b0 94 e2 d3 bb d5 39 6c be c3 8a dc be 48 29 66 3f
       -0.006466219 -0.23068936 -0.43074617 0.8990674
0002c0 37 86 15 3f 06 25 38 3f 34 aa f7 be e0 8d fa bd
       0.5840792 0.71931493 -0.48372042 -0.12234092
0002d0 4d 85 14 be 2c 61 ba be c6 fa 35 be ef 7b 0d be
       -0.14503975 -0.3640226 -0.17771444 -0.13816808
0002e0 90 5c 1d bf a7 5c b8 3d b6 02 20 3d 27 64 09 3e
       -0.61469364 0.09002047 0.039065085 0.13417111
0002f0 ea 0c 82 3e fa eb d7 bd 94 0e 49 bd f6 63 6c bd
       0.25400478 -0.10543056 -0.04908617 -0.057712518
000300 c7 39 cd bc d2 ca 1e be c3 ce 55 bd 6b 77 57 be
       -0.025051964 -0.15507057 -0.052199136 -0.21041648
000310 b3 2e 0c be c4 78 9f bd e9 d4 86 bd 05 07 b1 bc
       -0.1368969 -0.07786706 -0.06583578 -0.021609792
000320 86 5d 3b bd 3f f9 cc bc 1f 1c a8 bd c5 72 1b 3e
       -0.045743488 -0.025021194 -0.08208489 0.151805
000330 ea cc 31 bd fa 3d 9e bd 05 4c 94 bd cd 24 31 be
       -0.043408312 -0.07726665 -0.07241062 -0.17299195
000340 07 71 82 be 0b 6d d4 be ba d1 12 bf f8 18 2c bf
       -0.25476858 -0.41489443 -0.5735127 -0.672256
000350 3a a6 db be a5 3c f6 be 3d 1c 96 be 66 ec ac be
       -0.42900258 -0.48093143 -0.2931842 -0.33774108
000360 82 0a 11 bf 16 02 15 bf 4e 65 20 bf 69 ff 28 bf
       -0.5665666 -0.5820631 -0.6265458 -0.66014725
000370 df a6 65 bf 93 ac 5b bf d7 94 19 bf 8b bf 15 bf
       -0.8970775 -0.858102 -0.59992737 -0.58495396
000380 bc 81 28 3d 28 74 f7 3d e2 fd bb 3d ae 02 aa 3d
       0.04113935 0.12082702 0.09179284 0.08301292
000390 41 ac b6 3d 7a 81 e9 3d 4a 3d ae 3d 84 f3 c4 3e
       0.089195736 0.11401649 0.08507784 0.38467038
0003a0 6c 69 9a 3e a0 a7 c1 3e 86 f5 37 3e 34 3f 87 3e
       0.30158556 0.378232 0.17964754 0.26415408
0003b0 e7 5c df 3d b7 8b cc 3c 61 d5 2d be f7 1a 81 be
       0.109063916 0.024968965 -0.16975929 -0.25215885
0003c0 d8 f7 2e be 47 90 04 bd f4 8d 21 bd ad 1f 87 bc
       -0.17086732 -0.032364156 -0.039442018 -0.016494596
0003d0 99 04 28 be ed d6 ca bf a9 25 de bf 71 3a d8 bf
       -0.16408004 -1.584684 -1.7355243 -1.6892835
0003e0 31 98 e6 bf 86 59 e5 bf 46 17 cf bf d6 43 9d bf
       -1.8015195 -1.7917945 -1.6178977 -1.2286327
0003f0 1a a9 63 bf 29 27 b3 3e c0 83 76 be b0 dc 6d 3e
       -0.88929904 0.34990814 -0.24073696 0.23228717

0.bias f4 [64]
000000 65 cc 74 40 3e 5c 36 41 53 7b a3 c0 b3 73 06 41
       3.8249753 11.39752 -5.108804 8.403247
000010 2c 24 b2 c0 9b 35 dd bf d2 bc 00 41 62 e4 85 be
       -5.5669155 -1.7281984 8.046099 -0.26150805
000020 f3 3e 11 c1 f9 66 8d c0 ef c5 07 41 19 bf e1 c0
       -9.077868 -4.41882 8.485824 -7.0545774
000030 b8 72 11 41 94 9a fc c0 d4 ae 42 c0 a1 3b fe bf
       9.0905075 -7.8938694 -3.0419207 -1.9861947
000040 f5 ec 9f 3f f1 6f 3b c1 b0 81 3c 3f a9 39 47 c1
       1.2494189 -11.714829 0.7363539 -12.451577
000050 97 3f c2 bf 04 f4 95 3f a7 f9 c5 40 19 69 b4 40
       -1.5175656 1.1715093 6.186725 5.6378293
000060 2b f5 d1 bf ec 80 44 40 96 f9 22 40 db 95 1b c1
       -1.6402944 3.0703688 2.5464835 -9.724086
000070 c8 e2 1d bd 5e 2f 87 3f 87 da 1e c1 84 f6 00 c1
       -0.038546354 1.056133 -9.928351 -8.0601845
000080 23 6f 33 41 e5 d0 6d 40 7f 0f dd 40 d5 7c a4 3b
       11.214633 3.715875 6.9081416 0.005019764
000090 fe d4 ba 40 1e 80 5d 40 9f f5 e2 40 6a 87 44 c1
       5.8385 3.4609447 7.092483 -12.28306
0000a0 0d 0b 3a 40 7c ce e3 c0 90 f4 be 40 44 b6 ef c0
       2.9069245 -7.1189556 5.967354 -7.490999
0000b0 1a 3e e3 40 d2 f6 ac bf b8 96 39 41 8d 24 d1 c0
       7.1013308 -1.3512824 11.599297 -6.535712
0000c0 63 19 72 3c 01 6f dc 40 97 87 98 c0 e0 f4 f8 c0
       0.0147765605 6.8885503 -4.7665515 -7.779892
0000d0 42 60 5d 41 e7 b3 86 40 e8 96 41 41 47 44 0c 41
       13.836 4.2094607 12.099342 8.766669
0000e0 c9 8a 46 c1 b0 4a 2f c0 11 b0 c5 3b 1a 53 89 3f
       -12.408883 -2.7389336 0.0060329516 1.0728486
0000f0 e0 b7 50 40 4d e2 e2 c0 39 c2 eb c0 a3 e0 26 c1
       3.2612228 -7.0901246 -7.367459 -10.429843

2.weight f4 [32, 64]
000000 7c 56 13 3e 4b d4 8f be d2 16 9f 3d 6e 78 30 3d
       0.1438846 -0.28091654 0.077680245 0.0430836
000010 af ba 12 3f 04 c2 d0 bb 52 89 19 3e 43 1a 94 bd
       0.57316107 -0.0063707847 0.1499379 -0.072315715
000020 07 36 cb 3c 68 12 97 3d 45 85 e2 3e 3f 81 1e 3e
       0.024806036 0.073765576 0.44242302 0.15478991
000030 25 43 a7 3d f2 54 00 3e 30 9c 9d 3d 25 58 cf 3d
       0.08167104 0.12532404 0.07695806 0.10124234
000040 84 d8 cd 3a 49 85 27 bf 5d 1d ae 3e 1c 25 42 3e
       0.0015704785 -0.6543775 0.34006777 0.18959469
000050 90 4e 7c be 8f ea 84 bd 13 57 7d 3e f2 09 58 3d
       -0.24639344 -0.06490051 0.24740247 0.05274386
000060 e8 77 3a 3e f4 dc ce be 4c fe cc be c7 f8 8d bd
       0.18209803 -0.4040295 -0.40037763 -0.06932216
000070 97 f3 dc 3b 4a 11 9c be 16 68 df 3e d5 bd 74 be
       0.0067429054 -0.3048194 0.436341 -0.2390054
000080 25 15 0c bf e7 cf 72 be 92 70 96 3e 64 2b 19 bf
       -0.54719764 -0.23712121 0.2938276 -0.59831834
000090 25 e6 00 3e ed 90 9f 3d a2 7d de 3d e8 01 b5 3d
       0.12587793 0.07791314 0.10863806 0.08838254
0000a0 51 d6 19 be ba ec b0 3d 2c 1f 05 3f 04 d6 3b bd
       -0.15023161 0.08638902 0.5200069 -0.045858398
0000b0 9a ce f9 be 6a 00 f5 bd 89 80 1c 3e 0f b2 65 bd
       -0.48790437 -0.119629696 0.15283407 -0.056078013
0000c0 41 c3 b0 3d 8e dd 20 bf 6c ab a5 3e 81 83 be bd
       0.08630992 -0.62838066 0.32357347 -0.09302426
0000d0 30 83 fb 3d e8 21 0b 3e bc 59 b2 3d 9c ff 99 be
       0.122808814 0.13587153 0.08708522 -0.30077827
0000e0 b9 a2 84 3c 6c 52 70 be 9d ae 2c 3d 91 28 0a be
       0.016190873 -0.23468941 0.04215871 -0.13492037
0000f0 32 cd 21 be 51 f8 94 3d 43 95 5b 3d 70 0b 99 3c
       -0.15800932 0.07273925 0.053609144 0.018682212
000100 be 30 bd be 09 c2 0f be aa be 32 bd 8d fc 67 bd
       -0.3695125 -0.14038862 -0.043638863 -0.056637336
000110 af ad 3f 3e ee 4a f2 be 37 6a 39 be 51 f9 8d bb
       0.18718599 -0.47322792 -0.18106924 -0.0043326993
000120 52 61 6f 3e b7 b8 75 3e 7a 14 95 be 63 ba 08 3d
       0.23376969 0.23996244 -0.29117185 0.033380877
000130 28 0b 2c bd d9 f3 9c be c7 92 f4 3d 11 f5 66 bd
       -0.042002827 -0.3065479 0.11942058 -0.056386057
000140 4d b5 6d 3d e7 8b 43 3e e5 7f 43 be fe 8b 8d be
       0.05803423 0.19096337 -0.19091757 -0.27645868
000150 b6 a8 19 3d 86 d9 8a be 55 7d 04 3f b4 8d 80 3e
       0.03751441 -0.27119082 0.5175374 0.2510811
000160 d3 ef 8f bd 63 27 34 bf 76 5c bc 3d 8a 20 49 3b
       -0.07028165 -0.703726 0.09197323 0.003068956
000170 b9 c0 e4 bd 23 c7 7a bd 89 bf c7 3d af b6 28 3e
       -0.111695714 -0.061225068 0.09753329 0.16475938
000180 ae 63 57 3d 7f 00 40 bf 4f 7e 25 3f 6e ac 51 be
       0.052585296 -0.75000757 0.64645857 -0.20475933
000190 30 2f 46 bf 61 33 87 3c 5a 57 aa be df c2 45 be
       -0.7741575 0.016503992 -0.3326977 -0.19312619
0001a0 63 7e 94 be 6f 60 cf bd 1d 8d 83 bd 1f e0 0b 3e
       -0.29002675 -0.10125815 -0.064233996 0.13659714
0001b0 ed 39 02 3d f8 c6 5f be 11 46 d3 3c 50 02 56 3d
       0.031793524 -0.21853244 0.025790246 0.0522483
0001c0 51 c0 0d be b3 df b5 3d ee d9 0b 3e 6c 9c 89 3d
       -0.13842894 0.08880558 0.13657352 0.06719288
0001d0 e7 3b 06 be bf 75 3e be bf 21 4b bf 2a ff 5e 3c
       -0.13108788 -0.18599604 -0.7934837 0.013610641
0001e0 f0 fc a6 3d bd fd 57 bc ec b5 82 3c 16 0c 8e bd
       0.08153713 -0.0131830545 0.015955888 -0.06935899
0001f0 22 dc 7c bf 9c c0 2c 3e 66 c8 af 3c a2 51 a0 3d
       -0.98773396 0.1687035 0.021457862 0.0782807
000200 98 ae 90 3e dd 90 9a bf 31 83 18 3e 30 17 7a 3e
       0.28258204 -1.2075459 0.14893796 0.24422908
000210 91 b4 ba bf 8b 9d c8 3d da b6 20 be bb 23 c2 bd
       -1.4586354 0.09795674 -0.15694752 -0.09479471
000220 c4 6b eb bd 17 0f ae bc d7 75 27 3f 9b 80 46 3e
       -0.11495164 -0.02124743 0.65414184 0.19384997
000230 6a 29 de bd 28 57 68 be f6 20 26 bd 3b 8b e6 3c
       -0.10847743 -0.22689497 -0.040558778 0.028142562
000240 a0 9a 72 be ad 41 0d 3f 58 e1 7a 3d 23 37 57 3b
       -0.23691797 0.5517834 0.06125006 0.003283926
000250 da 47 1a be 65 26 dc bd 0e 67 5c 3f f6 b9 f4 3e
       -0.15066472 -0.10749511 0.8609475 0.47798127
000260 91 a0 5d bc 22 7b 25 be 6e 7d 4a 3d 84 84 7a bb
       -0.013527052 -0.16160253 0.049436025 -0.0038225958
000270 5c ff 46 bb 50 a5 37 be 96 2a aa bd 5a f8 63 3e
       -0.0030364608 -0.17934155 -0.08308904 0.22262707
000280 65 1a 52 bb fc 6b 00 be 45 d5 79 3d 58 66 0e be
       -0.003205919 -0.12541193 0.060994405 -0.13906229
000290 98 f4 8f 3d fb a7 f5 bf 97 50 41 be 78 89 bc 3e
       0.070290744 -1.9191889 -0.18878399 0.3682363
0002a0 03 25 f3 3d ee 49 e8 3b 02 a0 b0 bc 3f 75 fb 3d
       0.11872294 0.007088891 -0.021560673 0.12278222
0002b0 04 c0 d7 bd 52 c3 c2 3e f4 3c 1b bf e8 88 c7 bd
       -0.10534671 0.38039643 -0.6063988 -0.0974291
0002c0 78 8e a7 3d a1 d1 80 3e 31 cd 90 3b f4 83 34 3d
       0.08181471 0.25159934 0.004418992 0.044071153
0002d0 5a 0b 42 3d a7 78 a2 3d ea 65 d2 3e b7 20 42 bd
       0.047374107 0.07933169 0.4109338 -0.04739448
0002e0 5e 25 f0 bd be 2c 14 3c 02 52 bd 3d 2f 3b cb bd
       -0.11725877 0.0090438705 0.092441574 -0.09923398
0002f0 f9 8b 69 be 9b e7 25 bf bd 2c 36 bd 66 36 04 3d
       -0.22807302 -0.64806527 -0.04447626 0.03227844
000300 79 c3 3f 3e ce bc c3 3e ae 8f 64 be 94 8e 84 3d
       0.1872691 0.38229984 -0.22320434 0.06472507
000310 d8 3e 00 bf 72 3e 82 bb 43 62 81 3d 77 97 c4 bd
       -0.5009589 -0.003974729 0.0631757 -0.09599202
000320 c1 9a 61 be 11 f0 03 be 69 24 65 3f ee f3 f6 be
       -0.2203169 -0.12884547 0.8950868 -0.4823298
000330 86 b9 c1 3c 53 96 38 3d cd 59 ad 3d 61 96 04 bf
       0.023648035 0.045065235 0.08464394 -0.5179196
000340 90 4a d4 bd ae 42 c2 be 2d 0c 38 bd 2b 29 39 bf
       -0.10365784 -0.37941498 -0.044933487 -0.7232844
000350 a4 fb 04 bd fa ce 82 3f 47 66 54 3f 4f 03 1f bd
       -0.032466546 1.0219414 0.8296856 -0.038821515
000360 ed 4b 18 3e 40 bd b2 3c 91 46 53 3d e6 19 d0 be
       0.14872713 0.021818757 0.05158097 -0.4064476
000370 aa c9 98 bc 0e 83 ec 3d 44 7a 36 bf 3c 02 b4 be
       -0.018650848 0.11548434 -0.7128031 -0.35157955
000380 fc 9d 2d 3f 45 39 ea bd 65 59 ad 3e 82 4b fb bd
       0.6781919 -0.114367045 0.33857265 -0.12270261
000390 d8 28 5d 3e e4 db 52 be cb 77 c6 3e 1f ff 98 be
       0.21597612 -0.20591694 0.3876327 -0.29882142
0003a0 7d 92 17 3d a0 c7 f1 bd 61 6b 01 3f 5e cd 3f be
       0.037004936 -0.118056536 0.5055447 -0.18730685
0003b0 a5 28 8b 3e f5 c6 85 bc c5 4f 8f 3d c7 da 06 be
       0.27179447 -0.016330222 0.06997637 -0.13169394
0003c0 b8 e1 fb 3d 86 42 6b bd 8c 28 8e be e7 c5 d1 be
       0.12298912 -0.05743649 -0.2776531 -0.409713
0003d0 37 11 5e 3e 09 3c 1c 3f 26 bb a4 3e 72 52 45 3e
       0.21686254 0.61029106 0.32174033 0.19269732
0003e0 cd fe 71 be c0 c8 32 be da 8c 86 3c b4 ea c0 3d
       -0.23632355 -0.17459393 0.016424585 0.09419766
0003f0 d1 f1 28 bb 47 33 1c be 4e cc d8 bd 69 49 55 be
       -0.00257789 -0.15253936 -0.10585843 -0.20828785

2.bias f4 [32]
000000 5f e6 02 c1 66 43 d5 c0 72 80 58 c0 f5 aa 63 41
       -8.181243 -6.6644773 -3.3828397 14.229238
000010 f1 69 a3 bc 56 12 02 c0 18 1e c4 bf e5 70 00 c1
       -0.019947978 -2.0323691 -1.5321684 -8.027562
000020 c3 a5 1b 41 f4 1f c7 40 2d 7b 88 3f 8d 42 2c 41
       9.727969 6.2226505 1.066259 10.766248
000030 4d 4a 89 bf 38 1b 90 c0 48 57 18 41 91 b2 85 40
       -1.07258 -4.5033226 9.521309 4.1780477
000040 9d 8b d0 c0 14 6c af 40 30 f2 60 bd 2b 47 6a 40
       -6.5170426 5.481943 -0.054918468 3.6605937
000050 92 59 e1 3e 42 61 94 40 a2 dc 14 41 a4 58 8d 40
       0.4401365 4.6368723 9.303865 4.4170704
000060 7e 12 0e 41 86 51 0b c1 7e 33 40 c0 a4 e8 a2 c0
       8.879515 -8.707403 -3.0031428 -5.0908985
000070 c7 79 42 41 ac 9e 12 40 47 e0 71 c0 3d 9b 13 bf
       12.154731 2.2909346 -3.7793138 -0.5765875

4.weight f4 [16, 32]
000000 b0 1e 03 be 47 66 04 be a7 7e db bc 2e b7 47 be
       -0.12804675 -0.1292964 -0.026793791 -0.19503471
000010 30 0c 8c 3d c2 01 0a be 4a ee 89 be 84 d1 93 be
       0.06838262 -0.13477233 -0.26939613 -0.28870785
000020 da 79 b3 be 15 88 2f 3d 21 b1 74 be a1 1b c7 bb
       -0.35053903 0.042854387 -0.23895694 -0.0060762917
000030 ce dc e1 bd cc 7a 7c be 05 1c ee bd e6 f4 be bd
       -0.11028443 -0.24656218 -0.11626438 -0.093240544
000040 0f 4a 8f be ec 7b b9 bd 21 c1 d9 3d f2 ed 5b be
       -0.2798619 -0.09056839 0.106325395 -0.21477488
000050 a8 f3 a9 bc 0d f7 25 be ff 31 4c be b8 90 fb bc
       -0.020746067 -0.16207524 -0.19940947 -0.030708656
000060 a5 6b 50 be 45 52 79 bc 30 a8 30 be 91 22 91 bd
       -0.20353563 -0.0152173685 -0.17251658 -0.07086671
000070 df cd c4 bd 53 3e a8 bd 11 cc e5 bd e0 d3 89 bb
       -0.09609579 -0.082150124 -0.11220563 -0.0042061657
000080 ca 8d 8a 3c 31 af 94 bd 68 8b ce bc a3 39 09 3e
       0.016913313 -0.072599776 -0.025212958 0.13400893
000090 d0 7c f7 bd fe 96 d9 3b 84 39 b9 3b 0b 18 cd bd
       -0.12084353 0.006640314 0.0056526083 -0.100143515
0000a0 83 b7 4a bc d8 68 8f bf 62 fc ae bb 5b 10 ce 3d
       -0.012372854 -1.1203871 -0.005340145 0.10061713
0000b0 d8 3c 59 3d 01 9e db bd 3a 6a 5f 3d 16 26 24 be
       0.05303654 -0.10723496 0.054544665 -0.16030154
0000c0 c2 e3 ec bd 69 aa 85 bd 06 48 2b bd fb f4 30 3d
       -0.11566879 -0.06526644 -0.041816734 0.04320238
0000d0 d7 7b ab be 88 82 05 bf 5c d9 05 3c 74 58 17 3e
       -0.3349292 -0.521523 0.008169498 0.14779836
0000e0 14 4f bc bc b9 00 93 bb cc 32 1f 3e 7f b2 e6 bd
       -0.022986926 -0.00448617 0.15546721 -0.11264514
0000f0 29 f4 0f 3d 00 15 76 bd ab 07 89 bc bf 75 16 3d
       0.03514496 -0.06007862 -0.01672729 0.036733385
000100 34 6d 9a bd 13 80 5f be bd 6d b2 bd 68 0e 04 3f
       -0.0754036 -0.218262 -0.08712337 0.5158448
000110 e2 d9 f2 bd 15 33 c2 bc 6e bb 99 3c a2 57 fe bd
       -0.11857964 -0.023705998 0.018766131 -0.124190584
000120 4e fe 2c be 4f 41 cb 3d c0 2f 2a be cb 4a b2 3c
       -0.16893885 0.09924566 -0.16619778 0.02176418
000130 34 df 9e bf b1 0d 69 be f4 ac 77 3e 10 b8 0a 3f
       -1.2411866 -0.22759129 0.2418707 0.5418711
000140 1f ad 43 bf 44 1e 85 3f dc d3 f4 bd 25 75 e5 3c
       -0.76436037 1.0399861 -0.119544715 0.02800996
000150 f3 2a 85 bf 9c 91 95 3e c8 cb 5a 3d 4a 1a 49 3e
       -1.0403732 0.29212654 0.053416997 0.19638935
000160 a4 24 1d 3d 9b 3c 8c be fd 18 b0 bc 4d fb 6b bf
       0.03836502 -0.27389988 -0.02149629 -0.9218033
000170 10 7e ea 3d d8 12 62 3d c8 9d 2d be 62 3d 86 bd
       0.11449826 0.055193752 -0.1695472 -0.065546766
000180 95 35 31 bc 11 1b 71 bf 83 e2 ee 3c 49 b9 ce 3d
       -0.010815998 -0.94181925 0.029160744 0.10093934
000190 63 ba 77 bd a3 42 f3 bd 57 94 3b bf 9c d3 3f bc
       -0.060480487 -0.11877944 -0.73273224 -0.011708166
0001a0 c0 40 2b 3e 12 d6 94 be b9 6e be bd fe 8f a3 3d
       0.16723919 -0.29069573 -0.092984624 0.07986449
0001b0 28 99 ec be cb aa ea bd b3 1c 12 3d 13 20 a2 3d
       -0.462106 -0.114583574 0.0356719 0.07916274
0001c0 59 d6 e8 3d f3 ec 84 3e 3f af a1 3d 55 b9 90 3d
       0.113690086 0.25962028 0.07894754 0.07066599
0001d0 a5 77 69 be 2b 9c 0f 3e 9a 91 cb 3d 48 83 91 3e
       -0.22799547 0.14024417 0.09939881 0.28420472
0001e0 65 09 db 3d f9 bb 09 3d 1e 91 b3 3e 8a 0d 6b bd
       0.10695151 0.03362653 0.35071653 -0.05738596
0001f0 72 7f ca bd c1 eb 84 bd 75 71 15 bc 1a b5 1d 3e
       -0.098875895 -0.06490279 -0.009121289 0.15401116
000200 a6 bf d6 bd cb 09 49 bc 41 aa c4 be b2 d7 87 3d
       -0.10485773 -0.012270401 -0.38411143 0.066329375
000210 3d 46 08 be 76 50 a0 3d 03 83 ca bd ac c6 d1 be
       -0.13308044 0.07827847 -0.0988827 -0.40971887
000220 09 96 c0 3d 84 55 5f 3e 6a 9c 8f 3a e3 46 8f 3d
       0.09403617 0.21809965 0.0010956649 0.069959424
000230 4f 77 53 be 47 d8 1f 3c 92 2f ed 3d c3 6e 76 3d
       -0.20650981 0.009756154 0.11581339 0.060164224
000240 fb 83 77 bd 70 fc 9f bd fc 77 37 3d ab 44 0f 3d
       -0.0604286 -0.078118205 0.04479216 0.034977596
000250 7a 8d 08 3e 63 77 58 be 58 77 06 be 9a c9 68 be
       0.13335219 -0.21139292 -0.13131464 -0.22733155
000260 af 4c 2e 3d b2 66 78 bd 1b 3f cc 3d b4 5c 59 3e
       0.0425536 -0.060644813 0.09972974 0.2122677
000270 4e 20 24 3d f4 92 80 3e c3 3a 3b bd 1d 63 f2 bc
       0.04006987 0.25112116 -0.045710336 -0.029588277
000280 ea d8 c1 3d 78 0e f2 3c 49 7d 95 bc 64 6f cc 3e
       0.09465201 0.029547915 -0.018248217 0.39928734
000290 18 3c e4 bb 72 12 5f 3c 0c cf 32 3e 47 00 08 3e
       -0.0069651715 0.013615238 0.17461795 0.13281356
0002a0 1a 6a 66 be 55 6d 9d 3d 19 9a f1 3d 7c 06 19 be
       -0.22501412 0.07686869 0.1179697 -0.1494388
0002b0 bc ae c4 be 3f d9 a7 3b 47 de 4f 3d f7 d5 2a 3f
       -0.38414562 0.0051223333 0.05074909 0.66732734
0002c0 e6 a2 c2 3c 62 45 31 3f cb b5 8c 3d a9 23 4a 3e
       0.023759317 0.69246495 0.06870612 0.19740166
0002d0 da 3c c1 be e7 85 ba 3e 04 d3 bb bd 9f 1a e3 be
       -0.3774174 0.36430284 -0.091711074 -0.44356248
0002e0 76 91 e6 bd 00 9d e8 bd 4b d2 81 be 6c be 04 3d
       -0.11258213 -0.113580704 -0.25355753 0.032408163
0002f0 a5 93 f7 bc d9 bb 5e 3d af e6 9e bd 74 73 93 bd
       -0.03022177 0.054378364 -0.07758843 -0.07199755
000300 7d ca 11 3e ce 7c 87 3d b2 ba 4e be 90 d0 11 3f
       0.142374 0.066156015 -0.20188406 0.56958866
000310 9c 8a 0b 3e f8 a4 32 bd 76 e5 5b 3e cf 53 37 3e
       0.13627094 -0.043614358 0.21474251 0.17903064
000320 b1 c4 95 bd 67 b2 bd 3e fe ee 64 bd 0d 3d b1 be
       -0.073129065 0.37050173 -0.055891983 -0.3461689
000330 27 40 18 3e 0c 0d b2 3d 47 34 1b be db e4 65 3f
       0.14868222 0.08693895 -0.15156661 0.8980233
000340 ff d5 73 be 5d db 66 3e 95 8e e8 bd 8b f3 e4 3d
       -0.23812102 0.22544618 -0.1135532 0.11179265
000350 3d c4 65 3d 87 c8 e0 3e 15 74 be bf 65 33 c3 3e
       0.05609535 0.4390299 -1.4879175 0.38125148
000360 49 26 9f bd 2d ca 06 bd 6e 1a 5f 3f 6e b7 98 bc
       -0.07770974 -0.032907654 0.87149704 -0.018642154
000370 28 59 22 bd 3b 08 44 be d1 4b c3 3d ec 2f 35 bf
       -0.039635807 -0.19143765 0.09535945 -0.7077625
000380 0a 9d 8b 3d 3f c3 2f be c1 e9 1c be 79 59 3a 3e
       0.06817062 -0.17164324 -0.15323545 0.18198194
000390 96 7e 83 3d f5 f8 45 bd 2c 2b 25 be a9 f7 5c 3d
       0.06420629 -0.048333127 -0.1612975 0.053947125
0003a0 43 eb 48 bd 39 1b c2 be ac 70 91 be 72 7c b9 3d
       -0.049052488 -0.37911394 -0.28406274 0.09056939
0003b0 bb 58 6f bf 1f 33 c2 be 3f d8 42 3e 25 a4 38 bd
       -0.93494767 -0.37929627 0.19027804 -0.045078415
0003c0 dd 4f 09 bf d4 b8 e4 3d 4c 09 1e be fb 00 56 3d
       -0.53637487 0.11168066 -0.15433234 0.05224703
0003d0 05 31 f0 be 91 59 57 3f 62 d3 df bf d1 fe b9 bd
       -0.469124 0.8412104 -1.7486384 -0.090818055
0003e0 be c2 2e 3e 8e 35 bc be d4 ba ce 3e b7 21 b7 be
       0.17066476 -0.3675961 0.40376914 -0.3576791
0003f0 9e 95 b6 be 93 0f 13 bf af 91 a9 bf 0d d8 0d 3e
       -0.35661024 -0.5744564 -1.3247584 0.13851948

4.bias f4 [16]
000000 44 4c 71 be 67 09 81 41 a2 87 4a 41 ac a9 5f 41
       -0.2356425 16.129591 12.6581135 13.978924
000010 88 b5 82 41 b4 3e 43 40 16 6e 79 40 6f 89 a0 3f
       16.338638 3.050702 3.897344 1.2541941
000020 72 a7 e1 3f 55 a0 47 41 37 e6 2e c0 15 5c ec 40
       1.7629225 12.476644 -2.7328012 7.3862405
000030 2f fe 18 3f 55 8f 63 40 d7 62 02 c1 a7 a8 98 3f
       0.59762853 3.5556233 -8.149131 1.1926469

6.weight f4 [2, 16]
000000 b8 41 99 3d 77 0a 5f 3e 43 4f 0b 3e 38 34 09 3d
       0.07483238 0.21781336 0.13604455 0.033497065
000010 14 95 0d 3e dc 61 81 3d 25 f8 b4 bc 75 13 c8 bd
       0.138264 0.06317493 -0.02209098 -0.09769336
000020 6a 57 a7 3d b6 a0 06 3e e1 ac ac bd 6c 9d 36 3c
       0.0817097 0.13147244 -0.084314115 0.011145931
000030 69 98 71 3d 68 68 3e 3d b7 2f 86 bd 54 6b 07 be
       0.05898324 0.04648629 -0.0655207 -0.13224536
000040 33 fc b5 bd d6 a5 b4 3d 16 46 43 3e c8 60 6c 3d
       -0.08885994 0.08820693 0.19069704 0.057709485
000050 2e b9 66 3d 41 5f 2c bc 79 f6 df 3c 89 6f c8 bc
       0.056328945 -0.010520757 0.027339207 -0.024467247
000060 07 f8 1a 3d 4a 26 24 3e 6d d4 85 bc 6e c0 80 3d
       0.037834194 0.16030231 -0.016336644 0.06286703
000070 d6 27 3f bd dc 4a a3 bb e4 1d bb bc 8e 8b 56 3c
       -0.04666885 -0.004983289 -0.022841401 0.013094796

6.bias f4 [2]
000000 d5 33 c8 40 37 f8 e5 40
       6.256327 7.1865497
