best_model.pt (torch, 63149 bytes, 8 tensors)

0.weight f4 [64, 193]
00000000: aae6 0b3e addb fbbd 435a 9c3d 312e 0ebe
00000010: 48fc d03d 17ea 803e 05e1 fdbe 6a11 dbbd
00000020: ee77 8abe 95b3 98be e7b7 8abe 94f2 dfbe
00000030: 436e 19bf 108f acbe 17a6 493e ba75 8b3e
00000040: f758 efbd 0d4c ff3b 1976 f7bd f36d b73e
00000050: 36b5 1f3e 58f4 3c3c 9624 39be 33b4 21be
00000060: 08ef 053e b585 4f3e c351 32be 2de2 c9be
00000070: 4361 04bd 1837 903e 8f5b 063f b210 5bbe
00000080: aec3 183e 3f29 013e b438 e03e 0cd2 07be
00000090: 1b36 53be 183a 783e 6e00 7abd 8818 8abe
000000a0: c494 803b 1ecb 39be 7615 b83e ddc3 e93c
000000b0: d42d 0a3e 658b 663f 194d 1dbe 844b b1be
000000c0: a921 e73e 35f1 833d 2efd e1bd d715 3abe
000000d0: c12b 68be 5228 c53e 08e2 ce3e 028e be3e
000000e0: 0ebe a93e 287d 35bf 51d0 ba3e 16f5 753f
000000f0: 10ad c13d 22ea c53e b356 ee3e e738 c93d
00000100: d2b1 3d3e 13b8 2a3e 41b9 243e b13d 373e
00000110: ee01 093e f228 623e eab3 e23e 2f91 fe3e
00000120: 3e6a 023f 35cc 123f 71c5 013f a739 ed3e
00000130: 49f3 043f 694c e03d 7384 bc3d 872c 203d
00000140: 19a0 0c3e a734 1a3c 94cc 213d a750 8ebc
00000150: e0d6 7e3e 2030 9a3e d40b fc3d e4f1 ff3d
00000160: 7d88 b83e f694 403e cb76 3f3e 5abe 53bf
00000170: 079a 46bf 8bcb 0cbf 2353 cbbe c3f7 dfbe
00000180: b385 a2be 25f8 6abe 57af 68be 9cbf d8bd
00000190: 1d11 40bd 4092 a0bd 21d5 14be eadc 90bd
000001a0: b94d 963d 4818 16be 168d 8b3b cc79 08be
000001b0: eed5 a8bd 8198 4f3d 3164 5ebd d9f3 00bd
000001c0: 9aa1 633d b18a bb3d c4dc 473e cdff 853e
000001d0: ee89 ef3e 560b 8c3e dd13 8d3c f106 9bbf
000001e0: 4ab2 84bf 27e0 82bf 4f8d 3abf 16b3 c4be
000001f0: 7c35 2bbe 5014 77bd 6f33 75bd 47bb 1ebc
00000200: 5960 2abd c037 71bd 1413 383b 516a febc
00000210: 9aca 2a3c 966f d0bd f12b c6bc 74c0 c1bd
00000220: 321d c5bd 6507 993c 5831 60bd 49af ba3a
00000230: 0e21 cdbd 8e4a 42bd cdec 9dbd caff ecbd
00000240: 48d5 d0bd 5f67 9f3c 9d9a 7fbd c6be 803b
00000250: 0b26 4d3c 7efe cabd 2547 6dbc 9579 51bd
00000260: b2d8 ecbd d5d6 3abd 7d87 9b3c bf50 9ebd
00000270: a0dc c3bc fc60 1abc de4a 31bd b453 9ebd
00000280: 8861 d1bd 0cab 48bc f8a9 8cbd 7e44 82bc
00000290: 7a0f 84bd 1851 debd 91a3 c23a 48be efbd
000002a0: 1428 343b 8316 843c 7b8d e9bc dbd1 723c
000002b0: 639b 0a3b cc9a fabd 8b4c 433c c5ae 78bd
000002c0: 3a62 c0bc 087f 6abd 7814 dcbd 167c 18bd
000002d0: 3a54 acbd c487 c7bd 5215 f7bd 885d b7bd
000002e0: 5e73 f83a 1acb 253c 680c 85bd 089b 16bd
000002f0: 8396 21bd ac47 88bd 92ed 9e3e f881 8cbe
00000300: 1220 d6bd e4f1 ce3d 34fc cabb 0869 973e
00000310: f0fa 623d 58eb 7b3e 2a41 033e a62a c73e
00000320: 2ce8 b33d 0d55 71be 6547 133e 82fd 08be
00000330: d2e1 8aba eeb2 3a3d 304c 233e f865 d2bd
00000340: 958b 2bbb d9be 23bd 853f 9cbc 617e 09be
00000350: 921f 503d c64b fabd 6519 5fbd e96f bdbd
00000360: 295b c7bc 67cd a23d 7073 103e b3e6 98bd
00000370: 39da 8abd 2437 2ebd 6582 fa3d f972 af3e
00000380: d10a bc3e 0872 333e d1af ae3e 66d5 103f
00000390: 0863 03bd 89ba 263e b8ce c33e e3b6 943e
000003a0: 0803 3c3e b54e 423e a114 153e 2d96 c8bd
000003b0: 7484 88be 96dd dcbd ebad ae3c e838 05be
000003c0: 6dfa bfbd e711 4f3e b94f 8ebd 6752 0ebf
000003d0: f7be bfbe c8bc 7abe f213 fa3d f78c a0bd
000003e0: 31c3 9d3d 388f 343e 755b 273d 83d9 003d
000003f0: 06c9 e33e 55fd 023f 29bb 0b3f b245 333f
0.1366221 -0.12297759 0.076344036 -0.13884808 0.10204369 0.25178596 -0.4958574 -0.10696681
-0.27044624 -0.2982451 -0.2709343 -0.4373976 -0.5993387 -0.33702898 0.19692264 0.27238256
-0.116868906 0.0077910484 -0.12083072 0.35826072 0.1559647 0.011532865 -0.18080363 -0.15791397
0.13079464 0.20265849 -0.17414002 -0.3943037 -0.03231932 0.28167033 0.5248346 -0.21393088
0.14918396 0.1261339 0.4379326 -0.1326372 -0.20626108 0.24240911 -0.061035566 -0.2697184
0.0039239842 -0.1814389 0.35953873 0.028535778 0.13494045 0.9005645 -0.15361442 -0.34627926
0.45142868 0.06442491 -0.11034618 -0.18172394 -0.22672941 0.38507324 0.40406823 0.37217718
0.33152813 -0.708941 0.36487058 0.96077096 0.09456837 0.38655192 0.4655052 0.098253064
0.18524864 0.16671781 0.16086294 0.17894627 0.13379642 0.22085932 0.4427789 0.4972014
0.5094336 0.57342845 0.50691897 0.46333048 0.51933724 0.10952074 0.0920495 0.039104965
0.13732947 0.009411967 0.03950174 -0.017372442 0.24886656 0.3011484 0.123069435 0.12497309
0.36041632 0.18806824 0.1869766 -0.8271233 -0.7757878 -0.5499808 -0.39711866 -0.43743715
-0.3174263 -0.22946222 -0.22723137 -0.105834216 -0.04689132 -0.07840395 -0.14534427 -0.07073386
0.07339043 -0.146577 0.004258762 -0.13327712 -0.08243929 0.05068255 -0.05429477 -0.03148255
0.055574037 0.09157313 0.19517809 0.26171723 0.4678492 0.273524 0.017221386 -1.2111493
-1.036691 -1.0224656 -0.7287187 -0.38417882 -0.16719621 -0.060322106 -0.059863504 -0.009688205
-0.04159579 -0.058891058 0.0028087543 -0.031056555 0.010424281 -0.10177533 -0.024190875 -0.09460536
-0.09624709 0.018680284 -0.054734558 0.0014242913 -0.1001607 -0.047434382 -0.07711182 -0.115722254
-0.1019693 0.01945847 -0.06240331 0.003928992 0.012521277 -0.09911822 -0.014482294 -0.05114134
-0.11564769 -0.045615036 0.018985504 -0.07730245 -0.023908913 -0.009422537 -0.04328429 -0.07730809
-0.10223681 -0.012247812 -0.068683565 -0.0159018 -0.064482644 -0.10855311 0.0014849772 -0.11706215
0.0027489709 0.016124016 -0.028509846 0.014820541 0.0021149747 -0.122365564 0.011920105 -0.06071355
-0.023484338 -0.057250053 -0.107460916 -0.037227713 -0.084145024 -0.09742692 -0.120646134 -0.089533865
0.001895528 0.010119224 -0.06496507 -0.036768943 -0.03945018 -0.06654295 0.31040627 -0.27442908
-0.10455336 0.10104731 -0.0061946157 0.2957232 0.055415094 0.24601495 0.12817827 0.38899726
0.08784518 -0.235676 0.14382704 -0.13377956 -0.0010595864 0.045580797 0.15947032 -0.10273355
-0.0026175727 -0.03997693 -0.019073257 -0.13427116 0.050811358 -0.12221484 -0.054467577 -0.09249861
-0.02433546 0.07949334 0.14106536 -0.074658774 -0.06779904 -0.042533055 0.12231902 0.34267405
0.36727002 0.17523968 0.34118512 0.5657562 -0.032076865 0.16282095 0.3824365 0.29045781
0.18360531 0.18975337 0.1455865 -0.09794269 -0.26663554 -0.10784452 0.021323165 -0.1300999
-0.09373937 0.20221673 -0.069488 -0.55594486 -0.37450382 -0.24486077 0.122108355 -0.07839387
0.077032454 0.17632759 0.040858705 0.031457435 0.44489306 0.51167804 0.5458246 0.7002822

0.bias f4 [64]
00000000: b924 803e 9900 f53e 5293 d13d 5b75 033f
00000010: f560 be3e 63ae 85bd 46ed 0a3f 93a4 3e3e
00000020: 677d df3e 2f27 303e bda0 5a3d 49cb d73d
00000030: 9949 93bd 86ac 3db9 b0b7 203e 1640 7d3e
00000040: d69b 59bd ef5f 9c3e b7d8 e03e ae3c e43d
00000050: 154b 413e f5ff 80be 2a2d 4bbd b7c7 d03d
00000060: b29e ac3c b3db 4d3f 7e3e 51be f3e1 773f
00000070: b104 5b3f 99a8 213d 5f59 80bd 77ac d73d
00000080: 3624 ad3f ae5c a63d a13a 0bbe 1ccf ec3d
00000090: 5ed1 c33e ed44 37bc f67b f63c e376 a23e
000000a0: 732b 7fbe 5481 6c3f 5291 1c3d afd0 883e
000000b0: b9c3 b43f bb54 97bb a0e9 82bd 9a4c b13b
000000c0: 4be8 3e3f 4129 d93e ec49 163f 16af f2bd
000000d0: 9c2a 583f d554 903e 0c98 4d3f a708 d33e
000000e0: 3946 5ebd fa01 243f 9353 603f 0704 493e
000000f0: e58d 97be 024d a43e 2cd0 b6bc 62fe 9bbb
0.25028017 0.47852018 0.10233177 0.51350945 0.37183347 -0.06527402 0.542683 0.18617468
0.43650362 0.17202447 0.05337595 0.105368204 -0.07191772 -0.00018088715 0.15695071 0.24731478
-0.053127132 0.30541942 0.4391534 0.11144386 0.18876298 -0.2519528 -0.04960362 0.101943426
0.021071766 0.8041336 -0.20433995 0.96829146 0.85554034 0.039467428 -0.06267046 0.10530942
1.3526676 0.08123146 -0.13596584 0.115629405 0.38245672 -0.011185867 0.030088406 0.31731328
-0.24918918 0.9238484 0.038224526 0.26721713 1.412223 -0.004618255 -0.06392217 0.005410743
0.745732 0.42414287 0.58706546 -0.11849801 0.84440017 0.28189722 0.8031013 0.4121754
-0.05426619 0.64065516 0.87627524 0.19630443 -0.29600444 0.32090002 -0.022316061 -0.0047605494

2.weight f4 [32, 64]
00000000: c8f9 863f 0326 47bb 15aa ae3e 0dff 653d
00000010: 7570 413e 1f1a c4bd 632b 5abf ecd5 1e3e
00000020: 42d4 7fbc e954 33bf ddba 373e ec4d bd3f
00000030: 1ada bbbc 0f65 f03b 23e2 123f 7345 67be
00000040: 02b5 edbe 0e99 0a3f 779c a1be a6be 9b3d
00000050: 402f 66be 2494 9fbe 40ad 8b3d 784f bdbc
00000060: f915 413e b9c0 3c3e bb95 01bd 497f e03d
00000070: 8255 743d 4bbc 0a3f f4bf 213d 8d1c a93e
00000080: a173 273f 2de6 003f df98 a5be 64ad 393e
00000090: cfc2 61be 2191 ec3e a795 8ebe 5e03 3d3d
000000a0: d902 80be d4f1 6b3e 4363 0fbe a866 9cbe
000000b0: 1274 e73d 3e7e bcbd be18 b53d bb1e 9a3e
000000c0: 3ad7 a73d ed64 103f 2d38 b83e e1d1 0ebf
000000d0: 01d2 813e 6e2f 283f 5faa 66bf 6ac7 bebd
000000e0: 7ef0 eebe dc67 15bf 3953 ab3e fb39 703e
000000f0: 522e 8abe 5e12 55bd b01b 8fbd f132 d1be
00000100: cf8d 27bc 7bbb 0fbc 0a73 db3d 1466 c43d
00000110: 4105 313d 8fcb 8ebd 3675 153d 92f0 58bd
00000120: e2d2 21bd e568 e3bc f0d5 b1ba abbe 033d
00000130: c1a2 bfbd 97f3 033d d6e4 833d 9526 ca3c
00000140: 6e11 c73d 838d 7ebc a6bf 093d 91c9 ca3d
00000150: a95c 823c c2f7 803d ee0c cdbc c82c c23d
00000160: 6e94 08bd cc54 23bc e1f5 b037 141b f2bd
00000170: 39ed 80bd 3d54 93bb b312 b1bd 6415 08bd
00000180: b8c8 be3d 9d0d 07bb 3377 90bd 521b 03bd
00000190: 883b a2bd 01ec e13d be64 cebd 3c62 313d
000001a0: 1968 58bd 1cfd 75bd 1597 10be cd7d 713d
000001b0: 420a 0cbe 79ab e6bd 4039 613d 9979 a03d
000001c0: 6fb2 97bd 497b 03bb e52f 55bc 390e a4bd
000001d0: 9d58 f33b 1cf6 7fbd 4553 063b 3000 383d
000001e0: 29e6 653c bdda 65bd d400 48bb da4d 47bd
000001f0: 0414 3c3d 5d51 4bbc 5eab 12bd 98db f6bc
00000200: b824 903f 772b 18be 4554 9e3e 9c58 493d
00000210: b6db ea3e 5689 4ebd 821b bcbd c4e4 da3e
00000220: 47de da3e bd30 0dbf 30b3 9e3e 734a 0b3f
00000230: 277b 8ebe 944b 19be 5123 7f3f 0929 c5bd
00000240: 605b 68be 9f3e 223f 0bb0 bdbd fa8e febb
00000250: 1318 b6bd c9a3 b5be eb49 9cbd 10b9 a63c
00000260: 418a 873e a976 0a3e 0132 b7bd 995c 363e
00000270: 18d2 8e3e 4a28 b03e a591 eebc a608 0d3e
00000280: 4084 0e3e 59c1 353f 2821 99be e502 9f3e
00000290: ace9 58be fded 613f e52e 22be f273 9bbd
000002a0: 3725 8bbe 3b4d ab3e f02a 33bd b20a 1a3d
000002b0: 1b04 2ebd 038b cdbc a0cb 77bd cd25 ab3c
000002c0: 653b 593e c9d2 de3e 11a9 743e e86c 7abe
000002d0: ab9b d73e b953 653f 0d3c 67bf fce9 9e3d
000002e0: e394 d0be 4063 72bf c319 b23e b30e dd3d
000002f0: a053 d8be 14d1 9bbd c859 a6be d07f cabe
00000300: 93e9 bbbe d9dd 133e cbd7 e4be 6c9c 1cbd
00000310: 39c1 983d d071 763d 6016 2b3f 884b 32ba
00000320: 324d ff3e fa44 d93e c1a7 f83d b548 86bc
00000330: a90b 35be 9b26 153c 1b41 a5be c30d 2a3b
00000340: 5d1e 1cbd cbc3 083c 9c46 f93e d563 dcbd
00000350: a270 8c3e 76e1 a5bd 85d5 a73d efe1 1cbe
00000360: 000f dd3e dd78 923e 43c1 f1bd 1497 a93e
00000370: b7ca 293e 6ca5 c33b d657 853c da94 cbbe
00000380: 2afa 5e3f 3fc9 0ebd 2ca7 12bc 5f86 893d
00000390: 028b bc3e 9463 a0bf edf2 4f3c 710d 1b3d
000003a0: 5012 81be 4d72 213e 089c 0fbe 10d2 113e
000003b0: bf4a b73e ede9 cd3c 1089 7d3d 74ca c93e
000003c0: 7fec 9d3e 7394 eb3e 1809 873e 1cd4 933c
000003d0: 8d0d 853e 8b4e 10bf cae9 9e3f 00c7 523e
000003e0: 7d0d 7b3d 9c83 fb3f 7d96 3d3e 9056 ecbe
000003f0: 10fd eabd 21e2 863c 4227 013a f58e f5bd
1.0544977 -0.0030387647 0.34114137 0.05615144 0.18890555 -0.09575295 -0.8522245 0.15511292
-0.015614571 -0.7005144 0.17942376 1.4789405 -0.022931147 0.007336266 0.5737631 -0.22585087
-0.4642716 0.5413979 -0.31564686 0.07604723 -0.22478962 -0.3116771 0.06820154 -0.023109183
0.18856038 0.18432893 -0.031636935 0.10961778 0.05965186 0.5419356 0.0394897 0.33029595
0.6541081 0.5035122 -0.32343194 0.1813255 -0.2204697 0.46204475 -0.2784855 0.04614579
-0.25002173 0.23041469 -0.14002709 -0.3054707 0.113014355 -0.09203766 0.0884261 0.3010157
0.08195348 0.56404 0.3598036 -0.55789 0.25355533 0.6569737 -0.90103716 -0.09315379
-0.46667856 -0.583616 0.3346193 0.23459618 -0.26988465 -0.05201947 -0.06987703 -0.40859178
-0.010226681 -0.008772726 0.10715301 0.09589782 0.0432179 -0.069724195 0.036488734 -0.0529638
-0.039507754 -0.027759979 -0.0013567787 0.032164257 -0.09357215 0.032214727 0.06440131 0.0246766
0.09720121 -0.015536669 0.033630036 0.09901727 0.015913324 0.06297256 -0.02503058 0.094811976
-0.03334468 -0.009968948 2.1095331e-05 -0.11821571 -0.06295247 -0.004496126 -0.08646145 -0.033223525
0.09315628 -0.002060748 -0.070539854 -0.032008477 -0.07921511 0.11031342 -0.10077809 0.043306574
-0.05283365 -0.060055837 -0.14120133 0.058957864 -0.13675788 -0.112631746 0.05498624 0.07835693
-0.074070804 -0.0020062497 -0.013011907 -0.08010525 0.007426335 -0.062490568 0.002049641 0.044922054
0.014031925 -0.05611681 -0.0030518072 -0.04865823 0.045917526 -0.012409535 -0.03580796 -0.030134007
1.1261206 -0.1486033 0.30923668 0.04915677 0.4587075 -0.050423943 -0.09184934 0.4275266
0.4274771 -0.55152494 0.30996084 0.54410475 -0.27828333 -0.14970237 0.99663264 -0.096269675
-0.22691107 0.633768 -0.09262093 -0.007768509 -0.088913105 -0.3547652 -0.07631286 0.020351917
0.26472667 0.13521828 -0.08945084 0.1780876 0.27894664 0.34405738 -0.029122183 0.1377283
0.13917637 0.7099815 -0.2990811 0.31056896 -0.21182889 0.88253766 -0.15838201 -0.07590474
-0.2717683 0.3345736 -0.04374212 0.037607856 -0.042484384 -0.0250907 -0.060496926 0.020892048
0.21214063 0.4352019 0.23892619 -0.24455607 0.42110953 0.89580876 -0.90326005 0.07759473
-0.40738592 -0.94682693 0.3478528 0.10793819 -0.422513 -0.07608238 -0.32490373 -0.39550638
-0.3670164 0.14440097 -0.44695887 -0.038235113 0.07458729 0.060167134 0.66831017 -0.0006801416
0.49863583 0.42435437 0.121413715 -0.016392091 -0.17680229 0.009103443 -0.32276234 0.0025948144
-0.038114894 0.008347462 0.48686683 -0.10761229 0.27429682 -0.08099644 0.081950225 -0.15320562
0.43175507 0.28607836 -0.1180444 0.33123076 0.16581236 0.0059706476 0.016277235 -0.39762002
0.8710047 -0.034859892 -0.00895099 0.067150824 0.36824805 -1.2530389 0.012692195 0.037854616
-0.25209284 0.15766259 -0.14024365 0.14240289 0.35799214 0.025135959 0.06189829 0.39412272
0.30844495 0.46011695 0.26374125 0.018045478 0.259869 -0.5636985 1.2415097 0.20583725
0.06129216 1.9649539 0.18514438 -0.46159792 -0.11474049 0.016465249 0.00049268093 -0.119901575

2.bias f4 [32]
00000000: 16ba 083e 869a 9cbc d418 8a3e 3eb6 1d3f
00000010: 58e7 c5bd de7a 903e 2909 4bbe 6f67 ac3d
00000020: f8c5 173f 2e53 cebd b0b6 36bd 5019 b53e
00000030: 041c 9abd 5271 c23e 74a7 e03e 5f5b 3b3f
00000040: 68b1 d13d b434 e23e 7180 92be 9aa6 2e3d
00000050: 60fe dcbd 525b 173f f493 c03e 9383 b93e
00000060: ab1d d53e 5248 ad3c c084 d23e 07a1 26be
00000070: 8c5e d0bd 7c5b 0a3f 70d9 bdbc 8d8a a83e
0.13352236 -0.019116651 0.26972067 0.61606205 -0.09663266 0.2821874 -0.19827713 0.08418166
0.5928645 -0.10074459 -0.044607818 0.35370874 -0.07524875 0.37977082 0.43877757 0.73186296
0.10238916 0.44180834 -0.28613618 0.042639352 -0.10790706 0.5912372 0.3761288 0.36233196
0.41624197 0.02115265 0.41116905 -0.16272365 -0.101742834 0.54045844 -0.023174971 0.32918206

4.weight f4 [16, 32]
00000000: 806e 473f 51a6 c0bd 89c6 fe3e 929f c6bf
00000010: 3cc2 663d 7789 513f 57ba d0bd 3570 c9be
00000020: 7c79 17bf 3b55 1c3e c9f2 073d 9c2b 773e
00000030: 1d5c 1c3d ab93 d43d 15f3 70bf 9bc7 2cc0
00000040: e043 b83e ecc6 203d 1c34 833e 0129 25be
00000050: 3258 9dbd 8951 39bf 0e8e c7bd 6169 0a3f
00000060: 2380 3e3e b82e f53f 2894 d6bd aa7e 4f3d
00000070: 4dcd fdbd 6f03 8f3e 3598 d5bb 4f31 a7bd
00000080: cdf4 85bd b1af 033e ba79 cbbd a06c 073d
00000090: b651 6dbd 2077 fdbb 0fd6 dabd aa0c 0fbe
000000a0: c30a d2bd 409a 5abb 57ea e3bd ab2a 09be
000000b0: 1d4b debd f9a3 1b3e 5620 f83d 7c7f 503d
000000c0: 10de 20bc a460 48bd a144 233e 5c6e 0bbd
000000d0: 9014 d2bd dacb e43d a655 68bd e008 043c
000000e0: 580e 26be f673 a23d 6b9c 063e 78df f4bd
000000f0: bcb1 12be 196b 34be 1838 8b3d 986e a43c
00000100: 3427 7bbe 43c2 7ebd 4d12 8dbe 8734 643e
00000110: 348d 1bbd 6507 e6be b53e 323f 1b1e a8bc
00000120: 084c b03d 8700 0c3e ccfb ba3d cf99 793e
00000130: 225c 313d 5a0a 493e d1fe fdbe 6a39 ee3f
00000140: 0b62 5e3e c548 46bd 7a46 b13d d3aa 36be
00000150: b02f 9e3c cdf4 6cbf 9b91 bb3e 61f4 9abe
00000160: 60c2 0e3d ae58 44be a714 da3e 2118 05be
00000170: 1069 e43d 0c2b d73e 250a 7dbd 1ff5 d83e
00000180: d9a4 dc3d ee9f 1cbe db83 afbd 688d 35be
00000190: 6df7 f3bd f213 46be 66d2 9cbc 734d af3d
000001a0: 9b00 d93c 50ea 02bc ceed 1f3e ffa8 20be
000001b0: c888 08be ac22 d63d 513f 05be 686e 343e
000001c0: 937f aebd 2e48 3ebe 317b 20be 922e b83d
000001d0: 288a 80bc 9831 a5bd 3b5d 3bbd 38e0 273b
000001e0: dd68 55bd 61bd b53d d283 95bd 52a8 92bd
000001f0: 1ef2 f73d 8007 c83d aa6e 24bd 76b0 f4bd
00000200: 0687 efbb faaf b63d 74bf a5bd 1b1b e0bd
00000210: 0b90 e9bd 918e 75be 442c 0fbd b4c8 fdbd
00000220: ae12 98bd c239 01be bd1b a3bd cf71 893d
00000230: b873 28be 7aad 15be f325 cb3d ee48 083d
00000240: ccf4 b83d c7c2 2ebd 3251 2b3d aaac f13d
00000250: df14 113e aba0 96bd cedc 40be ee90 4dbe
00000260: 90c6 4ebe 062a 1e3d addb 77be 90b5 783c
00000270: e8d4 453d a249 f63c 9c39 0b3d 2ae6 293d
00000280: 4026 5e3d 53a5 283e dc85 793d 28a5 0fbd
00000290: 6ca1 86bd d9d5 1bbe b06f 08bd 403a 00bb
000002a0: fe16 b23d 0c3d a1bd 037a 19be 7fa6 a1bd
000002b0: 081e dfbd f210 dd3d 4c0d 24be 2369 31be
000002c0: e81e 15be 3e14 c23d 4e0e 2cbe 58d1 853c
000002d0: 8003 3cbc a52d 123e 5a58 0dbe c9b5 233e
000002e0: 80a9 4cbd 620f b53d 9a7d 82bd f091 3c3d
000002f0: 09d5 0c3e 6ac7 c4bd 0371 15be 80e4 e23a
00000300: d3ba 0a3f 3395 4d3d 5b3e df3e 49fe 25bd
00000310: b125 21be c1a0 363f dff4 76be dc5a d4bd
00000320: b239 8d3e 6562 24be 0c0c 3d3e 8816 ccbc
00000330: 66d8 91bd 187b 85be a4af 863f fb8f 9fbf
00000340: 7301 3b3e 2d5d c5bd e735 873d 3a99 de3d
00000350: 0a45 eb3d a9dd 0d3f 5f3b 043e d27c cd3e
00000360: 763a f4ba 65c1 fe3f 268e 2cbe cd35 6c3d
00000370: 5e37 293e 9a5d 283e ab8c 31bc a377 afbe
00000380: 55f0 063f b398 02bd 4e33 2b3f 0f10 dcbe
00000390: d17d 133e ec7f f83e 055d 51be 366c 90bd
000003a0: 6efc 3abe 408c e6bb ad5e 0b3e 292b 8b3e
000003b0: 31c0 02be 08e8 32be a388 25bf 933b a7bf
000003c0: 83fd ca3e 9d74 efbc 2793 933e c732 d8bd
000003d0: 6085 133d e89a 053f 4674 e3bd e0d9 2f3f
000003e0: fa74 60bc 57de 803f 7466 90be d5b9 02be
000003f0: c4c2 2abe 7b36 a53e d429 0dbd ed4b 4cbe
0.77902985 -0.09406722 0.49760845 -1.5517447 0.05633758 0.8185038 -0.101917915 -0.3934342
-0.59169745 0.15266888 0.033190522 0.2413773 0.038173784 0.10379728 -0.94120914 -2.699683
0.35989285 0.039252207 0.25625694 -0.16128923 -0.076828375 -0.7239004 -0.09743892 0.54067045
0.18603568 1.9154882 -0.10477477 0.050657906 -0.12392674 0.27932307 -0.0065183886 -0.08163702
-0.06540833 0.1285999 -0.09935327 0.033062577 -0.057939254 -0.007735148 -0.1068536 -0.13969675
-0.10255959 -0.00333561 -0.11128681 -0.13395183 -0.108541705 0.1519927 0.121155426 0.05090283
-0.009818569 -0.04892029 0.15944149 -0.034040794 -0.10257828 0.11171694 -0.056722306 0.008058757
-0.16216409 0.07932274 0.13145606 -0.11956686 -0.14325613 -0.1761898 0.067978084 0.020072266
-0.24526674 -0.06219698 -0.27553025 0.22285663 -0.03797646 -0.44927517 0.69626933 -0.020522168
0.08608252 0.13672076 0.09130058 0.2437508 0.043300755 0.19632855 -0.49608472 1.8611271
0.21717088 -0.048409242 0.086560205 -0.17838602 0.019309849 -0.92561036 0.36634526 -0.3026457
0.03485334 -0.19174454 0.4259388 -0.12997486 0.111528516 0.4202503 -0.061777253 0.42374513
0.1077363 -0.15295383 -0.08570071 -0.17729723 -0.11912427 -0.19343546 -0.019143295 0.08559694
0.026489547 -0.007990435 0.15618059 -0.15689467 -0.13333428 0.10455832 -0.13012435 0.17620242
-0.085204266 -0.18582222 -0.15671994 0.089932576 -0.015690878 -0.080661 -0.04574321 0.0025615823
-0.05210196 0.08874012 -0.07300533 -0.07161011 0.12106727 0.097670555 -0.0401446 -0.1194772
-0.007309797 0.089202836 -0.080931574 -0.1094267 -0.11404427 -0.23980166 -0.034954324 -0.12391797
-0.07425438 -0.12619689 -0.07964275 0.067111604 -0.16450393 -0.14616957 0.099193476 0.033272676
0.09031066 -0.042666223 0.04182548 0.11800511 0.14168118 -0.07354864 -0.1883423 -0.20074818
-0.20192933 0.038614295 -0.24204893 0.015180007 0.048298746 0.030064408 0.033990487 0.041479267
0.054235697 0.16469316 0.060918674 -0.035069615 -0.065737575 -0.15218295 -0.03330964 -0.001956597
0.08695792 -0.07872972 -0.1498795 -0.07893085 -0.108944 0.10794248 -0.16020697 -0.17325263
-0.14562571 0.09476517 -0.16802332 0.016335174 -0.011475444 0.14275225 -0.13803235 0.15987314
-0.049966335 0.08840825 -0.06371613 0.046037614 0.13753141 -0.09608348 -0.14593892 0.001731053
0.5419132 0.050191116 0.4360226 -0.04052571 -0.15737034 0.7133904 -0.24116848 -0.103688926
0.2758308 -0.1605316 0.18461627 -0.024913087 -0.07121353 -0.26070476 1.0522351 -1.2465814
0.18262272 -0.096369125 0.06602078 0.108690694 0.114877775 0.5541635 0.12913273 0.40134293
-0.0018633145 1.9902769 -0.168511 0.057668496 0.16525027 0.16441956 -0.0108367605 -0.34270963
0.5271047 -0.031883907 0.6687516 -0.42981002 0.14403464 0.48535097 -0.2044564 -0.070518896
-0.18260357 -0.007035762 0.13610335 0.27181366 -0.12768628 -0.17471325 -0.64661616 -1.3065056
0.3964654 -0.02923041 0.28823206 -0.1055656 0.03601587 0.52189493 -0.11106162 0.68691826
-0.013699764 1.0067853 -0.28203166 -0.12766202 -0.1667586 0.32268128 -0.03446372 -0.19950838

4.bias f4 [16]
00000000: 2608 7cbe 75c4 05be bafe 1a3e 6a99 5ebc
00000010: ad81 34be 206a 04be b4b3 6d3e 1d4a 793e
00000020: db67 bebd 331e 7cbe 797b 1a3f 7002 f9bc
00000030: 5166 9c3e 6f32 c93e 36fb e43e 93ad 163f
-0.24612483 -0.13063224 0.15136233 -0.013586381 -0.17627592 -0.12931108 0.23213083 0.24344678
-0.092971526 -0.24620895 0.60344654 -0.03039667 0.3054681 0.3929629 0.4472291 0.58858603

6.weight f4 [5, 16]
00000000: e93c ccbe b05d 2bbd 8552 ee3d dcbc 4d3e
00000010: d84d 173e 7648 78be 2b7d 80be 3373 c9be
00000020: abc2 49bf 2811 ecbe 701d 3d3e 6fb7 36bd
00000030: f503 dc3e 59c9 27bf 5b39 1c3f 83e9 103f
00000040: c247 e6bf 28cc eabd f14b 22be 2d96 2fbd
00000050: 204c c73c 1091 f63c 471f f53e 294c 17bf
00000060: 18ae 35be 1aec 58bd 4149 233f 77d0 993d
00000070: d40e d33e 7cd0 98be f483 8ebe e696 ad3d
00000080: 3371 97be 729d 1a3e 641e 063f e360 f53d
00000090: d573 373e 2001 033e 9dbc 32bf 26ef 63bf
000000a0: 305e cfbe 6b2f cdbe 6148 ba3d 53db 033e
000000b0: 82ef 1f3f c62d 72be 29aa 5e3e 1700 11be
000000c0: bbb3 b1bd a08c 0dbc 2c33 ef3e e361 6cbe
000000d0: 948c c63c 90d6 723e 3511 0a3d 3894 92be
000000e0: 081d 4ebf 09c8 37bf bfba 003f 6e7a d43c
000000f0: 7c99 883d 5b34 40bf 5480 253f 6ddf 803e
00000100: e570 bbbe ec2b 7d3e 9834 293e 4e4b 3d3e
00000110: be8f 073e b63a 67be 01c6 9fbe 0818 26bf
00000120: 11b6 0bbf cc51 dbbe dd36 9a3e 887a 603d
00000130: 669d d43e 6773 2dbf f5e7 1c3f d499 8c3e
-0.3989022 -0.041837394 0.11636833 0.20091575 0.14775789 -0.24246392 -0.25095496 -0.39345703
-0.78812665 -0.4610684 0.18468261 -0.04460853 0.4297177 -0.6554161 0.6102502 0.5660631
-1.7990649 -0.11464721 -0.15849282 -0.04286783 0.024328291 0.030098468 0.47875425 -0.59100586
-0.17742193 -0.05295954 0.6378365 0.07510465 0.4122225 -0.2984656 -0.27835047 0.08476047
-0.29578552 0.15099123 0.5239012 0.1198137 0.1791528 0.12793398 -0.6981905 -0.89036787
-0.40501547 -0.4007524 0.090958364 0.12876634 0.62474835 -0.23650274 0.21744598 -0.1416019
-0.08676859 -0.008639485 0.4671873 -0.23084216 0.024236955 0.23714662 0.033707816 -0.28628707
-0.8051305 -0.71789604 0.5028495 0.025937285 0.066699 -0.7507989 0.6464894 0.2517046
-0.3660957 0.24723786 0.16523969 0.18485758 0.13238427 -0.2258099 -0.31205752 -0.6488042
-0.54574686 -0.42835844 0.30119982 0.054804355 0.41526335 -0.67754215 0.6129144 0.27461112

6.bias f4 [5]
00000000: c2b9 713f e4b9 fc3e 2ff4 2abe 4d21 003e
00000010: 8298 d9bc
0.9442407 0.49360573 -0.16694711 0.12512703 -0.02656198
