best_model.pt (torch, 46189 bytes, 8 tensors)

0.weight f4 [64, 126]
00000000: d27a 893d d49f a93d 8bfb 203e 8542 e93d
00000010: a706 fa3d 6416 f43d 583a 403e 6cd1 213c
00000020: ca81 dc3c fb96 963c e661 003e 673c 343e
00000030: 0eae 0f3e 26cb 8b3d a41d eabb f37f 2fbc
00000040: 8871 e33c ac05 1b3d 521f 933c 61e5 483e
00000050: e273 323e 0f39 c43d e55b 163e 4dc8 6b3d
00000060: 783a ac3d fabe 4b3d 5e4a 3d3d 8a89 103e
00000070: 4d8d 303e 6fa0 183d 9979 ae3d 7e59 1f3d
00000080: 85ea b13d 6b42 373e 6d80 663d 03ee 77bd
00000090: de2f b43d 3fb4 183e 8a3a 0f3e bd85 5a3d
000000a0: ff1a cd3d 2e08 e73d 2fdc bf3d 2b6a a23d
000000b0: daf9 af3d 2ad6 233e e4ab 173d 74c6 183e
000000c0: 8b71 083e e32e 4bbc 867f aa3d f776 073e
000000d0: aff6 c93d 9808 0f3e 1c8e 9a3d 9ecb 033e
000000e0: 8586 1e3e b640 343e 7b30 233e f8bf b13d
000000f0: 2bee 693d 9bff 443e d0d9 c33d 82c5 74bc
00000100: 819d ee3d 6eb9 003d 59f8 0e3e 01c5 fd3d
00000110: a04f 0d3e eea5 223d 6127 903d 0ac6 353c
00000120: ab9b 9e3c cb99 5a3d 0d31 033d e56e 053d
00000130: ca67 103d 7916 f13d 0982 21bd 5ef2 ef3d
00000140: b67a f83d c3b9 c33d 016f fbbb 20e6 eb3d
00000150: 15b4 b03d b2eb d6bb dd62 9cbb a8d9 a83d
00000160: de24 f73d 4034 0a3d 7c0b 94bb 1ff8 ac3d
00000170: 9136 c13c 6030 173e fb0f 133e 7b0d 2e3e
00000180: 119f ea3d 6c1c 8d3d b483 a93d d62d ad3d
00000190: 9a8c 673d 0490 873d 9bc8 943d e645 e43d
000001a0: 8453 0a3c ecaf c9bc 4fa4 97bc 3ba8 bf3a
000001b0: ae70 f03d cbfd 483c 29ca 293d 4268 87bc
000001c0: 2826 e93d 81fb 013e 4648 093e f040 093e
000001d0: cc4b 6d3d 2f00 9e3b 4dee 103e 772e 493d
000001e0: 7f8d eabc a61e 953d e63d bd3d bfd7 013e
000001f0: e0b9 003d 9ad7 1e3e dcc5 d33d 22dc df3c
00000200: 584b f83c 5db3 713c 33e5 f7bd 15c0 e0bd
00000210: 940a 12be 11f9 d03d 1abd be3d cc8a 26bd
00000220: 95a1 b5bd 7674 b1bd 8e18 0fbd 148b 99bd
00000230: 6cd8 183e 73ef 0cbd fa78 1ebb d4e1 36bd
00000240: f191 4dbc 04e7 9f3b 929b 223d e9d0 0f3c
00000250: fff9 393d f505 79bd 01bd a7bd 06ed 8cbd
00000260: e4a3 f6bc c962 13be fe7e 053e af80 083c
00000270: 9f6e 803d 7324 1d3d a727 c0bd f773 efbd
00000280: 0095 04be 3b3c ac3d ceaf 3bbd ae36 c9bc
00000290: 6b24 7c3d 5639 11be ec19 16be 785e 2cbe
000002a0: 45c3 9c3d 361f 5c3d c575 b63d c93f 68bd
000002b0: b3e8 7b3d 69e4 c3bd 5989 e9bd 2d3d 0a3d
000002c0: cf69 173d d9b6 be3d 7582 263d 332c 85bc
000002d0: 731f 95bd 93e1 19be 0502 ae3d 4608 b23c
000002e0: a31b 11bc 4a7c c6bc bd92 c6bd cab3 c1bd
000002f0: 444c 09be 14ec 2a3d 587b 473e 74b0 043d
00000300: 7819 403e aca9 463e 91ed 183d e64f 2e3e
00000310: afa7 393e e222 7d3d 7f5d 973c d6d5 203e
00000320: 59d8 223e 2769 1d3e 64e4 743d 7fd9 263d
00000330: 10cc 8bbb e76c b03c fa34 0d3e d008 303d
00000340: 475b f43c e90d 0e3c 4479 293d 546b 433e
00000350: 1ee3 233e e8c9 363e 6f8c 383e 0292 523e
00000360: 949e 443e 2e5e 113e 9392 513e be08 e53c
00000370: c551 0d3e 8f00 ca3d 0164 b03d 7e48 7a3d
00000380: 1a93 243d e1a1 903d e472 e23d ddf8 243e
00000390: cef4 fc3b b765 1b3e beb0 2b3e 0524 db3d
000003a0: 661a de3c 4875 d73d 806b 003e 501d fe3c
000003b0: 66e1 993d a0b0 943d 23b9 d73d 74e1 dc3d
000003c0: 1e08 083e d69d 273e 9022 0e3e 3fb1 7f3d
000003d0: 37a2 663d ed2a 333d c422 8f3d 479b 1d3e
000003e0: 8a95 573d a865 3d3d 6a35 723d 8e9f 863d
000003f0: ed4a 023e 07d1 373d da69 f53d 8506 023e
0.06712879 0.08282438 0.15720956 0.11389641 0.122083 0.11918333 0.18772256 0.00987659
0.026917357 0.01838254 0.12537345 0.17601167 0.1403124 0.06825857 -0.0071446467 -0.010711658
0.027764097 0.037847206 0.01795927 0.19618751 0.17427018 0.095811956 0.14683492 0.05756407
0.084095895 0.049742676 0.0462135 0.14114967 0.17241402 0.037262376 0.08519287 0.038903706
0.08687309 0.1789643 0.05627482 -0.06052972 0.087981924 0.14912508 0.13987175 0.0533502
0.10014915 0.11280857 0.093681686 0.07930406 0.08592577 0.15999666 0.037029162 0.14919454
0.13324563 -0.012401315 0.083251044 0.13228975 0.09861504 0.13968122 0.075466365 0.12870643
0.15481003 0.1760281 0.15936463 0.08679193 0.0571119 0.19238131 0.09563029 -0.014939668
0.11651135 0.03142684 0.13961925 0.12391091 0.13799906 0.039709024 0.07038761 0.0110945795
0.019361338 0.053369325 0.0320292 0.03257646 0.03525523 0.117718644 -0.03943065 0.1171615
0.1213278 0.095569156 -0.007673145 0.11518502 0.08628098 -0.006558859 -0.0047725276 0.0824464
0.12067579 0.033741236 -0.0045179706 0.08445763 0.02358559 0.14764547 0.14361565 0.1699733
0.11456121 0.06890187 0.082770735 0.08456008 0.056530572 0.06619266 0.07264825 0.111461446
0.008442763 -0.024620019 -0.018510966 0.001462228 0.11740242 0.01226754 0.04145256 -0.016529206
0.11384231 0.12693597 0.13406476 0.13403678 0.057933614 0.004821799 0.14153405 0.049116578
-0.028631924 0.07281236 0.09240322 0.12679957 0.031427264 0.15511933 0.10340473 0.027326647
0.030309364 0.014752236 -0.12104263 -0.10974137 -0.14261848 0.10203756 0.09313412 -0.04065971
-0.0886871 -0.08664791 -0.034935527 -0.0749723 0.14926308 -0.034408044 -0.0024180994 -0.04464896
-0.012547002 0.004879834 0.039699145 0.008777835 0.04540443 -0.060796697 -0.081903465 -0.06881146
-0.030107446 -0.14393152 0.13036725 0.008331462 0.06271099 0.03836484 -0.09382563 -0.116920404
-0.12947464 0.084099256 -0.045821957 -0.024562206 0.06155817 -0.14182028 -0.14658326 -0.16832912
0.07654432 0.053740703 0.089091815 -0.056701455 0.061501216 -0.0956505 -0.1140315 0.033749748
0.03696614 0.09312219 0.040651757 -0.016256427 -0.07281389 -0.15027456 0.08496479 0.02173246
-0.008856687 -0.024229188 -0.09695957 -0.0945812 -0.13408 0.041729048 0.19480646 0.03239484
0.18759716 0.19400662 0.037335936 0.17022666 0.18130372 0.061800845 0.0184772 0.15706572
0.15902843 0.15372144 0.059788123 0.040734764 -0.0042662695 0.021536304 0.1378974 0.042977154
0.02982868 0.008670309 0.041375414 0.19083911 0.16004607 0.17850459 0.18022321 0.2056351
0.19201118 0.14196083 0.2046607 0.02795827 0.13800724 0.09863388 0.08612824 0.06110429
0.04017935 0.07062126 0.1105707 0.16110559 0.0077196127 0.1517552 0.1676664 0.107002296
0.027112197 0.105204165 0.12541008 0.031019837 0.075136945 0.07260251 0.10533359 0.10785189
0.13284346 0.16368803 0.13880372 0.062424894 0.056307044 0.04374211 0.06989053 0.15391265
0.052632846 0.046239525 0.05913297 0.065734014 0.12723894 0.04487708 0.1198308 0.126978

0.bias f4 [64]
00000000: 70e0 9f3d 195e 843d 6c98 ad3d c68a a73d
00000010: d76f 3b3e 86c8 f5bc 5d1f d33c a275 223e
00000020: aca4 113e cb74 a73d 3ee9 9a3c 1ccf 173e
00000030: df09 353e 48db 793d 2c14 483e fa93 cb3d
00000040: b09b 9b3d 4a3c d5bb cfd8 af3d 54f2 193e
00000050: 15db b33d cbb3 2c3e 40d1 533e 86f6 9d3d
00000060: f760 423e db22 0e3e 3359 96bd 0c18 bf3c
00000070: eb6b d53d 9f5f 79bc 2474 133e 5464 263e
00000080: 7766 323e 870c 0ebd 5239 75bd aa59 0d3e
00000090: 79db 413e c765 103e 8a00 213e ed76 1d3e
000000a0: 1aea 313e d97e f93d 17bd 813d 6a89 0d3e
000000b0: c945 6c3c c27c d43d e6a9 483b f9d5 ae3d
000000c0: a1cd 103d a05e 4e3e 47a6 4f3b ac7d 993d
000000d0: 180c f93d a979 8d3d 5029 893d 5e00 a1bd
000000e0: ef72 253e 5f10 0b3e 0d82 f13b b16e 0c3e
000000f0: 3903 423e dd62 b4bd b653 b3bd bc13 aebd
0.0780648 0.0646326 0.08476338 0.08180766 0.18304382 -0.030002844 0.025771791 0.15865186
0.14222974 0.08176573 0.018910047 0.148251 0.17679547 0.06100014 0.19538945 0.09940334
0.075980544 -0.006507431 0.08586275 0.15033847 0.08782021 0.1686546 0.20685291 0.07713036
0.18982302 0.13880484 -0.07341232 0.023326896 0.10420974 -0.015220552 0.14399773 0.1624921
0.174219 -0.034679916 -0.059869118 0.13803735 0.18931378 0.14101325 0.15722862 0.15377398
0.17374459 0.121823974 0.06334894 0.1382195 0.014420935 0.10375358 0.0030618845 0.08536906
0.035352353 0.20153284 0.0031684802 0.07494673 0.1216051 0.069079705 0.06697333 -0.07861398
0.16157125 0.13580464 0.0073702396 0.137141 0.18946542 -0.08807919 -0.08756201 -0.08499858

2.weight f4 [32, 64]
00000000: 672d 583e bc5a d3bd 332b 503e 6a1f e83d
00000010: a237 283e e4b3 423e a82d 3c3d 0f82 073e
00000020: bcb8 79bd f0dd 013e 7828 bcbc 8bf0 613c
00000030: 255a 063e 91b6 f4bd 8283 e4bb e20b 443e
00000040: e45a 453e 8729 eb3d a7eb c93c 7e09 c7bd
00000050: 8927 0e3e 3ded 06bd bd0c 353e ae18 f33c
00000060: 691a 363e 0189 273d 2db4 9b3d 5a44 a53d
00000070: 39a2 623e 2654 a13d fd3f 1bbc b7eb 613e
00000080: ba99 febd 6c08 533d 125c 97bd d121 863c
00000090: ceb9 babd 244b 03be 7744 533e ec07 3ebd
000000a0: 5e2c 81bc 7290 373d cc1f 003e 354d 70bd
000000b0: 1a40 263e 009c 273d d08c 0e3e c758 8ebd
000000c0: 1c46 2c3e b871 b1bc ce8c aa3d 22ef 093e
000000d0: f2b2 fcbd 04c3 803d 31ec 11bd f16d 8b3c
000000e0: 947c 82bc b4f8 453e 502e 033e f8c2 d0bd
000000f0: 1686 07bd 21b0 163e 178c 383e 7fbd 583e
00000100: 6ed5 2b3e 1cb1 1bbe 88d3 1e3e 53bd dbbd
00000110: 4f8b d53d 42df 3b3e f57f 08be 845c 643d
00000120: 678a 8bbd ac5b 583e ebc4 33be a03d 2abb
00000130: a1a5 1ebe 323a 63be a98b 35be 0dba 5d3e
00000140: 0985 55bc e0e7 3f3d d2da f73d 6706 64be
00000150: 8a45 a13d 88d5 4dbe e90d 593d 8daa e8ba
00000160: fcfc 923d d3c7 7ebd 15c7 d93d 1c40 813e
00000170: e298 b23d 1da9 f63d 5d4a fdbd 0d4a 833d
00000180: 72f2 d3bd 1116 713e 184f 8dbd 42cd 1fbe
00000190: 7e5a 4abe 9e1b 1dbe 27e6 0e3d 9f0a 6dbe
000001a0: ed60 d33d 63a5 f2bd 1352 063e c465 d5bd
000001b0: d5e5 5a3e 7e47 073e c90f 283e fb4f 72be
000001c0: 05ca 773d fbc7 a43d 1904 3cbe f82a 4a3d
000001d0: 39eb 65be 09f5 1dbe b331 08be fe1c 583e
000001e0: 6927 3e3e d136 293e 2200 573e bc5f 1fbe
000001f0: 4771 25be 0170 fa3d 323c 733e 5e36 7a3e
00000200: c118 053d 30b2 77be 4bb0 1d3d bd1c 5fbe
00000210: 325e 0d3e 79e5 ed3d 781c dfbc 479e ae3d
00000220: 4b0d e4bd 4bfd 4d3d 9fa2 21be 8a57 b2bd
00000230: 4c03 e4bd 6484 33be 1e31 74bd dc80 5f3e
00000240: 3133 223e a205 513e a811 843d c0ab 64bd
00000250: fd5a 3c3d 3125 2ebe cc18 16bd f1ba 783d
00000260: e644 10bd 8b4d 6abe a329 683e 035b ee3d
00000270: 2f76 133e 4cc8 663e 308f b9bd b910 253e
00000280: f9ff 67be 31a5 203e 987f 443b a92e 08be
00000290: 9a54 4fbc 61ce 02be e669 f33d f811 21be
000002a0: a372 80bd a408 94bd daa7 0b3e 4df3 1cbe
000002b0: f47f 0f3b 9d7a 57bc 100f 253e 20d9 90bd
000002c0: 5264 633e 1a5d 203e fbe2 06be 51b9 383d
000002d0: 85af 55bd 00b3 6abd 58eb 3fbe ac64 85b9
000002e0: 28e0 093e d584 013d c985 0d3e 0380 44bd
000002f0: fe9f 43be c527 3a3e e709 193e 8768 5f3d
00000300: 4c9f ef3d a2f8 0c3e 8fcb 1c3e 6d01 cc3d
00000310: 0225 ba3d 35c4 023e 4957 25bd a224 b33c
00000320: 9c51 4c3d b60b 15bc ace9 9c3d 8ad0 0cbc
00000330: d363 103e 5ab8 08bc 4dce 093d 3f43 76bb
00000340: 6b39 0d3e 81b6 a73d 18ed b33c a092 73bd
00000350: 5589 db3c 3e5a 513d fa31 12bd e6da 113e
00000360: 4ca2 1fbd d1fd 133e 3bc6 c6bd 2ecd 45bd
00000370: 044b b7bb be7b 9cbd 4116 b73d 143d 273e
00000380: 3b8a f33d af7b 283c ead8 fbbd 4a75 02bc
00000390: 6a1b 7f3d 4dd9 51bc 0daf 893c 85db 163d
000003a0: 415d 053e 5557 653d 2336 8bbd 0e0a 443e
000003b0: 8b7a b33c f847 163e a91b 043e 20b2 b53d
000003c0: c010 2cbb d514 213e ddbf 983d 7164 1f3e
000003d0: 408e 243e 91a4 3f3e 52dd 29bc 3f2c 133d
000003e0: 4aea 4d3d 9cda f53d ead4 033e f505 913d
000003f0: 00a4 7abb 54bb 10bd 928e b43c bbcc e0bd
0.2111107 -0.103200406 0.20328979 0.11334117 0.16427472 0.19013935 0.04594198 0.13233207
-0.060967192 0.12682319 -0.022968516 0.01379026 0.13120325 -0.11948884 -0.0069736848 0.19145158
0.19272953 0.1148253 0.0246485 -0.09718607 0.13882269 -0.03294109 0.1768064 0.029674854
0.17783512 0.04090214 0.07602725 0.08069678 0.22132196 0.07877378 -0.009475705 0.22062574
-0.12431665 0.051521704 -0.07390608 0.016373547 -0.09117471 -0.12821633 0.20631586 -0.046394274
-0.015768226 0.04481549 0.1251213 -0.05866738 0.1623539 0.040920258 0.13920903 -0.06950527
0.1682362 -0.02166067 0.083276376 0.13470128 -0.123388186 0.06287196 -0.03562564 0.017020198
-0.015928544 0.19333154 0.12810636 -0.10193437 -0.03308686 0.14715625 0.1802219 0.21166037
0.16780636 -0.1520428 0.1551038 -0.1072947 0.10426962 0.18346885 -0.13330062 0.055752292
-0.068135075 0.2112872 -0.17555587 -0.0025976673 -0.1549287 -0.22190168 -0.17729057 0.21653004
-0.013032206 0.046851993 0.121022835 -0.22268067 0.07874592 -0.20100987 0.05299178 -0.0017751023
0.07177159 -0.062202286 0.10633675 0.25244224 0.08720566 0.120439745 -0.12367699 0.064106084
-0.10348977 0.23543574 -0.068998516 -0.15605643 -0.19761083 -0.15342566 0.03488746 -0.23148583
0.103212215 -0.11847951 0.13117246 -0.10419801 0.21376736 0.13210866 0.16412272 -0.23663323
0.060495395 0.08045956 -0.18360938 0.049357384 -0.22453012 -0.15425505 -0.13300209 0.2110481
0.18569721 0.16524817 0.20996144 -0.15563864 -0.16156493 0.12228394 0.23753431 0.24434802
0.03249431 -0.24189067 0.038498204 -0.21788307 0.13805464 0.11616034 -0.027235255 0.08526283
-0.11135348 0.050290387 -0.15784691 -0.08708103 -0.11133441 -0.17530972 -0.059617154 0.218265
0.1583984 0.20412305 0.0644868 -0.055827856 0.04598521 -0.17006375 -0.036644742 0.060725156
-0.035221957 -0.22881143 0.22672133 0.11638453 0.14400552 0.22537345 -0.09060514 0.1611966
-0.2265624 0.15688016 0.0029983278 -0.1329905 -0.012654448 -0.1277404 0.11885433 -0.15729511
-0.06271865 -0.072282106 0.13638249 -0.15327187 0.0021896334 -0.013151792 0.16119027 -0.07072663
0.22206238 0.15660515 -0.13172524 0.045098606 -0.05216934 -0.057299614 -0.1874212 -0.00025442743
0.13464415 0.03162082 0.13820566 -0.047973644 -0.19104001 0.18179233 0.14945184 0.054543044
0.11700305 0.13766721 0.15312026 0.099612094 0.0908909 0.1277016 -0.040366445 0.021868054
0.049882516 -0.00909703 0.07661757 -0.008594641 0.1410058 -0.008344734 0.03364401 -0.0037576703
0.13791434 0.08189107 0.021963641 -0.059466004 0.026798883 0.051111452 -0.035692193 0.1424366
-0.038973138 0.14452292 -0.09705778 -0.048291378 -0.0055936594 -0.076407894 0.089397915 0.16331893
0.118916 0.010283395 -0.122972324 -0.007962534 0.062282003 -0.012808156 0.016807104 0.036830444
0.13023855 0.05599149 -0.06797435 0.1914446 0.021909019 0.14675891 0.12901177 0.08871865
-0.00262551 0.15730603 0.0745847 0.15565659 0.16069889 0.18715121 -0.010367708 0.03593087
0.050272264 0.12004587 0.12874189 0.07081214 -0.0038244724 -0.0353349 0.02204064 -0.10976549

2.bias f4 [32]
00000000: 2d15 d53d 4e2d bf3d c1ff 71bc 9305 e2bc
00000010: 9c72 133e 3eaa 9abc 00ac 0a3e 7c76 013e
00000020: 1ef0 9fbd dd11 46bc 6073 e63c d2c2 98bd
00000030: c305 46bd d9d3 2f3e 0778 3f3d 5db7 1c3e
00000040: a31f a13d c867 9dbd 31b3 53bc 7e5b 2a3e
00000050: a058 47bc 9be1 3d3e 2c36 bebd e0cd e6bd
00000060: 988b 423e b39b 2e3e 9ca4 553d 62cf 67bd
00000070: a200 cb3d 0b2c 273e 00bd 1abe ea15 eb3b
0.104044296 0.09334813 -0.014770449 -0.027590549 0.14399189 -0.018880006 0.13542175 0.12642854
-0.078094706 -0.01208922 0.028131187 -0.07459034 -0.04834534 0.17170657 0.046745326 0.15304323
0.07867362 -0.0768581 -0.0129211405 0.16636464 -0.012167126 0.18543093 -0.09287676 -0.11269736
0.18998563 0.17051582 0.052158937 -0.05659426 0.0991223 0.16325395 -0.1511116 0.007174243

4.weight f4 [16, 32]
00000000: 9c37 b1bc 8dde 343d 0a35 f33d 8e56 bc3d
00000010: b89a 95bd d295 e9bd 0839 09be 5428 313e
00000020: 7824 30bd 56b8 d5bc 8723 24bd 08c5 543d
00000030: 3958 efbd 3f01 27bd 16eb 8cbd f05f 9a3d
00000040: 9a37 983d 22e1 2ebe d9e6 1abe ddef fd3d
00000050: 005c e7b9 ac18 00be 9e62 cb3d e9b4 e7bd
00000060: b0bf 183e cd22 173e 5883 10be 80c0 593d
00000070: 9b19 06be 41dd 90bd d09a cabd c0fe 323e
00000080: 3f37 a13d 6ba9 713d 4ba2 4ebd 2eab 4d3e
00000090: 0904 d6bc c83f 393e 6b65 363e 2aff 833e
000000a0: 4651 e33d 621a 2f3e c270 53bb 0af2 54bd
000000b0: 093d 86bd f1d7 4fbd 9e92 0dbc cb2a abba
000000c0: 552f 27be d535 29be 32d2 19bd b8d4 e73c
000000d0: 0e4f 363e 271c 173e dc02 03be e63f cc3d
000000e0: c47f 7a3d f087 223e ce28 853e eb5d 15be
000000f0: 9d4d 403e 4bca 113e dbc2 86bd d565 073e
00000100: f357 333e 4202 293c 8a7c ef3c b585 593e
00000110: db74 843e d54c fa3d 7eed 4b3d 3231 f43d
00000120: 4a58 b03d b5ed 2dbe 8543 14be b132 01be
00000130: 66b2 e9bd 78f6 063e fae8 f4bc 8e59 963e
00000140: 33a2 87bd 932c 263e d4d9 a4bd 0798 623e
00000150: 7e97 afbc 8919 663e 804b 52bc 4c1c 10bd
00000160: 175b 923e 2ac4 a73d 89c8 4e3e e74b 8abd
00000170: 6a54 293d 1940 7a3e 3abf 16bd b263 b1bb
00000180: 0987 8b3e b1c2 0f3e 7b04 813e 1f12 a83c
00000190: c4d4 903e c30e 9bbd c0d8 6fbe 7203 623e
000001a0: 9a0d a13d d89c 01be 7902 0b3e d0a1 8dbc
000001b0: 3eb1 703e 9c0d 86be cd0c 763e d5c6 85be
000001c0: eb5f d0bc 2013 3f3d 82ba 233e d98b e6bd
000001d0: 76da 6bbe 546d 593d d5b3 bcbd dd90 283e
000001e0: f363 77be f9b1 033e 4f3e 263c b8e9 af3c
000001f0: c818 83be 1a0b f73d 89c1 793c 7dc3 24be
00000200: 33d4 c03d 461c 56be 7987 6dbe 6511 6dbd
00000210: 540a 733d b8e7 f63d 42f6 733e 8394 253d
00000220: 16a2 ea3d 70e3 cabd bd3d 243c 332a e4bd
00000230: 2f1b 4dbb f2ba 883e 91ae 213e 2604 843e
00000240: 25be 273e 8607 d13d 478c f73d 5548 5abd
00000250: be67 cebc 8245 c73c 0017 073d 9012 f9bc
00000260: 1b2d 873e 1b7b af3d 03a9 2a3d 0f89 2fbc
00000270: 3576 b43d a29f 4a3e 0ebd 6fbe 5723 873e
00000280: 1d82 123d ac53 6f3e 9278 473d a9e9 f13c
00000290: 67bd 08bd e1b0 3cbd 9c81 a8bc 6257 653e
000002a0: 4566 003e 48d2 813d e54b 173e b086 3cbc
000002b0: 588e 493e 96cf 82bc e6d7 1fbd 3df9 aabd
000002c0: 7e92 cf3d 788b 823c f6d2 f0bd 1e13 db3b
000002d0: 22e9 b53d 0716 3dbe 3213 983d 682c 1e3d
000002e0: ca78 6dbe bfe9 7e3e 22d0 f63d f88e e1bc
000002f0: fa2b 56bd 7691 b5bc c2ad f03d e6fd 36be
00000300: e0c3 203d 4513 153c 0ca1 233e ccde 62bb
00000310: 223f 7b3e c14a 023c 3329 013c 6e5a 133e
00000320: 3690 a33d ccea 33bd 2583 21bc b9c8 c9bd
00000330: a934 03be 463f 6ebd ea3c c63d 6e3b de3c
00000340: de61 fbbd 13a2 e5bd 387a b73c d98c da3d
00000350: 709f 883e 8512 093e b804 babc 7832 31be
00000360: 0b0b 813e 3d31 543e 2fe3 bb3d a485 093e
00000370: 7f15 bf3d d0a3 713e ab67 12be 9856 1b3d
00000380: b6b2 7ebd 52ea 823d ff3c d5bd 5c46 5e3d
00000390: 3934 f7bd eafe b43d 6c35 aabd 4e5d 15be
000003a0: 24a7 87bd a2ad 06be 80a3 aa3c e464 f7bd
000003b0: 00f0 ac3b 3b4e 0a3e 5fbe 22be d669 c43d
000003c0: 7b4b 12be 101e 41bc f87a 8e3c 0889 22be
000003d0: 9e52 da3d 700c 15bd 0c94 8a3d ec1d 883d
000003e0: dab4 f43d 4732 d3bd 49a2 023e f2de eb3d
000003f0: c4da 02be da06 f8bd 7ece c93d 3288 bf3d
-0.021632962 0.044157553 0.11875351 0.091961965 -0.07304901 -0.11405529 -0.13400662 0.1730054
-0.04300353 -0.026088875 -0.040072944 0.051945716 -0.11686749 -0.040772673 -0.068807766 0.0753783
0.0743248 -0.17078069 -0.15127124 0.12399266 -0.000441283 -0.12509412 0.09930919 -0.11313803
0.14916873 0.14759369 -0.14112604 0.053162098 -0.13095705 -0.07073451 -0.098928094 0.17479992
0.078718655 0.05899946 -0.050447743 0.20084831 -0.026124971 0.18090737 0.17812125 0.25780612
0.11099486 0.17099908 -0.0032263254 -0.05198864 -0.0655461 -0.050743047 -0.008640913 -0.0013059018
-0.1632665 -0.16524442 -0.037553973 0.028299674 0.17803594 0.14756833 -0.1279406 0.09973125
0.061157003 0.15872169 0.26007694 -0.14586608 0.18779607 0.14237325 -0.065801345 0.1322244
0.17514019 0.01031548 0.02923419 0.21242411 0.25870404 0.12221686 0.049787037 0.11923446
0.0861059 -0.1698521 -0.14478882 -0.12616993 -0.1141098 0.13179958 -0.029896248 0.293652
-0.06622734 0.16227941 -0.0804936 0.22128306 -0.021434542 0.22470678 -0.012835383 -0.035183236
0.2858512 0.08191712 0.20193686 -0.067527585 0.04134027 0.24438514 -0.03680346 -0.005413496
0.2725146 0.14039113 0.2519873 0.020516453 0.28287327 -0.07571175 -0.23422527 0.22071627
0.078639224 -0.12657487 0.13575162 -0.017289072 0.23505113 -0.26182258 0.2402832 -0.2612826
-0.025436362 0.0466491 0.15989116 -0.112571426 -0.23032555 0.05308278 -0.09213988 0.16461511
-0.24159221 0.1286086 0.010146691 0.02147375 -0.25604844 0.12062664 0.015243896 -0.16090198
0.09415474 -0.20909223 -0.2319621 -0.057877917 0.05933602 0.120559156 0.23824409 0.040424835
0.11456697 -0.099066615 0.010024485 -0.11140861 -0.003129672 0.26705128 0.15789248 0.25784415
0.16381128 0.10206513 0.12087303 -0.053291637 -0.025195953 0.024325136 0.03298092 -0.03040436
0.264016 0.085684024 0.04166509 -0.01071383 0.08811609 0.19787458 -0.23411962 0.2639415
0.035768617 0.23371762 0.04869897 0.029530363 -0.033383753 -0.046067122 -0.020569615 0.22396615
0.12539013 0.06338936 0.14775045 -0.011506721 0.19683206 -0.015968125 -0.039024256 -0.0834832
0.10135363 0.015935645 -0.117589876 0.0066856286 0.08882357 -0.18465434 0.07425536 0.038616568
-0.23190609 0.24893855 0.12051417 -0.027533993 -0.052288033 -0.022164088 0.11751892 -0.17870292
0.0392493 0.0090988325 0.15979403 -0.003461766 0.24535802 0.007952393 0.007883358 0.14389965
0.079864904 -0.04392509 -0.009857927 -0.09852738 -0.12813057 -0.05816581 0.09679587 0.027127948
-0.12274526 -0.11212554 0.022397146 0.10671396 0.2668414 0.13385971 -0.022707328 -0.17304409
0.25203738 0.20721908 0.09174191 0.13429886 0.09330272 0.23597646 -0.14297359 0.03792438
-0.06218215 0.06392349 -0.10412025 0.05426632 -0.120705076 0.088376835 -0.08310971 -0.14586374
-0.066236764 -0.13152173 0.020829916 -0.1207979 0.0052776337 0.13506405 -0.15892933 0.09590499
-0.14286606 -0.011786953 0.01739262 -0.15872586 0.10660289 -0.036388814 0.06766519 0.06646332
0.11948557 -0.10312324 0.1275722 0.11517133 -0.12778765 -0.12110682 0.098538384 0.09352149

4.bias f4 [16]
00000000: 445e 7fbd 93fa 413e c303 643e 3ef1 2a3d
00000010: fe3e a33d d220 51be cf9d 97bd 02c8 11be
00000020: 58ef a6bd 706c dcbd 2106 3e3e 1473 bc3b
00000030: bc26 993c 6eed 00bd 0a62 b5bd 22f6 1d3d
-0.062345758 0.18943243 0.2226706 0.041733973 0.07970999 -0.20422676 -0.074031465 -0.14236453
-0.0815112 -0.1076287 0.18557025 0.005751023 0.018695228 -0.03147643 -0.0885659 0.03856481

6.weight f4 [8, 16]
00000000: 5420 ef3d b306 a3bb 820a 6c3e 5d64 93be
00000010: 223d f73d 2559 63be 9bfe f0bd f628 37be
00000020: a08f 333d 5f8e 6dbd 3301 41be 42f0 213b
00000030: cd39 6abd 0d42 45bd c39f 463e ea9d c1bc
00000040: 6871 03bd 720e 7cbd 0d8e 573d 81c4 45be
00000050: 5fee 803e 6fab 5cbe b60b 3bbe 6862 0a3d
00000060: c81b 72be 664b ad3d 7094 81be c662 3a3e
00000070: 9247 a1bd 253c dcbb 836d 5c3e 4d90 2f3e
00000080: 4983 2ebe 3275 dc3d 5c9a a73c ed95 9ebe
00000090: 168d 5e3e 37a0 32be 0e3a 5b3d 28c5 083d
000000a0: 1c9a 57be 6091 c1bd 0b09 32be 1780 4f3e
000000b0: 71a8 1d3e 8888 9cbe a349 8a3e 466b 29bc
000000c0: c8e7 553e 7560 27be 0b56 39be 8af4 59be
000000d0: 6241 3c3e bd2b f83c 46e0 14bd c8f5 38bd
000000e0: be25 39be dcce 323d 1c53 14be db45 e5bd
000000f0: 17dc d23d ee87 85be 3957 72bd 71b1 23bd
00000100: a14b 62be 13b0 1abd 4e14 e1bd 4331 74be
00000110: 5b82 bd3d 3481 a2be 65f1 873e de38 67be
00000120: 40b1 79be 823f a63d d4af 5e3d 8dca 85be
00000130: 074f 9f3e 8ca5 88be b994 19be 6d81 39be
00000140: 1a54 0dbe 2630 dabd 2767 453e 321f d2bd
00000150: 53be 773e 85d1 d43d da5f bdbd e8ff bb3d
00000160: 4c72 2fbe 5d3b 483e cd8d 90bd 3087 28be
00000170: f832 0abe 6dec 0b3d 5daf 853e 6f7d 3e3e
00000180: ed96 86bc 2987 b33e c6f6 793e 2b9a eabd
00000190: 5257 763d fe0a 61bd c902 2a3e 0016 78be
000001a0: 6c47 053e 3f74 183e 4110 31be 43d1 753d
000001b0: 47e0 053d 3cdf acbe a3eb 99bd 5ce2 2f3e
000001c0: 3920 61be 396b a9bd 7c56 27be a86c d7bd
000001d0: 76fc 64bc 1bfa 5dbd 0959 203e ee7c 23be
000001e0: a046 4ebe cbed 873d c998 46be 91ab 26be
000001f0: 0653 4ebe a739 80be df9f 593e 85a2 353e
0.11676088 -0.004975164 0.23050883 -0.2878751 0.12072207 -0.22201975 -0.11767312 -0.17886719
0.043838143 -0.057997104 -0.18848114 0.0024709855 -0.05718403 -0.048158694 0.19396882 -0.02363487
-0.032090575 -0.061537214 0.052625705 -0.19313242 0.25181863 -0.21549772 -0.18266186 0.033785254
-0.2364341 0.08461647 -0.2530856 0.18201742 -0.07874979 -0.006721037 0.2152615 0.1714489
-0.17042269 0.10764541 0.020459346 -0.3097376 0.21733508 -0.1744393 0.053522162 0.033391148
-0.21054882 -0.09451556 -0.17386262 0.20263706 0.15396287 -0.30572915 0.27009305 -0.010340517
0.20889199 -0.16345389 -0.18099229 -0.2128469 0.18384317 0.030294294 -0.036346696 -0.04515627
-0.18080804 0.043654308 -0.14484829 -0.111949645 0.10295885 -0.2608027 -0.059165213 -0.039964143
-0.22099163 -0.037765574 -0.10990201 -0.23846917 0.09253379 -0.317392 0.26551357 -0.22580287
-0.24384022 0.08117582 0.0543669 -0.26131096 0.3111498 -0.26688802 -0.1499814 -0.18115778
-0.13801613 -0.10653715 0.19277631 -0.10259856 0.24193697 0.10391525 -0.09246798 0.091796696
-0.17133445 0.19553895 -0.07058296 -0.1645782 -0.13496006 0.03416102 0.26110354 0.18602537
-0.016429389 0.35064057 0.24410543 -0.114551865 0.06014187 -0.054942124 0.16602625 -0.24227142
0.13015527 0.14888094 -0.17291357 0.06001402 0.03268459 -0.33764064 -0.07515647 0.17176193
-0.21984948 -0.08272404 -0.16341585 -0.105187714 -0.013976207 -0.054193597 0.15658964 -0.15965626
-0.20144129 0.06637152 -0.1939422 -0.16276385 -0.20148858 -0.25043985 0.21252392 0.17737778

6.bias f4 [8]
00000000: a70a 543e 1e08 2a3e 047b a93e 1988 58be
00000010: 6da0 a53e 68c0 44bd 07a9 aa3e 41a4 573e
0.20707189 0.16604659 0.33101666 -0.21145667 0.32348958 -0.048035055 0.33332083 0.21058752
