best_model.pt (torch, 45805 bytes, 8 tensors)

0.weight f4 [64, 126]
00000000: 2ea1 c7bd 4020 2abd f40b ae3e 65b1 fd3e
00000010: e4a7 a8bd 265b 633d c76a ecbc 684e 173e
00000020: b53e 873e 2c6d 563e dc02 933e a2d2 323d
00000030: 9b20 6f3e 1cd1 3e3f cc84 093e 4edf 8fbe
00000040: 7496 48be 6cb8 a8bc 299c df3d 8f24 943e
00000050: 1b13 153e d474 783e 8b0c a63c b4b1 30be
00000060: b90e 09be d9e0 943d f883 0c3f d2f8 8a3e
00000070: 370d 04bf a42a 08be 3847 49bd ced2 52be
00000080: d911 753e b496 883d 5ea2 343d dba3 c0bc
00000090: 2499 643e 8f65 2a3d 991d 95be 05c9 8a3e
000000a0: 43f5 d8be 7677 9abd 0f09 b83e 72f0 253e
000000b0: 3781 293f 9953 8e3e a516 053e 3ef1 cf3e
000000c0: ed97 2cbd b418 243e 411b f8be 491f ee3c
000000d0: 0bf8 41bf dde4 6fbe 5843 ea3d 6639 043e
000000e0: 2ade debe 13e0 863e 285c 143e deb7 3dbe
000000f0: e280 9abe 44f8 bebd 2b3d 823d bfb9 a53d
00000100: 979c 813e 0773 6b3c 9e8c c13c 1102 ba3e
00000110: 1e38 3e3e 61bc 603e cedf 01bf 3591 89be
00000120: c4ff 8dbe e922 dbbe e838 73be 80b3 42be
00000130: 866a 63bc d45a c83d 22d9 103e 6d26 ecbc
00000140: 3fe1 863b d383 68be c498 29bd 83f6 00be
00000150: 0b6d 2e3d ce14 3ebd cf42 89bb 5976 17be
00000160: bd0d adbd 3983 87bd 1ea5 333e 3059 a0bd
00000170: 1750 a2bc 35d0 8ebc 30b1 c9bc 2b45 183e
00000180: c1f7 533e ad1d 3c3e af97 723d 7677 d93d
00000190: 096d 4f3e 6307 b33d 8ab4 293e d2b4 473e
000001a0: 2069 4a3e ea2f 9abe d4c7 61be e1d1 95be
000001b0: 4793 cabe faf9 b8be d5cd 82be 6465 fcbd
000001c0: 1357 0cbe b876 d1be f6ad aebe e806 d3be
000001d0: de89 52be e4ae 60be 9d14 4dbe a6ea 85bd
000001e0: 1756 ee3d 6bad 6f3d 7c7f 033d b70a 433d
000001f0: 0215 093e 0d1e d83d 4a9f a93e e4c0 e43c
00000200: f445 41be dc09 7ebe 6f63 743e 4c52 f9bc
00000210: 0b1b 2dbe 1130 bd3e c258 663e e7d7 0ebd
00000220: f0f1 4b3d 52ca 393e 706b acbe b02a 15bf
00000230: 2da6 5d3e 896d 4d3e 3752 d5bd b9e5 7b3e
00000240: 36cf 373e 7981 5bbe 3ff3 af3d 112b b9be
00000250: cc6f 4abe f849 55bf fcae adbe a12d ddbe
00000260: d75f bcbd 71ed 09bf 6165 d53e f1af 5a3e
00000270: 1eaa 58bd e0f0 89bd 4b92 97bd c0a3 ab3d
00000280: 74d0 1e3e 2541 14be 373a 9b3e 4d56 8dbe
00000290: 61cc 5ebe b4c5 88be 19e5 86bd a66d f2be
000002a0: 6ac5 60bd 3b0b 6abe 654d 583d f381 e6bd
000002b0: da6e 09be f567 29be aa64 cbbd 1227 f0bd
000002c0: 766e 15be 9e96 08be c24e ee3c a648 e13e
000002d0: 5a79 e3bd a9d4 2bbe c75f dabd 4a85 44be
000002e0: 6cfb 83be 769d 473e 9004 c6bd 68e6 d43e
000002f0: 8375 c1bd 81b0 8c3e c783 063e 4067 8f3e
00000300: b7bb 753d 7262 27bd 683d a9bd 10c0 0a3c
00000310: 1248 a43e 343e 553e d85c 9b3d aeac 453e
00000320: 06bf 1f3d 99b2 5dbb 75e7 89bd 4fd0 95bc
00000330: b70c f5bc dc1a 143b a98c 05be d84f f4bb
00000340: 2b60 55be 3f47 97be edfc 7a3e c73d 253e
00000350: 87f4 863e b63c 8d3e 6987 2b3e 9519 573e
00000360: e86a c2bd 457d c13e bfa5 933e c61a 293e
00000370: 837c 833e b714 b73d ea8c 063d b9a4 2a3d
00000380: df0f ad3e d1b7 883e 1f26 063e 9aa5 173e
00000390: 568b 863e a6d8 a4bc 3822 173e 6027 423e
000003a0: 1498 5d3e 0c95 943e aade 203e 990d 34bd
000003b0: 009b 743c 6890 a3be 0d0c 213c 3e95 4d3e
000003c0: bb37 d83d 44b2 633d bae6 8cbd 84e4 3bbe
000003d0: dab0 73bd 21b5 f73e 496a 253e 581f 983d
000003e0: 095f 363d e7f6 023e c522 503c e18a 9dbc
000003f0: 3d2f 6b3e 6ca2 13bf c74d 67be fb18 3f3f
-0.097475395 -0.041534662 0.33993495 0.49549404 -0.082351476 0.055506848 -0.02885951 0.14776003
0.2641503 0.20940083 0.2871312 0.043657906 0.23352282 0.74537826 0.13429564 -0.28100055
-0.19588643 -0.020595752 0.10918457 0.28934142 0.1455807 0.24263316 0.020269653 -0.17255288
-0.13384522 0.07269449 0.5488887 0.2714296 -0.51582664 -0.13297516 -0.049140185 -0.20588228
0.2393259 0.06669369 0.044100158 -0.023515632 0.22324044 0.04160076 -0.29124144 0.2710649
-0.4237462 -0.075423166 0.3594441 0.16205004 0.6621279 0.27798155 0.1299692 0.4061374
-0.042137075 0.16025048 -0.48458293 0.029067652 -0.7576911 -0.23427148 0.11438626 0.12912521
-0.43528873 0.2634283 0.1448828 -0.18527171 -0.30176455 -0.09324697 0.06359323 0.08092069
0.2531478 0.014370686 0.023626622 0.36329702 0.18576095 0.21946861 -0.50732124 -0.26868597
-0.27734196 -0.42800072 -0.23752177 -0.19013786 -0.013880378 0.09782949 0.1414533 -0.028826917
0.004116207 -0.22706537 -0.041405454 -0.12594037 0.04258446 -0.04640656 -0.0041888724 -0.1479124
-0.08449886 -0.066168256 0.17543456 -0.07829511 -0.01981358 -0.017433265 -0.024620622 0.14870135
0.2069998 0.18370695 0.059226688 0.106184885 0.20256437 0.08741643 0.16572776 0.19502571
0.19766665 -0.3011468 -0.22048885 -0.29261687 -0.3956549 -0.36128217 -0.25547662 -0.12324026
-0.13705091 -0.40910888 -0.34117097 -0.41216207 -0.20560405 -0.21941715 -0.20027395 -0.06538896
0.11637514 0.058514994 0.032104 0.04761764 0.1338692 0.10552607 0.3312934 0.027924009
-0.18874341 -0.24808449 0.23866056 -0.03043475 -0.16904847 0.36950734 0.22494796 -0.03487387
0.049791276 0.18143585 -0.33675718 -0.5826826 0.21645422 0.20061316 -0.10416072 0.24599351
0.17950138 -0.21436109 0.085913174 -0.3616567 -0.1976921 -0.8331599 -0.33922565 -0.43198875
-0.091979675 -0.5387793 0.41678908 0.21356179 -0.05289661 -0.067353964 -0.0740095 0.08380842
0.15509206 -0.14477976 0.30317852 -0.27604905 -0.21757652 -0.26713336 -0.06586666 -0.4734928
-0.05487577 -0.22855847 0.052808184 -0.112552546 -0.13421193 -0.16543563 -0.099313095 -0.11726202
-0.14592919 -0.13338706 0.029090289 0.4400074 -0.1110713 -0.16780342 -0.10662799 -0.1919147
-0.25777757 0.1949366 -0.09668839 0.41582036 -0.09446242 0.27478412 0.13136207 0.2800846
0.059993472 -0.04086537 -0.082636654 0.008468643 0.32086235 0.2082451 0.07586068 0.19304153
0.039000534 -0.0033828376 -0.067336 -0.018287806 -0.02991329 0.0022599017 -0.13041939 -0.007455807
-0.20837466 -0.29546544 0.24510546 0.16136847 0.26358435 0.2758538 0.16750874 0.21005853
-0.09493047 0.37790886 0.28837392 0.1651412 0.25680932 0.08939498 0.03284923 0.041660998
0.3380117 0.2670274 0.1310048 0.14809266 0.2627818 -0.020122837 0.14759147 0.18960333
0.21640044 0.29019964 0.1570994 -0.04395828 0.014929533 -0.3194611 0.009829533 0.20076463
0.10557505 0.05558993 -0.06879945 -0.1834889 -0.05949483 0.48380378 0.16153826 0.07427853
0.044524226 0.12789498 0.012703602 -0.019231262 0.22967239 -0.5766971 -0.22588263 0.7464749

0.bias f4 [64]
00000000: 4b94 ff3d 7ace 283e 8fa3 a73c e2ec 2f3e
00000010: 6a64 9a3e fa8b 59bd 7272 743e a7f4 f73e
00000020: f8b4 243e e0d4 5f3e f661 bd3e b775 7d3e
00000030: 48f6 d9bd 1803 3d3e 59ea 81bd 5012 14be
00000040: 55ce 51be 81b5 743e 8878 8f3e 2397 653e
00000050: 2e91 233f 7996 c73d e2b3 dc3d 30f8 05be
00000060: b8b3 c33d a9e0 b5bd a6ec 053e 31be 9e3e
00000070: 746d 043d 9e69 893e 6925 4dbe 7503 08bd
00000080: 7ca4 bd3e b574 7d3e 7571 353e 8bbf 3a3e
00000090: 1206 4d3d 0b8c 6a3e 5a3e 583e e2c3 323e
000000a0: 6453 0b3e 8a77 0f3d 3898 7cbd 4ff7 323e
000000b0: 83aa 523a 5cf3 503e 0dbd 513d d7ca 1c3f
000000c0: 81ee dbbd bed7 443e 7103 8fbe 7337 a6bd
000000d0: a072 9ebe a6e1 053f ff8f abbd 8acb 183e
000000e0: 9263 873e 96c4 acbd 1f4d 213f 56c0 7b3e
000000f0: eca0 4e3e f12c 34bd 4d22 023e 19e9 a43e
0.124794565 0.16485015 0.020463733 0.17180207 0.30154735 -0.053112008 0.23871782 0.48428842
0.16084659 0.21858549 0.369888 0.24751936 -0.106426775 0.18458211 -0.063435264 -0.1446011
-0.20488866 0.23897363 0.28021646 0.22420935 0.638934 0.09745497 0.107764974 -0.13082957
0.09555763 -0.08880741 0.13078555 0.3100448 0.032330945 0.26838392 -0.20033802 -0.033206422
0.37039554 0.24751551 0.17719062 0.1823713 0.050054617 0.22904985 0.21117535 0.17457536
0.1360603 0.03502611 -0.061668605 0.17477153 0.00080362725 0.20405334 0.051205683 0.6124701
-0.107388504 0.19222924 -0.27932313 -0.08116045 -0.30946827 0.5229744 -0.083770745 0.14921394
0.26443154 -0.08435933 0.630083 0.24585089 0.20178574 -0.043988172 0.12708397 0.3220909

2.weight f4 [32, 64]
00000000: 63a1 22be eab3 01be 5bec 38be dcd7 97bd
00000010: 4569 3abe 5add 823d 6c39 ccbd 74ac eabd
00000020: 67ab d0bc 12a9 50bd 2c85 dd3a 626d f6bd
00000030: 88cf 213d 62c8 15be 4805 dbbd c3d7 aa3c
00000040: bafe 64bd c555 4fbd 7f4d 39be dac1 7e3c
00000050: 8476 06be 2bf2 12be d4cf 33be 9590 113b
00000060: f38d b63c f021 533c 7261 fdbd 9d58 cdbd
00000070: ffe2 11be f2ff 9c3c 377a 07be c025 373c
00000080: 2995 c4bd ff87 1cbd 3b25 2c3d f834 ca3d
00000090: 40e0 993c 3444 a4bd d798 d8bd afa4 c8bd
000000a0: 389b 943c 8c43 3bbe 083a a43c 8a99 cdbd
000000b0: cbf4 27be 5668 d93c e83b 183d b50f 033b
000000c0: 2041 873b 88c8 013d 8076 d4bd 5701 25be
000000d0: eace c7bb d282 42be d9e2 43be 4769 aebd
000000e0: f1ef 37be ba7a 3f3c dbf4 253c 64e4 bc3c
000000f0: 8875 27bd 588e 59bd 9475 8abd 44ab 15be
00000100: d9b8 48be 0b5a 243d 4360 8a3e f929 093e
00000110: dbe7 22be bf80 b33d 7ffa d33d e971 453f
00000120: e3a1 efbe 64bd cd3d 8fe4 cd3e 0b9b d53d
00000130: 008c f23d 7336 e9be 461b f8bd 1dd4 d53d
00000140: c5c5 3b3e 71f6 533e 6017 073e eb70 17bf
00000150: 1c4f 153f b986 583c 7ffc 4d3e f621 643e
00000160: 9c84 323e c51e c33d 630b babc 16b8 733e
00000170: 330f 143f c207 90bd e296 093d a1c6 dbbd
00000180: 77f3 0b3e 64d9 9bbe 3804 4f3e e268 6abe
00000190: 17bf 0a3f 3439 91be e8bc 493d de77 17be
000001a0: 083d 703e 5068 01bf e474 ff3d 2ce5 1bbe
000001b0: 1dd8 c73d 5207 0b3f fde0 b1bc d244 0dbe
000001c0: 28e4 c4bd dfef 58bc 2454 ab3d 9c5e 553e
000001d0: 117b f03d afad 113e 2121 1f3e 2c3b 1b3e
000001e0: c485 b13d f785 fc3d a1a3 d33e 1ac1 debe
000001f0: 945c fe3e 06b2 eb3d 5409 703e f36d 563d
00000200: 78b0 33be 4f58 79bd 0034 153d 77b0 503c
00000210: d58c 84be 66e6 c7bd e9d5 ad3d 17a8 3e3f
00000220: 809f b6be 848e 913c 2f89 433e a18b 963d
00000230: b644 883c 1249 c9be 9af8 0bbe 23bd a13d
00000240: abd7 353e c1b0 11be e374 b2bc 706e 33bf
00000250: c80b 043f 3332 fa3d 2eab 2f3e 1955 853d
00000260: 861c 8b3d 296a 1a3d cd69 853d 1ae1 6b3e
00000270: 1dc4 683f 7641 ad3d 42f4 b93d c093 aabd
00000280: c7f5 72bd 6cd5 64be 8367 f33c 0853 af3b
00000290: 515d 643f d904 b4be ff1d a83d c759 423d
000002a0: 3cb8 1c3e f946 0bbf ccc0 b73d 045c b23c
000002b0: 4062 eb3d 5134 4a3f 6629 2abc 73a8 09be
000002c0: 3d93 1fbd c86a 59bd c6d2 b63d db64 383e
000002d0: e377 013e aa5c 8d3d 7509 e23d 9f81 5c3e
000002e0: 1b5d 143e a0d5 85bc b59a af3e 7e64 0ebf
000002f0: 4592 4c3f 2225 f3bb b1af 333e ac60 4f3d
00000300: 3436 883e 9c31 2dbd 34ad aabd e725 763e
00000310: 4bbf 6d3e b13d e13c ca0b a13e 5f45 6e3f
00000320: 870b c43e d3cb 533d ed30 a43f 5014 5c3d
00000330: 270e e13d c43a 32be 0cfd d23d 3226 fb3c
00000340: 9535 8a3d e258 8a3c 5e9c 07bf de78 283d
00000350: 333a 303f cdfe 88bc f546 94bd e384 7bbf
00000360: 74f6 3cbf 4eac 03bd 92bd 11be 9709 0e3d
00000370: 14d4 e93e 35ca b53e 4600 23be f0ac b5bc
00000380: 82a2 fe3e 0553 2d3e 44fa 02be 2cfc 9e3e
00000390: c971 833e 73e6 bc3e 9b05 c73d ff3a 52bd
000003a0: f1a2 4b3e 4114 acbe 6372 053d 2321 1c3e
000003b0: 2ca6 d0be 2011 c23f f0e2 333e 29c2 a83e
000003c0: 9f3e a03d f00e cf3e 4f4b 9d3e 7813 f5be
000003d0: 4e09 d53d b76c 803e 24d5 8abe a23c 7fbe
000003e0: 96a9 333e 5461 a0be 777f 683f 575e 573e
000003f0: 6ed2 6c3e baa6 003e 4f51 79bf 7447 773e
-0.15881877 -0.12666288 -0.18058912 -0.07414219 -0.1820422 0.06389876 -0.0997189 -0.11458674
-0.025472356 -0.050942488 0.001690065 -0.12032582 0.039504558 -0.14627221 -0.10694367 0.020854836
-0.05590699 -0.050618906 -0.18095969 0.0155491475 -0.13131148 -0.14350192 -0.17559749 0.0022211422
0.022284484 0.012886509 -0.12372102 -0.10026667 -0.14246748 0.019165013 -0.13230215 0.011178434
-0.095987625 -0.038215633 0.042027693 0.09873384 0.018783689 -0.08020821 -0.10576027 -0.09797036
0.01814042 -0.18287486 0.020047203 -0.10039051 -0.16401975 0.026539009 0.037166506 0.0019998376
0.0041276366 0.031685382 -0.103741646 -0.16113792 -0.006097664 -0.18995216 -0.19129504 -0.08516174
-0.17962624 0.011686975 0.010129179 0.023058124 -0.04088357 -0.053114265 -0.067607075 -0.14616114
-0.19601764 0.040124934 0.27026567 0.13394918 -0.15908758 0.08764791 0.10350513 0.7712694
-0.46803197 0.10045889 0.4021344 0.10429963 0.11843109 -0.45549354 -0.12114577 0.10440848
0.18337162 0.20699479 0.1319251 -0.59156674 0.58323836 0.013215714 0.20115851 0.2227858
0.17433399 0.09527353 -0.022710508 0.23800692 0.5783569 -0.0703273 0.03359116 -0.10731245
0.13667093 -0.30439293 0.20216453 -0.22891572 0.5419783 -0.28363955 0.04925242 -0.1479182
0.23460782 -0.50549793 0.12473467 -0.15224141 0.09758017 0.54308045 -0.021713728 -0.13795784
-0.0961383 -0.0132407835 0.08365658 0.20836872 0.11742223 0.14226411 0.15539981 0.15159291
0.08668092 0.12330239 0.41335776 -0.435067 0.49680007 0.11508565 0.23441058 0.05235095
-0.17547786 -0.060875233 0.036426544 0.012737385 -0.25888696 -0.09760742 0.08488066 0.74475235
-0.35668564 0.017768152 0.190953 0.07350851 0.016634326 -0.3931356 -0.13669053 0.07897403
0.17758052 -0.14227583 -0.021784252 -0.7009039 0.51580477 0.12216606 0.17155144 0.06510372
0.0679255 0.0376989 0.065143205 0.23035088 0.90924245 0.08459751 0.090797916 -0.08328962
-0.059316423 -0.22347039 0.029712444 0.0053504743 0.8920489 -0.35159948 0.08208846 0.0474489
0.15304655 -0.5440517 0.0897232 0.021772392 0.11493349 0.7898608 -0.010385847 -0.13443165
-0.038958777 -0.05308035 0.089269206 0.18007223 0.1264339 0.0690244 0.1103696 0.21533822
0.14488642 -0.016337216 0.3429772 -0.5562209 0.7991069 -0.007420198 0.1754749 0.050629303
0.26603854 -0.04228364 -0.08333817 0.24037896 0.23217504 0.027495237 0.31454307 0.930746
0.38290045 0.051708054 1.2827431 0.05373031 0.109890275 -0.1740523 0.10302171 0.030657861
0.06748501 0.016888086 -0.5297297 0.041130893 0.68838805 -0.016723061 -0.072400965 -0.98249644
-0.7381356 -0.032146744 -0.14232472 0.034677114 0.45669615 0.35505834 -0.15918073 -0.02217719
0.4973336 0.169262 -0.12790781 0.31051767 0.2567275 0.3689457 0.09717866 -0.051325794
0.19886376 -0.33609203 0.03257979 0.15247016 -0.4075178 1.5161476 0.17567039 0.32960632
0.07824444 0.40441084 0.30721518 -0.47866416 0.10402165 0.25082943 -0.27115738 -0.24925473
0.1754516 -0.31324255 0.90819496 0.21032082 0.23127148 0.12563601 -0.9738969 0.24148351

2.bias f4 [32]
00000000: e495 26be 4c1a 573e 2dfc 633d ad6c e53e
00000010: 5539 8b3e 0791 ec3e 189c 193e d5f9 963e
00000020: f4b4 593e e4ac 1cbe 2ad3 a93d 1b90 c33e
00000030: 6d8a 6c3d c3d6 3e3f 9ca9 febd 4c48 673e
00000040: 087e 4f3e e61a 0abe f828 66bc 655c c8bd
00000050: 7954 8b3e d26e 80bd a009 243d 2984 4f3e
00000060: 34f0 a53d 4040 fe3d cd74 f8bd b027 9abd
00000070: 206b 2d3f 7c55 303d a31b d73d 7cb9 8b3e
-0.16268116 0.21006125 0.055660415 0.44809476 0.27192178 0.46204397 0.15000951 0.29487482
0.21260434 -0.15300328 0.082922295 0.3819588 0.0577492 0.7454645 -0.12434694 0.22586173
0.20262921 -0.13486823 -0.014047854 -0.09783248 0.27212885 -0.06271137 0.04004824 0.20265259
0.08102456 0.124145985 -0.12131653 -0.07527101 0.67741585 0.043050274 0.10503318 0.2728995

4.weight f4 [16, 32]
00000000: 6a6d 07be f8b5 d0bc d6a9 d33d d0b9 4bbd
00000010: 7a44 d03d 7eeb c63d 9f1c 013e feb0 13be
00000020: 9063 403d c4ca 9dbd c02e 4bbc 8a7e 963d
00000030: ec51 59bd 2046 eebd 987c ba3c b085 3e3d
00000040: f739 003e 20b0 2d3c 70ec d43c 7beb a6bd
00000050: a0e7 8cbc fe52 eb3d 41b2 12be 6047 0abd
00000060: bf9c 22be 9096 cf3c 3945 253e bd10 293e
00000070: dddb ffbd d935 d9bd a65b 59bd e551 1bbe
00000080: 777f 4d3e 9204 453e 10b3 5f3e 7e23 6b3f
00000090: 97c5 d63e 5e52 be3e 6e4a 9a3d 4b7d 19be
000000a0: 8c7f 223e 30c2 f93d 049d 733e 5278 2cbe
000000b0: c894 6a3e 6bd4 773e 7f36 90bc a8ec cdbc
000000c0: aa04 9cbf 2c51 00be 6ac4 b5be 50e7 0c3e
000000d0: 8e77 b53e 54b5 7ebc a001 b93d 6f44 6f3e
000000e0: 8f66 c6bb e4bc 4c3d 0c03 b9bd 1691 f7bd
000000f0: 2f1c 87bf 04b4 c83d db9b a83e 8b38 623e
00000100: 5a99 83bd c92f 123e dfa3 3e3c a114 123f
00000110: 03e0 4f3e bc2f 08c0 6874 753e f527 053e
00000120: 52e8 103f d7bd bfbd d4a3 aa3e b530 2c3e
00000130: 9853 983e f634 97bd 6fd0 33bd 1b40 a1bd
00000140: 1ec7 e8be 2421 94bd ebef 953e 95a5 12be
00000150: 3456 3a3d 615c 86bb 6e0d cc3e 2218 4cbd
00000160: 949f e73d aeef 1f3e 22c8 503e 3e1c cebd
00000170: 3715 16c0 e474 3cbe d68a b03e 1f40 32be
00000180: d4e8 11bc f8e6 953e ac7f 7b3d e28d 683f
00000190: 333a b23e a01b 103f 50cf 3a3e 48f2 9ebd
000001a0: dad0 333e 95b3 033e bc1e fd3d 4fca 853b
000001b0: e43d 1bbe 09e8 803d 8026 cfbb 9718 0b3e
000001c0: 2ace f6bf 41cf 26be 538d f6be 802c 30bc
000001d0: 6a0a 9d3e 063d e23d 41da 653d f40e fc3d
000001e0: 4462 6f3e d1eb 9d3e fe67 77bd cede d63d
000001f0: 3e65 83bf 1189 b73d 650f 3cbc 6b2e 023e
00000200: 49f5 abbd c2f9 8c3e fca2 983d 262a 873f
00000210: ca5f 823e 7635 863e d269 aa3e 8d6b 84be
00000220: e781 5c3e 3906 903d 085c 7d3e c9bf 2c3d
00000230: 1ece 163e 35d2 203e e2f1 c3bb 7c89 2b3e
00000240: 4bba aabf 10a6 c6bc b836 41bf 9479 02bb
00000250: 3916 873e ed00 493d aa6a 0f3e 9d7c 513d
00000260: 544f 283e f298 383e bdd1 6cbd 94f2 1cbe
00000270: 84a9 79bf 34bb 0d3e 1551 863d 461e 24bb
00000280: 800b f9bd 2475 64be 519a 0ebe ca6c dcbd
00000290: 02e3 16be 3e5e 48bd 4846 97be 31ee 22bb
000002a0: a3b5 acbd 8837 febd fbe1 81be 12db 85be
000002b0: be50 89be febf 1fbe 2941 313e fe2e 35be
000002c0: 323c 063e beda d13d 2c4a 2fbe 9381 343e
000002d0: b3a5 56be 30bb 7b3d a032 473d 9964 88be
000002e0: 1428 ce3c 5457 8fbe e258 943d bef6 10be
000002f0: 0c19 f9bd ca78 65be c1ec 37be 2c1c 28be
00000300: a877 b9bd 3c13 57be c42f 50be bec7 1dbe
00000310: 9a5e c63d f309 c73d 7231 6bbe bf46 20bc
00000320: 9c18 c5bd 609d cebd 001a 68bd 8e1f 223b
00000330: 132d 60be 608f 5c3c 33f3 c3ba 9461 ab3d
00000340: 7265 d93d 3e46 d63d c888 46bd 081f 01bd
00000350: f077 82bc 4769 89bd 2e43 713d d5ce a03d
00000360: 7a51 16be d79f e1bd c0a9 1d3b a27e 1dbe
00000370: 33b3 60bd 7cfa febd 4660 78be c5f0 87bd
00000380: 9456 9dbd 275d 743e 7512 5f3d d894 873f
00000390: 50ce bf3e 70df 8f3e e507 653e df02 29be
000003a0: a8d2 2f3e 76cd 09be 0ce6 c43e 5f0d 0dbc
000003b0: e29d 2ebd 27eb 073e 3a3c 0b3e 432e e83d
000003c0: b038 b8bf b011 7b3c bef5 efbe 6806 433d
000003d0: 9c75 813e df22 3abd 61b1 c03d e662 8e3e
000003e0: 40c1 3c3e 15d0 3a3e 2bc8 733e d678 b43d
000003f0: 8cf9 8abf 4a43 083e d04a 653d 6d42 6e3e
-0.13225332 -0.025477394 0.10335128 -0.04973775 0.10169311 0.09712885 0.12608574 -0.14422986
0.04696995 -0.0770469 -0.012401283 0.07348354 -0.053056642 -0.11634469 0.022764489 0.046514213
0.12522112 0.0106010735 0.025991648 -0.08150383 -0.017200291 0.11490439 -0.14325811 -0.033759475
-0.15880106 0.025340348 0.16139688 0.16510291 -0.124931075 -0.10605974 -0.05306592 -0.15167959
0.20068155 0.19240025 0.2184565 0.9185103 0.41947624 0.37172216 0.075337276 -0.14989202
0.15868968 0.121952415 0.23790365 -0.16842774 0.22908318 0.24202125 -0.01760411 -0.02513726
-1.2188923 -0.12530965 -0.35501415 0.13760114 0.35442775 -0.015546162 0.09033513 0.23365949
-0.0060547064 0.049984828 -0.09033784 -0.1208822 -1.0555476 0.0979996 0.32931408 0.22091882
-0.06425734 0.14276041 0.01163575 0.5706273 0.20300297 -2.1279135 0.23970187 0.13003524
0.5660449 -0.09362381 0.33328116 0.16815455 0.29751277 -0.07383148 -0.04389995 -0.07873555
-0.45464414 -0.072328836 0.29284605 -0.14320977 0.045492366 -0.004100368 0.39853996 -0.049827702
0.11309734 0.15618774 0.20388845 -0.100639805 -2.3450449 -0.18403965 0.34480923 -0.17407273
-0.008905608 0.29277778 0.061401054 0.90841496 0.34810027 0.5629215 0.18243146 -0.07761055
0.1756014 0.12861474 0.12359378 0.004082955 -0.15160328 0.06294257 -0.006321728 0.13583599
-1.9281666 -0.16289999 -0.48154697 -0.010752797 0.30672008 0.110467955 0.056116346 0.123075396
0.23377329 0.30843976 -0.06040191 0.10491715 -1.0265272 0.0896169 -0.01147828 0.1271302
-0.08396394 0.275343 0.07452962 1.0559738 0.25463706 0.26212662 0.3328386 -0.25863305
0.21533929 0.07032437 0.24742138 0.042175088 0.14727065 0.15705188 -0.0059797624 0.16751665
-1.3338102 -0.024249107 -0.7547412 -0.0019908892 0.26384142 0.04907315 0.14005533 0.05114423
0.16436511 0.18027094 -0.05781721 -0.15326911 -0.97524285 0.13840944 0.06558434 -0.0025042458
-0.121603966 -0.2231031 -0.13926055 -0.10762937 -0.14735034 -0.048918 -0.29545808 -0.0024861211
-0.08433082 -0.124129355 -0.25367722 -0.261437 -0.26819414 -0.15600583 0.17310013 -0.17693707
0.131089 0.102468 -0.17118138 0.17627554 -0.20961647 0.061457813 0.048632264 -0.2663925
0.025165595 -0.27996314 0.072435156 -0.14156625 -0.121629804 -0.22409359 -0.17961408 -0.16416997
-0.09056026 -0.21003431 -0.20330721 -0.15408227 0.096860126 0.097186945 -0.2296808 -0.009782492
-0.096238345 -0.10088611 -0.05666542 0.0024738046 -0.21892194 0.013461918 -0.0014949798 0.08368221
0.10615052 0.104626164 -0.04847029 -0.031523734 -0.015926331 -0.06709533 0.05890196 0.0785195
-0.14679518 -0.11016815 0.0024057478 -0.15380338 -0.054858398 -0.1245012 -0.24255475 -0.0663772
-0.07682529 0.2386366 0.05446096 1.0592299 0.3746209 0.28100157 0.22366293 -0.16505001
0.17170203 -0.13457283 0.38456762 -0.008609145 -0.042631038 0.13273297 0.13597193 0.11336949
-1.43923 0.015324041 -0.46867174 0.04761353 0.2528504 -0.045443412 0.09408832 0.2780983
0.18433094 0.1824344 0.23806827 0.0881211 -1.0857406 0.13306919 0.05597955 0.23267527

4.bias f4 [16]
00000000: e821 ecbd be2b f13e 76d8 cdbc c93f e23e
00000010: 558b c43e 6beb 51be a0f5 9a3c c1ca d93e
00000020: c93e 193f 3ac3 8fbd 4d5f abbf 5a12 303e
00000030: 8f15 15be 864c 5dbe 34c0 8c3a ff8e f63e
-0.115299046 0.47103685 -0.02512763 0.4418929 0.38387552 -0.20499961 0.018915951 0.425375
0.5986143 -0.070196584 -1.3388458 0.171945 -0.14559005 -0.21611223 0.0010738433 0.48155972

6.weight f4 [2, 16]
00000000: c889 c83d 405d a83e f71d f03e e266 d43e
00000010: b845 eb3e f0bc 763e cb9c 0a3d 2101 e63e
00000020: 6449 ec3e 6e80 59bd 7a2d 39c0 52f3 ee3e
00000030: e68c 003e c5a4 e23c 3394 d63c ba76 b6bf
00000040: c246 25be 9d12 003f f1e7 13bf 6e9c 0d3f
00000050: 1c2c ba3e d79f edbd 2916 1a3e e89b 0b3f
00000060: e5d2 f63e e41e c03a 9527 b1c0 cf00 f2be
00000070: 5a8d 533e 408b 083e 3f17 1c3d b124 02bf
0.09791905 0.32883644 0.4689786 0.41484743 0.4595163 0.24095511 0.033840936 0.44922736
0.46149743 -0.053100996 -2.8934007 0.46670014 0.12553748 0.027666459 0.026193714 -1.4254982
-0.16140273 0.500284 -0.5777579 0.5531682 0.36361778 -0.11602753 0.15047516 0.5453477
0.48207775 0.0014657644 -5.536082 -0.47266242 0.2065939 0.1333437 0.038108107 -0.50837237

6.bias f4 [2]
00000000: 25bc ff3d 4c08 573f
0.124870576 0.83997035
