best_model.pt (torch, 46189 bytes, 8 tensors)

0.weight f4 [64, 126]
0	0x3dcba41f	0.09943413
1	0x3e0c4c13	0.13700895
2	0xb9b01359	-0.0003358375
3	0xbc01587c	-0.0078946315
4	0x3c05d778	0.008169048
5	0x3d29c344	0.041445985
6	0x3d657b3a	0.05602572
7	0x3d18f050	0.037338555
8	0x3cf47b50	0.029843956
9	0xbd051944	-0.0324948
10	0x3b423c28	0.0029637907
11	0x3dc4cdf3	0.09609594
12	0x3d9a818e	0.07544242
13	0x3db2e81e	0.08735679
14	0x3d6c6a26	0.05771842
15	0x3e0340a8	0.12817633
16	0xbccef900	-0.025265217
17	0x3e04f858	0.1298536
18	0x3dbc98b0	0.0920881
19	0x3adfe1db	0.001708086
20	0xbd0cfe7a	-0.034422375
21	0xbd617caf	-0.05505055
22	0xbd24e16e	-0.04025405
23	0xbdb5ca60	-0.088764906
24	0xb76a60c3	-1.3970016e-05
25	0xbd99c9b9	-0.07509179
26	0xbd8ecfb4	-0.0697321
27	0xbe0427fa	-0.12905875
28	0x3dde9a05	0.10869221
29	0xbd9662bc	-0.07343051
30	0xbd92f9d6	-0.07176559
31	0xbdc14d01	-0.094385155
32	0xbbc2e8c9	-0.0059481603
33	0xbd7de38b	-0.06198458
34	0xbd749ccc	-0.059719846
35	0x3dc5eaef	0.09663951
36	0xbc3df39c	-0.0115937255
37	0x3af042fb	0.0018330509
38	0x3d8b995f	0.068163626
39	0xbc9aed55	-0.018911997
40	0xbd25359a	-0.04033432
41	0xbe05fdb7	-0.13085066
42	0x3d6acaac	0.05732219
43	0x3df1c462	0.11805035
44	0x3d7cd59c	0.06172715
45	0x3d8ecf30	0.06973112
46	0x3e1eced1	0.15508582
47	0x3e202650	0.15639615
48	0x3df13421	0.11777521
49	0x3e2b94ec	0.16756028
50	0x3e2d7afc	0.16941446
51	0x3e26b633	0.16280441
52	0x3da50068	0.08056718
53	0x3df65d94	0.12029567
54	0x3e08d872	0.13363817
55	0x3e1ee48f	0.15516876
56	0xbd664a0c	-0.05622296
57	0xbdba9c46	-0.09111838
58	0xbd235ec5	-0.0398853
59	0xbda797e7	-0.0818327
60	0xbd8efd56	-0.06981914
61	0xbdb82200	-0.0899086
62	0xbe0a6b8e	-0.13517591
63	0x3cbffc7b	0.023435822
64	0x3c85d113	0.016335046
65	0x3d82f4dc	0.063943595
66	0x3c766ec0	0.015041053
67	0x3e0b7a0d	0.13620777
68	0x3df0eef8	0.1176433
69	0x3d865a96	0.06560247
70	0x3e0d61f8	0.13806903
71	0x3df0a0bd	0.117494084
72	0x3d1393e9	0.03602973
73	0x3d383709	0.04497436
74	0x3e212851	0.15738036
75	0x3e390df2	0.18071726
76	0x3e3895cf	0.18025897
77	0xbbec46f4	-0.0072106067
78	0x3d8d68e3	0.06904771
79	0x3ded9631	0.11600912
80	0x3dc01537	0.093790464
81	0xbce72b3e	-0.028218862
82	0xbccbf7bb	-0.0248984
83	0x3d001671	0.0312714
84	0x3e0d39a5	0.13791521
85	0x3dcb0d09	0.09914596
86	0x3cfd3285	0.030907879
87	0x3c2f17d1	0.010686831
88	0x3be0d9b0	0.006861888
89	0x3d2b95c2	0.041890867
90	0x3db90609	0.09034354
91	0x3e1e187c	0.15439028
92	0x3e0d2c42	0.13786414
93	0x3d8205c6	0.063487574
94	0x3cd3d733	0.02585945
95	0x3d9efae6	0.07762699
96	0x3d017146	0.031602167
97	0x3e06e7f3	0.13174419
98	0x3d3a277d	0.045447815
99	0x3dbaf0be	0.09127949
100	0x3dd5dd40	0.10442591
101	0x3d9b6504	0.075876266
102	0x3e3e6fbb	0.1859731
103	0x3d7ebf5a	0.062194206
104	0x3d319bb3	0.043361377
105	0x3e0b2039	0.1358651
106	0x3dd862e3	0.10565736
107	0x3e107406	0.1410676
108	0x3d6da855	0.058021862
109	0x3de848c3	0.11342003
110	0x3da1b8b8	0.078965604
111	0x3e032027	0.12805234
112	0x3dba42e2	0.09094788
113	0x3e1de779	0.15420331
114	0x3c98602b	0.018600544
115	0x3d272ed8	0.040816158
116	0x3e2326f3	0.15932827
117	0x3e1f91c8	0.15582955
118	0x3e03d378	0.12873638
119	0x3ce12573	0.027483677
120	0x3e46677b	0.19375412
121	0x3d944554	0.07239786
122	0x3e1823ad	0.14857359
123	0x3e3f555e	0.18684909
124	0x3d8be093	0.068299435
125	0x3e05cfea	0.13067594
126	0x3e0dd8db	0.13852255
127	0x3d4bf114	0.049790457
128	0x3e21e3e6	0.15809593
129	0x3d017f26	0.0316154
130	0x3e106816	0.14102206
131	0x3cb01c8c	0.021497987
132	0x3d1cd3dc	0.038287982
133	0x3d17bf68	0.037047774
134	0x3e076020	0.13220263
135	0x3ddd9467	0.10819321
136	0x3db462b7	0.08807891
137	0x3e05f135	0.13080294
138	0x3dd6475f	0.10462832
139	0x3dd60001	0.104492195
140	0x3de8c0be	0.11364888
141	0x3e0925ea	0.1339337
142	0xbcd646f9	-0.02615689
143	0x3db2b19b	0.08725282
144	0x3d6b9a2b	0.057520073
145	0x3d21ca08	0.039499313
146	0x3d752fe4	0.059860125
147	0x3d3255be	0.0435388
148	0x3e0a4712	0.13503674
149	0x3ca8631f	0.020555077
150	0x3ddf8861	0.10914684
151	0x3d7b644a	0.06137494
152	0x3dffd0a9	0.12490971
153	0x3de0d1b6	0.10977499
154	0x3cac4303	0.021028047
155	0x3de25380	0.110510826
156	0x3e48a056	0.19592413
157	0x3dc342d0	0.09534228
158	0x3dd365b1	0.103221305
159	0x3e2ca842	0.1686106
160	0x3e2a3623	0.16622214
161	0x3d67c97e	0.056588642
162	0x3e2cc31f	0.16871308
163	0x3d8b2f28	0.06796104
164	0x3df564cb	0.11982115
165	0x3dd03d41	0.10167933
166	0x3e15edec	0.14641541
167	0x3e3ad2e6	0.18244514
168	0x3bff2ed1	0.0077875634
169	0x3e29b1c4	0.16571718
170	0x3e2c1659	0.168054
171	0x3c981302	0.018563751
172	0x3e175fe6	0.14782676
173	0x3dc707cb	0.09718283
174	0x3e2833c6	0.16426
175	0xbb610837	-0.0034337172
176	0x3dc69997	0.09697264
177	0x3d6d9e3d	0.058012236
178	0x3db89bec	0.09014115
179	0x3da0c0a7	0.078492455
180	0x3deb1dce	0.11480294
181	0x3dacf92c	0.08445963
182	0x3d7f99e8	0.062402636
183	0x3da442c8	0.0802055
184	0x3dbeceed	0.09316812
185	0x3e58de0c	0.21178454
186	0x3d8dfd4f	0.069330804
187	0x3d6673ac	0.056262657
188	0x3e0b3def	0.13597845
189	0x3e05bd72	0.13060549
190	0x3d7944d8	0.06085667
191	0x3dfaf814	0.122543484
192	0x3c748172	0.01492344
193	0x3df9bf49	0.12194688
194	0x3db7bce8	0.08971578
195	0x3e1cac24	0.15300041
196	0x3d914021	0.0709231
197	0x3e1e0565	0.15431745
198	0x3e141a32	0.14463118
199	0x3db61a1f	0.08891701
200	0x3b23f8a2	0.0025020023
201	0x3e1b9990	0.15195298
202	0x3dd14618	0.102184474
203	0x3db40135	0.08789293
204	0xbd02b0ec	-0.031907007
205	0x3dd7ec79	0.105431505
206	0x3da5ba05	0.08092121
207	0xbc49f6fc	-0.012326952
208	0x3d5f90ed	0.05458157
209	0x3d57e56d	0.05270903
210	0x3cfec67e	0.031100508
211	0x3d133a1f	0.0359441
212	0x3da29a70	0.07939613
213	0x3db2270c	0.08698854
214	0xbd1aa87f	-0.037758347
215	0xbd0a13cb	-0.033710282
216	0x3c9f2bfc	0.019430153
217	0x3d711246	0.058855318
218	0x3da1f3c1	0.079078205
219	0x3d050b09	0.032481227
220	0x3de41682	0.111371055
221	0x3dfd9616	0.12382142
222	0x3d96f974	0.07371798
223	0x3d9dedda	0.07711382
224	0x3ddd46dd	0.10804532
225	0x3e0bd7f9	0.13656606
226	0x3e022d65	0.12712629
227	0x3dcdb3b5	0.10044042
228	0x3d8ab765	0.06773261
229	0x3d020827	0.031746056
230	0x3d49473e	0.049140207
231	0xbcc9dab8	-0.024640426
232	0x3d9b7a3a	0.07591672
233	0x3decba0c	0.11558923
234	0x3d9d2863	0.07673719
235	0xbbc907dc	-0.00613497
236	0x3e14a581	0.1451626
237	0x3da156b3	0.07877865
238	0x3af9d26a	0.0019059901
239	0xbc016bd8	-0.007899247
240	0x3daaa378	0.083319604
241	0x3d3470b3	0.04405279
242	0x3d65b9af	0.056085285
243	0xbd037d73	-0.03210206
244	0x3e10bd38	0.14134681
245	0x3d1e3de3	0.03863324
246	0x3dc0dcf9	0.09417147
247	0x3d95c4a1	0.073128946
248	0x3e18783c	0.14889616
249	0x3cc6dd8b	0.024275562
250	0x3e29c924	0.16580635
251	0x3dbf904e	0.09353696
252	0x3cb24d7b	0.021765461
253	0x3ca8e760	0.02061814
254	0x3d40d7ce	0.047080807
255	0xbdc6ec78	-0.097130716

0.bias f4 [64]
0	0x3e29e00e	0.16589376
1	0x3e0abe3c	0.13549131
2	0x3e205cb5	0.15660365
3	0x3dd339fa	0.103137925
4	0x3b2d6e79	0.0026463552
5	0x3dc40750	0.09571707
6	0x3e0bee50	0.13665128
7	0x3bae5726	0.0053204475
8	0x3e28b5a2	0.16475537
9	0x3e0d61b3	0.138068
10	0xbc7d3437	-0.0154543435
11	0x3e0aae52	0.1354306
12	0x3c90358c	0.017603658
13	0x3d535405	0.0515938
14	0x3e4c56fd	0.19955058
15	0x3df8a9c1	0.12141753
16	0x3dddd47d	0.108315445
17	0x3e2f6d78	0.17131603
18	0x3da32017	0.07965105
19	0x3d1ce9a9	0.038308773
20	0xbc2b9962	-0.010473581
21	0x3daa3b61	0.08312107
22	0xbd9829a1	-0.07429815
23	0x3e0691b5	0.1314152
24	0x3ca7e5e3	0.02049536
25	0x3de26aca	0.11055525
26	0x3e276f22	0.16350988
27	0x3e21427e	0.15748021
28	0x3de2a3c7	0.11066394
29	0x3d997a1b	0.07493993
30	0x3e0ac9bc	0.13553518
31	0x3d505b23	0.050868165
32	0x3e1003aa	0.14063898
33	0x3e269bae	0.16270325
34	0x3d422190	0.04739529
35	0x3dab10d3	0.08352818
36	0x3ce535aa	0.02797969
37	0x3d7cf706	0.061759017
38	0x3db256bb	0.08707949
39	0x3e3b4776	0.18288979
40	0x3daee8b4	0.08540478
41	0x3e428e5f	0.18999623
42	0x3e067f26	0.13134441
43	0x3e3c5907	0.18393336
44	0x3c9aa705	0.01887847
45	0x3c1da0e2	0.009620877
46	0xbd8b5e06	-0.06805043
47	0x3e14d2f3	0.14533596
48	0x3da85c00	0.082206726
49	0x3e0f5ecf	0.1400101
50	0x390f497f	0.00013664922
51	0x3d3098f4	0.043114617
52	0x3e2625ee	0.16225407
53	0xbb30dc8b	-0.0026986923
54	0x3dbeb1b6	0.093112394
55	0x3db69dda	0.089168265
56	0x3dc00698	0.09376258
57	0x3d880470	0.066414714
58	0x3dab3e05	0.08361439
59	0x3d0a2aa9	0.03373209
60	0x3e37800d	0.17919941
61	0x3d0bbbd4	0.034114674
62	0x3c9a79b3	0.018856859
63	0x3de445f1	0.11146153

2.weight f4 [32, 64]
0	0x3b67934b	0.0035335596
1	0x3ddc6835	0.107620634
2	0xbddccb99	-0.10781021
3	0x3dcd7d0b	0.10033616
4	0x3d8b5786	0.06803803
5	0xbe22851b	-0.15871088
6	0xbe29d54a	-0.1658527
7	0xb8b388b6	-8.5608495e-05
8	0x3d04e003	0.032440197
9	0x3d56bd74	0.05242677
10	0x3deccb7a	0.115622476
11	0xbe2782fe	-0.16358563
12	0x3e1198e4	0.1421848
13	0xbe65ac0f	-0.22428916
14	0x3dc2c86f	0.09510886
15	0xbe4ac303	-0.19800954
16	0xbce6a947	-0.02815689
17	0xbe1988cc	-0.1499359
18	0x3e0d919c	0.13825077
19	0xbb5725d7	-0.003282895
20	0x3e5ca2ec	0.21546525
21	0xbc7a244b	-0.015267442
22	0x3ddbdb04	0.10735133
23	0xbdf472d3	-0.119359635
24	0x3e119dd3	0.14220361
25	0xbdd4d0f0	-0.10391414
26	0x3daa080d	0.08302317
27	0x3d8cd22a	0.06876023
28	0x3e089705	0.1333886
29	0x3e5fa7a0	0.21841288
30	0x3e4494ba	0.1919736
31	0xbd31cd3b	-0.043408614
32	0xbe0bd64c	-0.13655967
33	0x3d89c377	0.06726735
34	0xbe53b7f2	-0.20675638
35	0xbe0c9c31	-0.13731457
36	0xbda6b346	-0.081396624
37	0x3e14b6a2	0.14522794
38	0x3e5642ad	0.20923872
39	0x3e2716db	0.16317312
40	0xbe2efe81	-0.17089273
41	0xbe4aa709	-0.19790281
42	0x3ca5cb75	0.020238617
43	0x3ba74f60	0.005105898
44	0x3d991892	0.074753895
45	0x3c9ffec1	0.019530656
46	0x3dc8b2e2	0.09799744
47	0xbdbfa287	-0.093571715
48	0xbe3a675e	-0.18203494
49	0x3e3cc298	0.18433607
50	0xbcdf1d07	-0.027235521
51	0x3c0c5549	0.008565255
52	0x3d68e746	0.056861185
53	0xbe2e4629	-0.17018951
54	0xbd8027d9	-0.062576
55	0xbe597b8a	-0.21238533
56	0xbb614810	-0.0034375228
57	0x3e08d364	0.13361889
58	0xbe1aa5c1	-0.15102293
59	0x3dcaa323	0.09894397
60	0xbe1edef3	-0.15514736
61	0x3e02c43c	0.1277017
62	0x3e0b0d2a	0.1357924
63	0x3b8581bc	0.0040743034
64	0xbda0b047	-0.07846122
65	0x3e207d43	0.15672784
66	0xbe2840cf	-0.16430973
67	0x3e38a7c0	0.18032742
68	0xbcdb75d4	-0.026789583
69	0xbe2a9b3c	-0.1666078
70	0xbdac66f1	-0.08418072
71	0x3c8d96f7	0.0172839
72	0xbe1753f1	-0.14778115
73	0x3d93940e	0.072059736
74	0x3d9e0582	0.07715894
75	0xbe15f53c	-0.1464433
76	0x3e3361cd	0.17517777
77	0xbdaeecc1	-0.08541251
78	0xbd211b06	-0.039332412
79	0xbdced3ed	-0.100990154
80	0xbdf87914	-0.12132469
81	0x3a4def07	0.0007855747
82	0x3e0c1c3a	0.13682643
83	0x3cc4c0be	0.024017688
84	0x3dd670bf	0.10470723
85	0xbc63e6d1	-0.013910011
86	0x3ddaaf18	0.10677928
87	0xbdea5a3a	-0.114429906
88	0x3e210f78	0.15728557
89	0xbe14553b	-0.14485638
90	0x3e03da9e	0.12876365
91	0x3e1385d4	0.1440652
92	0x3e020e7f	0.12700842
93	0x3e2cd25c	0.1687712
94	0xbd0558ae	-0.032555275
95	0xbd5def7a	-0.05418346
96	0xbe0ce97f	-0.13760947
97	0xbcf0bd47	-0.02938713
98	0x3defc230	0.1170696
99	0xbc8c1a3b	-0.017102351
100	0xbd681277	-0.056658234
101	0x3e43134d	0.19050331
102	0x3dd8b603	0.10581591
103	0x3dc1b3c4	0.09458116
104	0x3d0325ab	0.032018345
105	0xbd93e148	-0.07220703
106	0x3e29ddf2	0.16588572
107	0xbdd70a40	-0.10500002
108	0x3cf569eb	0.029957732
109	0x3d7c6e8b	0.06162886
110	0x3ccde850	0.02513519
111	0xbdfafbcd	-0.122550584
112	0xbd9eff6f	-0.07763564
113	0xbd0c767d	-0.034292687
114	0x3d044356	0.03229078
115	0xbdafdc91	-0.085869916
116	0x3df95c5e	0.12175821
117	0xbdc60863	-0.096695684
118	0xbda52b32	-0.080648795
119	0xbcb1dc7b	-0.021711579
120	0x3e4a4e8d	0.19756527
121	0x3d8555e9	0.06510527
122	0x3da6360d	0.08115778
123	0x3e100cd0	0.14067388
124	0xbd91d70b	-0.07121094
125	0x3dd4cbc3	0.10390427
126	0x3b9f5145	0.004861983
127	0x3d0d404b	0.034485143
128	0xbda9acea	-0.08284934
129	0x3d2b41c1	0.041810755
130	0x3d356e56	0.044294678
131	0x3da02c15	0.07820908
132	0xbcbc0293	-0.022950446
133	0x3c9b3cf9	0.018949972
134	0xbc81eb59	-0.015859293
135	0xbdcace30	-0.099026084
136	0xbdfd4c13	-0.12368026
137	0xbd7779c6	-0.060418867
138	0x3d7ab60b	0.061208766
139	0xbc816987	-0.01579739
140	0xbe16beb7	-0.1472119
141	0xbd8616e2	-0.06547333
142	0xbd5d50ba	-0.054032065
143	0xbd93e2a0	-0.0722096
144	0x3db5e654	0.08881822
145	0x3da677fd	0.08128355
146	0x3d3f5426	0.04671111
147	0x3d5de528	0.05417362
148	0xbde363a9	-0.11102993
149	0x3dc42060	0.095764875
150	0xbc76db40	-0.015066922
151	0xbd5e49f4	-0.054269746
152	0xbe0c6ad9	-0.13712634
153	0xbd8d9ac7	-0.06914287
154	0x3bcc08d4	0.0062266383
155	0x3dc81f55	0.09771601
156	0xbe029537	-0.12752233
157	0xbd9f1914	-0.07768455
158	0xbd77b001	-0.060470585
159	0xbb9e2181	-0.0048257713
160	0x3dd35995	0.10319821
161	0xbd7b4cb5	-0.06135245
162	0xbde5fe94	-0.112301975
163	0x3d9cc163	0.07654073
164	0x3cff45ca	0.031161208
165	0x3db3c479	0.087777086
166	0xbde80488	-0.11328989
167	0xbd1c94d6	-0.03822788
168	0x3d18b55b	0.03728233
169	0x3d9ace49	0.07558877
170	0x3d4b0d92	0.04957349
171	0xbd748d54	-0.059705094
172	0x3d8e0aea	0.069356754
173	0x3d98906f	0.074494235
174	0xbcf99330	-0.030465692
175	0xbdf8de06	-0.121517226
176	0xbc8ce794	-0.017200269
177	0xbd89fd58	-0.067377746
178	0xbe178c5e	-0.1479964
179	0x3d690f6d	0.056899477
180	0xbd1f94ff	-0.038960453
181	0xbdaec0b9	-0.08532853
182	0xbd3406ac	-0.043951675
183	0xbda1a2da	-0.078923896
184	0x3d3c8ef9	0.046034787
185	0x3c2554df	0.010091036
186	0xbdb627ca	-0.08894308
187	0x3c81c270	0.015839785
188	0xbcdf485a	-0.02725618
189	0xbd32c949	-0.04364899
190	0x3dc44410	0.095832944
191	0x3cc7aa38	0.024373159
192	0x3e58539c	0.21125644
193	0x3b73b567	0.0037186982
194	0x3d231e22	0.03982366
195	0xbdf13007	-0.117767386
196	0xbda7e9a1	-0.08198858
197	0x3cf13370	0.029443473
198	0x3e4eaec8	0.20183861
199	0x3dc87ffb	0.09790035
200	0x3e55db21	0.20884372
201	0x3d9c5e9e	0.07635234
202	0xbdc920bc	-0.09820697
203	0x3e35ff9d	0.1777329
204	0xbd9b737f	-0.075903885
205	0x3b400676	0.0029300726
206	0x3e4cd762	0.20004037
207	0x3e143483	0.14473157
208	0xba435275	-0.0007450947
209	0x3e4f1810	0.20224023
210	0x3c8c9a1a	0.017163325
211	0x3e3033fc	0.1720733
212	0xbd818d19	-0.0632574
213	0x3def7f4d	0.116942026
214	0xbd009ef4	-0.03140159
215	0x3d1df7b9	0.038566325
216	0xbcf42f15	-0.029807607
217	0x3dddbdd6	0.10827224
218	0x3e0b70bd	0.13617225
219	0xbc136212	-0.00899555
220	0x3d274249	0.0408347
221	0xbe437f56	-0.19091544
222	0x3e296a7b	0.16544525
223	0x3ddab8ef	0.106798045
224	0x3d1fbcb4	0.03899832
225	0x3e2ae361	0.166883
226	0x3ba42c52	0.005010166
227	0x3cb3b673	0.021937585
228	0xbc0fbae7	-0.008772588
229	0xbe6733e8	-0.22578394
230	0xbe6bedd6	-0.23039946
231	0x3ce09804	0.027416237
232	0x3e686356	0.22694144
233	0x3e3df31c	0.1854977
234	0xbd1f92a1	-0.038958196
235	0x3df8b67c	0.12144181
236	0x3e5a7fd1	0.2133782
237	0xbcafc992	-0.02145842
238	0x3cdf3928	0.027248934
239	0x3d227286	0.03966
240	0x3cccb9d6	0.024990957
241	0x3c8297a2	0.015941445
242	0x3d8c9a7a	0.068654016
243	0x3e113a7f	0.1418247
244	0x3e29a819	0.1656803
245	0x3ca3073e	0.019900914
246	0x3b6d810d	0.003624025
247	0x3e32dfff	0.1746826
248	0xbe2ed4c8	-0.17073357
249	0xbc8e0085	-0.017334232
250	0x3d265e4e	0.04061728
251	0xbca79d02	-0.02046061
252	0x3b43d79a	0.0029883147
253	0x3e049006	0.12945566
254	0xbe3dcbcc	-0.18534774
255	0x3db581c7	0.08862644

2.bias f4 [32]
0	0x3e23dd65	0.16002424
1	0xbd23f2b8	-0.040026397
2	0x3d8786c2	0.066175
3	0x3e63a5e0	0.22231245
4	0xbd2e6564	-0.042577162
5	0x3d08aa8f	0.033365782
6	0x3dd1510c	0.102205366
7	0xbc8c56d8	-0.017131254
8	0x3ddfafe3	0.109222196
9	0xbaa9c9cb	-0.0012953816
10	0xbc27f371	-0.010250912
11	0x3e206a31	0.15665509
12	0xbc68b3bd	-0.014203009
13	0xbccc3941	-0.024929645
14	0x3e3577ee	0.17721531
15	0x3de1513f	0.110018246
16	0xbd29d0a4	-0.04145874
17	0xbd35eb46	-0.044413827
18	0xbdfca65c	-0.12336418
19	0x3c1fe353	0.009758788
20	0x3d9a8f65	0.075468816
21	0x3e152e88	0.14568532
22	0x3c782f56	0.0151480045
23	0x3afb7b64	0.0019186554
24	0x3c413e14	0.011794586
25	0x3df1d0cb	0.11807402
26	0xbd4211ec	-0.047380373
27	0x3e2b264f	0.16713832
28	0x3e45b85f	0.19308613
29	0x3d63de1c	0.055631742
30	0x3e3bcded	0.18340273
31	0xb9317274	-0.00016922673

4.weight f4 [16, 32]
0	0xbe346f93	-0.17620687
1	0x3d7d397b	0.061822396
2	0x3d0cf6e8	0.034415156
3	0x3dfa7aa5	0.12230424
4	0x3d85422e	0.065067634
5	0x3de2ce58	0.11074513
6	0xbdcf988a	-0.101365164
7	0xbe30230a	-0.17200866
8	0xbe3f7be4	-0.18699604
9	0x3d28ac6a	0.041180052
10	0xbdb8bf20	-0.09020829
11	0x3dc83ac9	0.097768374
12	0xbd92312d	-0.07138286
13	0x3cdbc79b	0.026828578
14	0xbda602d3	-0.081060074
15	0xbe748408	-0.23878491
16	0xbe7aaa97	-0.24479137
17	0xbd2a8a22	-0.04163564
18	0xbdf9fd4e	-0.12206517
19	0xbd33f498	-0.043934435
20	0xbe1be6a8	-0.15224707
21	0xbe332a80	-0.17496681
22	0x3de51456	0.111855194
23	0x3e04789b	0.12936632
24	0xbcfe74f6	-0.03106163
25	0x3dfeb02e	0.12435947
26	0xbcbe66e2	-0.023242418
27	0xbdfd5e4f	-0.123715036
28	0x3e06a8be	0.13150308
29	0x3dbcf0b6	0.092255995
30	0x3df6badc	0.12047359
31	0xbe2e8c1a	-0.17045632
32	0xbe4ca1cc	-0.19983596
33	0xbe1b92bb	-0.15192692
34	0x3d2dedc6	0.042463087
35	0x3e7fd405	0.24983223
36	0x3e2607cf	0.16213916
37	0x3e6a507f	0.2288227
38	0x3e662273	0.22474079
39	0x3a871000	0.0010304451
40	0xbe044548	-0.12917054
41	0xbe4bb6f4	-0.1989401
42	0xbc788470	-0.015168294
43	0xbc1f76d9	-0.009732925
44	0xbdfa9f09	-0.12237365
45	0xbe8ee7af	-0.27911136
46	0x3e499505	0.19685753
47	0xbe80d1bc	-0.25160015
48	0xbe0efeb2	-0.13964346
49	0x3e121dd9	0.14269198
50	0x3d08b86c	0.033379003
51	0xbdae14e6	-0.0850008
52	0xbe7412e2	-0.23835328
53	0xbe96eb17	-0.29476234
54	0x3e6fef97	0.2343124
55	0x3de550d1	0.11197055
56	0x3d2473aa	0.04014937
57	0x3e4e7b3d	0.20164199
58	0x3da06d32	0.07833327
59	0x3b57b46a	0.0032913932
60	0x3e2d1325	0.16901834
61	0x3ae04c64	0.001711261
62	0x3e068dcb	0.13140027
63	0xbe05cfcf	-0.13067554
64	0xbddab3fa	-0.10678859
65	0xbe81011c	-0.2519616
66	0xbcfc1bf3	-0.030775046
67	0xbd4ed6a7	-0.050497677
68	0xbe2c442c	-0.1682288
69	0x3e63cce4	0.22246128
70	0x3e6688fa	0.2251319
71	0x3cfe9d30	0.031080812
72	0xbc5aefc1	-0.013362826
73	0xbe546e7b	-0.2074527
74	0xbe0df599	-0.1386322
75	0x3de74a4f	0.1129347
76	0x3dd12d65	0.102137364
77	0xbdff4d6e	-0.124659404
78	0xbb231467	-0.0024883987
79	0xbc8a8235	-0.01690779
80	0xbe0d41a4	-0.13794571
81	0x3e278130	0.16357875
82	0x3d8cffc2	0.068847194
83	0xbe3cd672	-0.1844118
84	0xbe45183c	-0.19247526
85	0xbe443d65	-0.19164045
86	0xbc7633ec	-0.015027028
87	0x3e4cde0e	0.20006582
88	0xbe3037f6	-0.17208847
89	0xbdb6c64c	-0.08924541
90	0x3d83750c	0.06418809
91	0xbe5eac11	-0.21745326
92	0x3de07651	0.10960067
93	0xbd5aa883	-0.05338336
94	0x3e6fe685	0.2342778
95	0xbe06149c	-0.130938
96	0x3e5a72be	0.21332833
97	0x3ce6adff	0.02815914
98	0xbd06ffdb	-0.032958847
99	0x3d44a9ed	0.048013616
100	0x3dd50b39	0.10402531
101	0x3c77b350	0.015118435
102	0x3d3e8a26	0.046518467
103	0x3dab2676	0.08356945
104	0x3d718e45	0.05897357
105	0x3d97c146	0.07409911
106	0xbe00acee	-0.12565967
107	0xbe1fa53d	-0.15590377
108	0x3dc0984f	0.094040506
109	0xba0c6892	-0.00053561584
110	0xbc03fc59	-0.00805577
111	0x3e3fbb80	0.1872387
112	0xbc3be6ea	-0.011468628
113	0xbcf210cd	-0.029549027
114	0xbe33ec77	-0.17570673
115	0x3de348eb	0.110978924
116	0x3e485164	0.19562298
117	0x3e0f9625	0.1402212
118	0xbe096818	-0.13418615
119	0x3db6ec21	0.08931757
120	0xbb8dd354	-0.004328171
121	0xbe27fbbd	-0.16404624
122	0x3e2b16fe	0.1670799
123	0x3dc914f9	0.09818453
124	0x3d16fa5c	0.036859855
125	0xbe2d40a5	-0.16919191
126	0x3dc3f5e3	0.095683835
127	0x3da2d892	0.07951464
128	0xbe1bca57	-0.15213905
129	0x3d386454	0.045017555
130	0xbd123728	-0.035697132
131	0xbdc08c42	-0.09401752
132	0x3e1f57ef	0.15560888
133	0xbd63c352	-0.055606194
134	0xbd98c222	-0.07458903
135	0x3b8419e0	0.004031405
136	0xbe2090aa	-0.15680185
137	0x3e292971	0.16519715
138	0x3d992916	0.0747854
139	0xbe326629	-0.17421784
140	0x3d257aac	0.040400192
141	0xbd976be1	-0.07393623
142	0xbe10c391	-0.14137103
143	0xbc796f00	-0.015224218
144	0x3e32deeb	0.17467849
145	0xbcfed2f8	-0.031106457
146	0x3dfd224a	0.12360056
147	0x3d0f4468	0.034977347
148	0xbc449520	-0.011998445
149	0x3de631e2	0.11239983
150	0xbd068670	-0.032843053
151	0xbcede008	-0.02903749
152	0x3e154627	0.14577542
153	0x3dee6c1a	0.116417125
154	0x3d2bffc4	0.041991964
155	0xbdd3a5fd	-0.10334394
156	0xbe1d8636	-0.15383229
157	0xbd2a5254	-0.04158242
158	0xbe1789ba	-0.14798632
159	0x3ca99720	0.020701945
160	0x3e505055	0.20343144
161	0x3d2bfe9d	0.041990865
162	0x3d75caad	0.06000774
163	0xbdba6180	-0.09100628
164	0xbd0b3ad6	-0.033991657
165	0x3c5cd387	0.013478166
166	0xbc5e2ee0	-0.013560981
167	0xbc986570	-0.018603057
168	0x3e81ce38	0.25352645
169	0x3dc2ce93	0.09512057
170	0xbe06a3cc	-0.13148421
171	0xbe02c78b	-0.12771432
172	0x3e6f1e67	0.23351441
173	0xbc547545	-0.012967412
174	0x3d38f650	0.045156777
175	0x3e4d4de4	0.20049244
176	0x3ddb4cef	0.10708033
177	0xbd4b3147	-0.04960754
178	0xbe22ccaa	-0.15898386
179	0x3d238b80	0.03992796
180	0x3e917b01	0.28414157
181	0xbcdac6cb	-0.02670612
182	0x3d126615	0.035741884
183	0x3db417c2	0.08793594
184	0x3e3872d5	0.18012555
185	0xbd5fea26	-0.05466666
186	0x3d0e5206	0.034746192
187	0x3e85400e	0.26025432
188	0xbd9c601c	-0.07635519
189	0x3d70cd1e	0.058789365
190	0xbd7beec0	-0.061506987
191	0xbda96375	-0.08270923
192	0xbd14f118	-0.036362737
193	0x3c908ef8	0.017646298
194	0x3e1330a5	0.14374025
195	0x3d620f78	0.055190533
196	0x3c6a9270	0.01431714
197	0xbd8b6df7	-0.068080835
198	0xbdabacbe	-0.08382557
199	0xbdc4ceed	-0.096097805
200	0x3de898a6	0.113572404
201	0x3e32e2c5	0.17469318
202	0x3c034dc0	0.0080141425
203	0xbba943a0	-0.005165532
204	0x3c594ec0	0.013263404
205	0x3c3224e0	0.0108730495
206	0xbd2d5078	-0.04231307
207	0xbd426b54	-0.047465637
208	0xbcfb26f8	-0.03065823
209	0x3e2970c3	0.16546921
210	0xbcec53c0	-0.028848529
211	0xbc9b61d8	-0.018967554
212	0xbd4e6f38	-0.050399035
213	0xbd663576	-0.056203328
214	0xbd56f092	-0.05247552
215	0xbd142b0c	-0.036173865
216	0xbde14c67	-0.11000901
217	0xbe188988	-0.14896214
218	0xbe11dee6	-0.14245185
219	0xbc3e4f10	-0.01161553
220	0xbd820e8b	-0.0635043
221	0x3e25f2b9	0.16205873
222	0xbd894d8f	-0.06704246
223	0xbca4aac8	-0.020100966
224	0x3e319efc	0.17345804
225	0xbcce4255	-0.025178114
226	0xbb2d81f7	-0.002647517
227	0xbd549b00	-0.051905632
228	0xbe2ff6fa	-0.17184058
229	0xbdf62109	-0.1201802
230	0xbe1b32b6	-0.15156063
231	0x3dd0e65e	0.10200189
232	0x3d84ea0d	0.06489954
233	0x3e6ab3fd	0.22920223
234	0x3e2ddb8f	0.16978286
235	0x3e0f11c1	0.13971616
236	0x3d909f95	0.07061688
237	0x3e490b94	0.19633323
238	0xbe27c209	-0.16382612
239	0x3e253140	0.16132069
240	0x3d4da1ef	0.05020326
241	0x3d6dfc2a	0.05810181
242	0x3e1d60a5	0.15368898
243	0xbda016af	-0.078168266
244	0x3c7c58e9	0.015402057
245	0x3df75b78	0.12077993
246	0x3b024082	0.0019874875
247	0xbd67ba7f	-0.05657434
248	0x3e59f2af	0.21283983
249	0xbddb7d8a	-0.10717304
250	0xbe1505ef	-0.14553045
251	0x3db66d82	0.08907606
252	0x3e0b6c09	0.13615431
253	0x3c905e65	0.017623136
254	0x3e4a96fe	0.19784161
255	0x3d758435	0.059940536

4.bias f4 [16]
0	0x3e502217	0.20325504
1	0x3b6236d4	0.0034517543
2	0x3e3bf465	0.18354948
3	0x3e46703d	0.19378753
4	0xbc51a030	-0.012794539
5	0x3df11142	0.1177087
6	0xbdb9c99a	-0.090716556
7	0xbd2b343a	-0.041797854
8	0x3dff0346	0.12451796
9	0xbdff55ca	-0.12467535
10	0x3e796ec9	0.24358667
11	0x3e308da4	0.17241532
12	0xbd8c6ea0	-0.068570375
13	0x3e45d898	0.19320905
14	0xbd471e7e	-0.048613064
15	0x3e6bb01f	0.23016404

6.weight f4 [8, 16]
0	0x3e5ae8f1	0.21377923
1	0x3db7095d	0.08937333
2	0x3e814893	0.25250682
3	0xbe768b2f	-0.24076532
4	0x3e3de1cc	0.18543166
5	0xbcb8f729	-0.022578793
6	0x3e193254	0.14960605
7	0xbd7838fb	-0.060601216
8	0x3e2f867f	0.1714115
9	0x3d7cc9a0	0.061715722
10	0x3e9f9b01	0.31172946
11	0xbcb773a1	-0.022394003
12	0x3ddc69e9	0.10762388
13	0x3e445b2d	0.19175406
14	0xbe69673c	-0.22793287
15	0x3e611793	0.21981649
16	0x3dd07793	0.10179057
17	0xbe1459af	-0.14487337
18	0xbe1734fa	-0.14766303
19	0xbd93f581	-0.072245605
20	0xbdf9b418	-0.12192553
21	0xbd9ac816	-0.075576946
22	0xbcfb9f70	-0.030715674
23	0xbdda4def	-0.10659396
24	0xbdaa5357	-0.08316677
25	0x3e4d6708	0.20058835
26	0xbe222263	-0.1583343
27	0xbdcebe27	-0.100948624
28	0x3dc2cbb0	0.095115066
29	0xbddd0c69	-0.10793383
30	0xbd8f029a	-0.06982918
31	0x3e820d13	0.254006
32	0x3c362260	0.011116594
33	0x3c68cb20	0.014208585
34	0x3e93dda1	0.28880027
35	0x3e351665	0.17684324
36	0xbe2a4daa	-0.16631189
37	0xbde89d67	-0.11358147
38	0xbe34165a	-0.17586651
39	0xbc9285a7	-0.017885996
40	0x3ea540fc	0.32276142
41	0xbda96540	-0.08271265
42	0x3e809b0b	0.25118288
43	0xbe2f337c	-0.17109483
44	0x3d17ab70	0.03702873
45	0x3e28a7c4	0.16470248
46	0xbe6d6999	-0.23184814
47	0x3e107b83	0.14109616
48	0xbe48ffd6	-0.19628844
49	0x3e89808e	0.26855892
50	0xbdcf0959	-0.10109205
51	0xbe5c133b	-0.21491711
52	0xbe3c0e34	-0.18364793
53	0x3e11b2a7	0.14228307
54	0xbb079780	-0.0020689666
55	0xbe0f3bc6	-0.13987646
56	0x3e1899b4	0.14902383
57	0xbe7ed2f8	-0.24885166
58	0x3e974441	0.2954426
59	0xbe2e6678	-0.17031276
60	0xbe079214	-0.13239318
61	0x3e177acf	0.14792942
62	0xbe53250b	-0.206196
63	0x3ddda88a	0.10823162
64	0x3e89928c	0.2686962
65	0x3ea4371d	0.32073298
66	0xbc96364b	-0.018336436
67	0xbe321a53	-0.17392854
68	0x3e73d5aa	0.23811975
69	0xbe398974	-0.1811884
70	0xbe295cc6	-0.16539297
71	0xbeabde03	-0.3356782
72	0x3e8cb901	0.27484897
73	0xbe423a14	-0.18967468
74	0xbdbedca7	-0.0931943
75	0xbe3dab20	-0.1852231
76	0x3e93cc6c	0.288669
77	0x3ea47c09	0.3212588
78	0x3dd43633	0.103619
79	0x3d942e06	0.07235341
80	0x3ca2776b	0.019832334
81	0xbda8d954	-0.08244577
82	0x3e2e00ab	0.16992442
83	0xbe5f2945	-0.21793087
84	0xbe29372e	-0.16524956
85	0x3d954989	0.07289416
86	0xbe75f928	-0.24020827
87	0xbde46946	-0.11152892
88	0x3dc490df	0.095979445
89	0xbe39c7e0	-0.18142653
90	0x3ea0d1ca	0.31410056
91	0xbe12e36a	-0.14344564
92	0x3dd40365	0.1035221
93	0xbe07d6e8	-0.13265574
94	0xbe3d1eb3	-0.18468742
95	0x3e27c632	0.163842
96	0x3e2d897c	0.16946977
97	0x3e34057d	0.17580219
98	0x3eaecf08	0.34142327
99	0x3e09ca23	0.13456015
100	0x3d340c00	0.043956757
101	0xbeb319b9	-0.34980562
102	0x3dbaf470	0.09128654
103	0x3d8b2a86	0.0679522
104	0x3e5646fb	0.20925514
105	0xbe3f9c9e	-0.18712088
106	0x3ce2c305	0.027680883
107	0xbe999d4a	-0.30002815
108	0xbd2a5849	-0.0415881
109	0x3d862b0b	0.065511785
110	0xbe677657	-0.22603737
111	0x3e6debb5	0.23234446
112	0xbde25ffe	-0.11053465
113	0x3e0779c7	0.13230048
114	0xbe03db4a	-0.12876621
115	0xbe2ee595	-0.17079766
116	0x3d9ca104	0.07647899
117	0xbd86e552	-0.06586708
118	0x3ddf4f18	0.10903758
119	0xbeb132d2	-0.34609085
120	0xbe3d0433	-0.18458633
121	0xbd529750	-0.051413834
122	0x3e2db616	0.16963992
123	0xbd7c5a00	-0.06160927
124	0x3e827ced	0.25485936
125	0xbc648146	-0.013946837
126	0xbe840d95	-0.25791612
127	0xbe26b632	-0.1628044

6.bias f4 [8]
0	0x3e6e6516	0.23280749
1	0xbd916ba3	-0.07100608
2	0x3e4ca617	0.19985233
3	0x3e00f908	0.12594998
4	0x3e8e93df	0.27847192
5	0xbdc2ec4a	-0.09517725
6	0x3dc2579e	0.09489368
7	0x3df2deb6	0.11858885
