logs/best_model_4_2.pt (torch, 46229 bytes, 8 tensors)

0.weight f4 [64, 126]
000000 98 39 ac bd a0 eb b0 3d b1 4f 4a bd 53 f0 20 be
       -0.08409423 0.08638692 -0.049392406 -0.15716676
000010 bc ac b1 3d 8b 78 e2 bc 13 0e 37 3d 97 8e 38 3e
       0.086755246 -0.02764537 0.044691157 0.18023144
000020 25 72 37 3d 85 ec c7 3c 55 d7 35 3e cd c1 39 be
       0.04478659 0.024404773 0.17757924 -0.18140335
000030 52 63 84 3c db 53 bf 3d 75 1d de 3d 73 0d d1 bc
       0.01616064 0.09342166 0.10845462 -0.025519108
000040 e0 cc e6 3d a5 89 fd 3d d5 e8 b8 bd 3a e1 c8 be
       0.112695456 0.12379769 -0.09028784 -0.39234334
000050 ef 49 b6 be fe b4 b3 bb 06 fd 99 be 0c 93 2b bd
       -0.35603282 -0.0054842224 -0.30075854 -0.04188828
000060 f3 fd 15 3d 4d ba 62 3d 4c 19 8a bc fb 85 fc 3d
       0.036619138 0.05535345 -0.016857766 0.12330242
000070 be da 93 3d 90 3f 43 bb 03 6e 1e bc a5 5b 8e bd
       0.07219456 -0.0029792525 -0.0096697835 -0.069510736
000080 8c 89 4e 3e 18 fe 95 bc ba 9f 98 bc ee 9b 11 be
       0.20169657 -0.018309638 -0.018630851 -0.14219639
000090 b8 80 7f bd 9c f8 e2 3d 5b 3c 22 3d 8a c6 f6 bb
       -0.062378615 0.11082575 0.03960834 -0.007530992
0000a0 34 01 2e 3e da 98 14 bd bc e6 64 bd 2c cb 88 3d
       0.16992646 -0.036278583 -0.055884108 0.06679377
0000b0 1f 5a 59 3d bc 5f 95 3b 46 5c 0b bd 9f 9e 3c bd
       0.05306446 0.0045585316 -0.034023546 -0.04604971
0000c0 f2 c6 00 3d 6a d0 93 bd f9 a4 aa 3d 71 0f 46 be
       0.03143973 -0.07217486 0.08332247 -0.19341828
0000d0 68 ec e3 3d f4 9d 32 3d 8e c3 ca 3c 5e fa ce bd
       0.11129075 0.043607667 0.02475145 -0.101063475
0000e0 09 ee c3 bc e5 55 d5 3c 26 77 2e 3d b2 f5 b8 3b
       -0.023917215 0.026041934 0.042594098 0.0056445235
0000f0 fe 40 36 3e ef b2 56 3e c7 95 a6 3b 23 9a 0d 3e
       0.1779823 0.20966695 0.005083773 0.1382833
000100 90 6b af 3d 7a 2b b3 3c 32 3c b8 3d 3a 99 0c 3e
       0.08565438 0.021871317 0.08995856 0.13730326
000110 09 d2 1f 3e 49 03 07 3e 3c e1 c6 3d a6 f0 5a 3e
       0.15607466 0.13184847 0.09710929 0.21380863
000120 ba 91 07 3e ad 8b 97 3d b0 7d b3 3c 29 6f 42 3d
       0.13239184 0.07399688 0.021910518 0.04746929
000130 7b c8 b6 bd c6 3f 92 3d 3f 79 9a 3c b8 a7 09 3e
       -0.08924957 0.0714107 0.018856643 0.13442886
000140 6e 0b a8 3d 92 7d bf bd 4b 0d 80 3d 11 de 07 be
       0.08205305 -0.093501225 0.062525354 -0.13268305
000150 d9 51 a2 bd 66 90 3c be df b5 26 be 8c 41 90 bc
       -0.079257675 -0.18414459 -0.16280316 -0.01760938
000160 f3 7c 70 bd f0 bb a1 bd f1 8d 04 bd 49 81 ca 3d
       -0.05871291 -0.07897174 -0.03236193 0.098879404
000170 05 4a 28 3e cb 6c c2 3c fd 7e 4b bd c5 c3 9f bd
       0.16434486 0.023733517 -0.049681652 -0.07801012
000180 4e 11 7e bd da 0a d2 bd 8e bc bd 3d 60 54 e5 ba
       -0.06202822 -0.10255976 0.092644796 -0.0017496459
000190 58 6f 08 3d 87 16 24 bd a6 8b 8c 3d 7a 62 8a bd
       0.03330931 -0.040060546 0.06862573 -0.06757064
0001a0 71 74 c1 bd fe d0 98 3d 23 fd ba bd 43 26 cb 3b
       -0.094460376 0.07461737 -0.09130313 0.0061996295
0001b0 b3 f7 3a 3c d7 85 e4 bc c6 05 39 3d cd b5 06 bc
       0.011411595 -0.027895851 0.04517152 -0.008222056
0001c0 ac b0 2f bd 01 4f 40 3d b4 98 16 3c 48 c4 fa bd
       -0.042893097 0.046950344 0.009191681 -0.12244469
0001d0 29 7b 82 bd ac 08 d3 bd 96 ec 2d bc 62 08 79 3d
       -0.06371147 -0.103043884 -0.0106154885 0.06079901
0001e0 be 78 27 bc 24 c8 fb 3d a3 40 0d 3e 07 6c 7d bc
       -0.010221658 0.12294033 0.13794188 -0.01546765
0001f0 63 2d ab 3d 57 61 34 bc a1 16 65 3e cc 8d bc 3d
       0.08358266 -0.011009536 0.22371913 0.09206733
000200 f0 08 9b 3e 75 b3 66 3d 20 35 c9 3d 9f 82 15 be
       0.30280256 0.056323487 0.09824586 -0.14600609
000210 c0 d1 9d bd ca 30 51 bd d0 25 a7 3d 8b a2 69 3e
       -0.07706022 -0.05107192 0.08161509 0.22815911
000220 01 a2 59 3c 22 38 86 3c df e8 45 be c4 ea d4 bc
       0.013283254 0.016384188 -0.19327115 -0.025990851
000230 71 70 2b be ef cc 89 be a2 45 76 be 3f 06 8d 3d
       -0.16742112 -0.26914164 -0.2405 0.06885957
000240 07 4c dd bd 37 bb 68 be dd f0 00 be 04 ad 39 3e
       -0.10805517 -0.22727667 -0.12591882 0.18132406
000250 df 15 ca 3d 2b a7 2b be f9 f6 51 3e da 34 6f 3d
       0.09867453 -0.16762988 0.20504369 0.058400013
000260 e5 5b 5c bd 7e be 5f 3e 0c 46 2d 3e de b2 90 3d
       -0.053798575 0.21850011 0.16921252 0.07065366
000270 57 c7 40 3e ba a9 07 3d 6a 21 c7 bc c8 c4 1f be
       0.18826042 0.03312085 -0.024307925 -0.1560241
000280 2e 4d 92 3a 5d 4f 0d 3d ce b8 53 be d7 60 93 bd
       0.0011161917 0.034499515 -0.20675966 -0.07196205
000290 a1 11 8e be ba e1 44 be 4d 95 6a be ee 04 7f be
       -0.27747825 -0.19226733 -0.22908516 -0.24904224
0002a0 ef e7 c6 3d da 47 06 3e 2d d5 83 bd df 49 fe 3d
       0.097122066 0.13113347 -0.064371444 0.124164335
0002b0 1b b3 2c be b7 2f 78 be f7 4a d7 bb 80 3b 7b 3e
       -0.16865198 -0.24236952 -0.006570216 0.24534416
0002c0 54 4a 4b 3e 74 44 61 3e ad ec 65 bd 62 78 30 bc
       0.19852573 0.21998769 -0.056133915 -0.010770889
0002d0 dc 8d 83 bd 13 00 1d be 35 3b 96 3d 94 61 82 3d
       -0.06423542 -0.1533206 0.073355116 0.06366268
0002e0 44 bb a1 bd 78 4c b6 3c e7 1b fa bd b7 0f 69 be
       -0.07897046 0.02225326 -0.12212353 -0.22759901
0002f0 ee ba 02 bd 3a 7f 12 3e a0 66 a9 3d 64 15 14 bc
       -0.03191655 0.14306346 0.08271527 -0.009038303
000300 89 dd e9 bc 34 82 31 3d 39 53 38 3b 0d ea 59 bd
       -0.028548019 0.043337062 0.0028125776 -0.053201724
000310 3a 75 10 3e 8f 29 23 3d 43 b9 49 3b a1 45 b9 3d
       0.14107218 0.039834555 0.003078059 0.09046484
000320 99 08 4f 3e 05 64 54 3e 04 80 94 3e ee d2 d6 bd
       0.20218123 0.2074128 0.29003918 -0.104894504
000330 1f f0 d8 bd 5b 7e 35 bd c6 02 0b be e9 de ef 3a
       -0.105926745 -0.044309955 -0.13575277 0.0018300685
000340 62 01 25 bd ef 6c f8 3d ae 8f 2c 3e c1 2f 2c 3e
       -0.040284522 0.121301524 0.16851684 0.16815092
000350 28 82 47 3e 06 f6 1c 3e 3e 49 84 3d 90 e6 72 3e
       0.19483244 0.15328225 0.06459282 0.23720765
000360 11 79 fb 3d 48 41 be 3d 99 3d a4 3d 27 59 a0 3d
       0.12278951 0.09289795 0.08019561 0.078295045
000370 e0 72 2a 3e 2f 9f c1 3d 63 b5 17 3e 80 00 90 3e
       0.16645384 0.0945419 0.14815287 0.2812538
000380 c3 5f 91 3d 98 84 19 3e e4 16 14 3e 42 67 f7 3d
       0.07098343 0.14991987 0.14461857 0.12080242
000390 62 01 65 3d cb e8 71 3e c0 a4 82 3e e9 e0 66 3e
       0.055909522 0.2362396 0.2551632 0.22546734
0003a0 22 29 84 3e d2 d9 14 3e b1 94 cb 3d 7a 94 69 3e
       0.25812632 0.14536217 0.0994047 0.22810546
0003b0 b3 a2 d5 3d 5a cb ea 3d 2e ba 5a 3e a5 c8 32 3e
       0.10431423 0.114645675 0.21360084 0.17459352
0003c0 13 ab 22 3e 56 29 70 3e fb 7a 54 3e ef d1 1c 3e
       0.15885572 0.23453268 0.20750038 0.15314458
0003d0 f9 48 79 3e 04 6e 56 3d c8 3a a8 3d 8e 7c a6 3d
       0.24344243 0.052351013 0.08214337 0.08129226
0003e0 c9 71 7d 3d c1 83 40 3e 96 90 56 3e a3 51 66 3e
       0.061876092 0.1880026 0.20953593 0.2249208
0003f0 56 cb b3 3e 24 5c bf 3d 33 d7 9c 3e 22 b0 82 3e
       0.3511607 0.09343746 0.30632934 0.25525004

0.bias f4 [64]
000000 4d b2 5a 3e fc 66 bd 3e 28 b7 5f 3e fb 9a 23 3e
       0.21357079 0.36992633 0.21847212 0.15977089
000010 aa b4 fc bd 38 11 96 3e 80 61 be be a2 90 ff 3d
       -0.123391464 0.29310012 -0.37183762 0.124787584
000020 51 b1 66 bb 1c 12 4b 3f 48 88 2e 3d ee 1e 6d 3e
       -0.0035200904 0.7932451 0.042610437 0.2315633
000030 b3 6f 34 3e 26 ac 7d bd 0e 1f c1 bd 02 ba d1 3b
       0.17620735 -0.06193175 -0.09429751 0.0064003477
000040 3f d6 47 3e 7d 34 c0 bd f7 0a 8e be fc be fc bb
       0.19515322 -0.09385011 -0.2774274 -0.007713197
000050 da b9 a4 3e 10 d6 13 3f d8 db ea 3d 5d 33 c2 bd
       0.32173043 0.5774851 0.11467713 -0.09482453
000060 b4 24 23 bd 41 70 9c 3e f9 a7 d2 3e 68 61 b4 bd
       -0.039829925 0.30554393 0.41143778 -0.08807641
000070 ad 03 e1 bb 1a 17 9b 3e 74 7b d4 bd 83 5a 37 3f
       -0.0068668933 0.30291063 -0.10375109 0.71622485
000080 dd 5d 89 3e f2 ac df 3d e6 32 28 bd ec 1d 9e 3e
       0.26829425 0.109216586 -0.041064166 0.30882204
000090 67 17 91 3e c6 f5 8d 3e 63 97 88 3e 27 7e a2 3d
       0.28338167 0.27726573 0.26678 0.07934218
0000a0 ce 21 9f 3d bf 3b 4e 3e 5f 05 bb 3e da a4 8e 3e
       0.077701196 0.20139979 0.36527535 0.27860147
0000b0 02 a4 35 3f 0d 6a 20 3e f0 34 11 3f bd 43 98 3b
       0.7095338 0.15665455 0.567214 0.004646747
0000c0 f2 bc be bd fa 07 d0 3e b2 9d 5d 39 e2 59 b9 3d
       -0.09313382 0.40631086 0.00021134948 0.09050347
0000d0 27 de 33 3d ea 1a 86 3d 7b bf b8 3e d9 8f 84 3e
       0.043913033 0.06548102 0.36083588 0.25890997
0000e0 84 9b 2b 3e 47 4b 00 3e be cb d1 3e 3a e4 c8 3d
       0.16758543 0.12528716 0.40975755 0.09809156
0000f0 37 ed 16 3f a7 f7 fa 3b 45 d6 4c 3e 07 7f 64 3e
       0.5895571 0.007658917 0.20003612 0.22314082

2.weight f4 [32, 64]
000000 08 90 03 bd ee fe b0 bd 80 a7 9f bd 57 e4 bd 3d
       -0.03211978 -0.08642374 -0.0779562 0.09272068
000010 3b aa c5 bd 95 56 05 3e 59 eb 4f bd b0 18 02 3d
       -0.096516095 0.1302131 -0.050761554 0.031761825
000020 f6 6a 03 3d 2e 77 96 3d 05 2e 53 bd e3 3f 55 3d
       0.032084428 0.073469505 -0.05155756 0.05206288
000030 1d 0a 00 be 04 85 8c bd 99 c3 57 bd 0d d5 c2 bd
       -0.12503858 -0.06861308 -0.05267677 -0.095132925
000040 fc c1 ac 3d 84 a3 2f bd 86 31 88 3d 6f 32 80 3d
       0.08435437 -0.04288055 0.06650071 0.062596194
000050 49 ad 87 3d 70 52 08 be 58 c1 10 3c 33 70 e8 bb
       0.066248484 -0.13312697 0.008835159 -0.0070934533
000060 7c f5 c0 3d f7 96 f2 bd 6d 71 f9 bd 46 d6 ae 3d
       0.094218224 -0.118452005 -0.121798374 0.08536963
000070 b2 de 9a 3d 84 42 27 bd 7e d0 94 3d 61 8a 6b 3d
       0.07562007 -0.04083492 0.07266329 0.057505015
000080 b8 65 85 bd f0 39 9f bd af 24 e3 bd 61 4a bc 3d
       -0.06513542 -0.077747226 -0.11090981 0.09193874
000090 37 55 84 3c 82 d6 03 be 0f c2 9f bd fb 14 8c bd
       0.016153915 -0.12874797 -0.078006856 -0.06839939
0000a0 38 bc cb bd 7d 0c 06 bd 74 f1 bd 3d 93 af 84 3d
       -0.09948009 -0.032726754 0.09274569 0.064788006
0000b0 bc d5 d7 bd c1 60 eb bd 7b b1 65 3d 13 7a 3c 3d
       -0.105388135 -0.11493064 0.05607746 0.046014857
0000c0 02 02 0c bd 96 ec ad bd 14 9d c1 3d aa fd 69 bc
       -0.034181602 -0.08492391 0.094537884 -0.01428167
0000d0 13 d9 06 be bc 58 a0 bd 34 38 c0 bd 75 d1 f3 bd
       -0.13168745 -0.07829425 -0.0938572 -0.11905185
0000e0 26 b4 69 3d 0f 88 fb bd 5e da 07 be 9e 1a df 3d
       0.05705657 -0.122818105 -0.13266894 0.10893749
0000f0 8c 40 05 be c1 ed d0 bc 36 45 93 ba b9 6a 17 be
       -0.13012904 -0.025503995 -0.0011235836 -0.14786805
000100 49 7e 04 3e b4 52 83 3d b1 04 19 be bc 56 87 bc
       0.12938799 0.06412259 -0.14943196 -0.01652085
000110 06 34 e6 be 4a 06 e9 3d 97 54 94 3e db 2b aa be
       -0.44961566 0.11378153 0.28970787 -0.33236584
000120 45 59 0a 3d d8 ba 2e 3e 0b 78 f9 3d 02 44 f7 3e
       0.03377654 0.17063463 0.121810995 0.48294073
000130 40 26 97 be b7 9d c6 bd 00 13 71 3f 5f da 8a 3d
       -0.2952137 -0.096980505 0.94169617 0.06779932
000140 07 e4 03 3e 3f 40 ed 3d b2 1d a3 be bb fd 26 3e
       0.12879954 0.115845196 -0.31858593 0.16307728
000150 1b c9 4f 3e 3a b6 17 3f a6 2d 39 3e 13 f4 ec 3d
       0.2029156 0.5926243 0.1808382 0.11569991
000160 aa 1d 3e bd 96 be 24 3d 28 b5 0b 3e e0 d5 e0 3c
       -0.04641501 0.04022082 0.13643324 0.027445734
000170 42 19 22 bd f8 5b 27 3e f9 9b 8f be 02 2a eb 3d
       -0.03957487 0.16343677 -0.28048685 0.11482622
000180 99 70 bb 3e c2 32 d7 3d 14 c8 f4 bc f3 31 1d 3d
       0.36609343 0.10507728 -0.029880561 0.038377713
000190 1f 28 ac 3d 21 98 f4 3e 86 9b 4d 3b f1 03 b6 3d
       0.0840609 0.47772315 0.0031373217 0.088874705
0001a0 b6 5d 89 be c0 e7 bc 3d 4e d7 d9 3e ce 13 8e be
       -0.26829308 0.0922389 0.42547077 -0.27749485
0001b0 dd 7d f5 3e 2e 35 1c 3e e9 ae b0 bd 14 73 1e be
       0.4794759 0.15254661 -0.086271115 -0.15473586
0001c0 46 d1 5b 3e 1f 78 bf bb b8 f6 32 3f 07 fe 0d be
       0.2146655 -0.005843177 0.6990771 -0.13866435
0001d0 c8 ca 5e bd d9 9e 68 3d 64 f6 a2 3e b3 01 16 3e
       -0.054392606 0.056792114 0.31828606 0.14649086
0001e0 bd 0b ab 3d b8 42 54 be 5b aa 59 be 2b 7f 85 3d
       0.08351848 -0.20728576 -0.21256392 0.06518396
0001f0 fd c3 51 3e 69 19 56 be 02 1b 0d bd 28 be f1 bd
       0.2048492 -0.2090813 -0.034449585 -0.118038476
000200 aa 36 da 3d 95 d3 aa bc 5b a7 c0 bb da ba 15 3e
       0.106549576 -0.020852843 -0.0058793253 0.1462206
000210 98 d1 f7 be 74 8c a0 3d 3c 60 85 3e 4e fe bc be
       -0.48402095 0.07839289 0.26049984 -0.3691277
000220 c4 4e 19 3d 98 2c fb 3d ca ac 01 3d 4a a4 a0 3e
       0.037428632 0.12264365 0.031658925 0.31375343
000230 06 c0 93 be 95 83 eb bd 05 4b 5b 3f 7a 4a c9 3d
       -0.2885744 -0.11499707 0.85661346 0.098286584
000240 0c 08 78 3d 62 e7 03 3c fe 91 52 bc 95 de 6b 3e
       0.06055455 0.008050771 -0.01285219 0.23034127
000250 3a f6 d1 3d eb fe c8 3e 38 74 4f 3e 71 22 e2 3b
       0.10252042 0.39256987 0.20259178 0.0069010784
000260 95 91 b6 bd 6d 0b 74 3e 38 7f c1 3c 00 51 9d bb
       -0.08914486 0.23832484 0.023620233 -0.0048009157
000270 69 b3 7f bd 09 7e 10 3d b7 e2 48 3e a8 26 80 3d
       -0.06242696 0.035276446 0.19617735 0.06257373
000280 ea 15 e7 3e 14 98 7c 3d 39 4a f2 3d 68 93 97 3d
       0.45133907 0.06166847 0.11830563 0.074011624
000290 94 f1 57 3d c0 cd f5 3e a3 b6 aa 3d a4 a0 68 3e
       0.05272062 0.48008537 0.083356164 0.2271753
0002a0 d0 76 f5 be fe 7d 47 3e c1 88 ce 3e 01 26 63 be
       -0.4794221 0.19481656 0.4033871 -0.22182466
0002b0 d7 cb 40 3e d9 e2 57 3e aa d7 75 bd 91 ea cb bd
       0.18827759 0.2108263 -0.060020126 -0.09956849
0002c0 bd f7 16 3e e9 84 0e 3d e7 96 22 3f 75 ad 81 bd
       0.14742942 0.03479472 0.6351151 -0.063319124
0002d0 d9 3b da bc 50 2d df 3c e0 7a 5f 3e a3 0d 05 3e
       -0.026639866 0.027243286 0.21824217 0.12993483
0002e0 6d f2 34 3e 86 76 5b be 83 92 de bd 6f 1b 1a 3e
       0.17670603 -0.21431932 -0.10867789 0.15049528
0002f0 f2 e7 64 3e 6b f3 50 be 22 e6 44 bc 79 71 4c 3e
       0.22354105 -0.20405357 -0.012017759 0.19965161
000300 34 81 05 bd 09 68 8e 3d b4 24 fd bd 3a 08 c3 bd
       -0.03259392 0.06953437 -0.12360516 -0.095230535
000310 99 41 92 bd 89 55 05 be 13 4e a8 3d d6 33 7f 3d
       -0.07141418 -0.1302091 0.082180165 0.062305294
000320 8e ba e5 bd 7a 5c 94 bd e5 d7 89 3d 87 04 fc 3c
       -0.11217223 -0.07244201 0.06730632 0.030763878
000330 98 5a 90 3d 4e 1f a3 bd a4 1f 18 3d 02 d4 40 3d
       0.070485294 -0.07964955 0.03713955 0.047077186
000340 30 e4 af 3d 28 71 e7 3d 29 64 c3 bd 16 20 c6 bd
       0.08588445 0.1130088 -0.095405884 -0.09674089
000350 20 5e 65 bd 28 7a f8 bc bb 38 ad 3d 70 f7 88 3d
       -0.055997968 -0.030331686 0.08458086 0.0668782
000360 72 76 e0 3d c7 03 40 3d ce 3c 2a be f0 b9 57 3d
       0.10960092 0.046878602 -0.16624758 0.05266756
000370 be 11 2f bd 76 d2 10 bc 6c d8 b9 bd de 4d c3 bd
       -0.04274153 -0.00883924 -0.09074482 -0.09536336
000380 07 c6 eb bd dc 21 8b 3d e6 24 14 be ac c9 8d 3d
       -0.1151238 0.067935675 -0.144672 0.069232315
000390 fb b3 bc bd 45 01 6a bd 3b a5 0f be 74 47 dd bd
       -0.09214016 -0.057130117 -0.14027874 -0.10804644
0003a0 f1 62 c7 bd d3 35 94 bd 15 e5 bd 3b 64 1d 9d 3c
       -0.097356685 -0.07236829 0.005795131 0.019179054
0003b0 64 89 c8 bd a8 3d 43 ba 8e d3 bb bc db 91 08 be
       -0.0979183 -0.0007447847 -0.022928026 -0.1333689
0003c0 76 7d 85 bd 60 3c 36 3d 0c f7 4b bc e3 7e 8b 3d
       -0.065180704 0.04449117 -0.012449037 0.06811311
0003d0 ef fb 67 bd ab 74 08 be 0d f7 b1 bd bf f4 85 3d
       -0.056636747 -0.13325755 -0.08689699 0.06540822
0003e0 25 13 24 3d 5d 17 0f be e9 83 7a 3d 93 30 81 bd
       0.04005732 -0.13973756 0.061160956 -0.06308093
0003f0 38 51 69 3d e8 12 15 3d ee f9 dd bd 59 a3 86 3d
       0.05696222 0.036394984 -0.10838686 0.06574125

2.bias f4 [32]
000000 d6 f3 ce bc 61 71 c0 3e e1 ea a3 3e dc 7e ad bd
       -0.025262754 0.375865 0.32015136 -0.08471462
000010 5d 7a 98 3e 18 ce 9b 3d 43 ec 20 3f 38 62 fe bd
       0.29780856 0.07607669 0.62860507 -0.124210775
000020 39 e4 fe 3e 17 71 92 3e cf cb 85 3d 9e f8 84 be
       0.49783495 0.28601906 0.06533014 -0.2597093
000030 c1 b7 08 3c 98 39 c4 3e 9f 0c 21 bd 92 42 3b 3d
       0.008344592 0.3832519 -0.039318677 0.045717783
000040 51 3f a4 3e 6b 19 d1 3d 17 84 9e bd ed 5a 52 3e
       0.32079557 0.10209926 -0.07740038 0.20542498
000050 19 b0 36 3e 10 e2 4c bd 8b 2e a1 bb e2 7c 5a 3d
       0.17840613 -0.050020278 -0.0049188784 0.053341754
000060 df 4e 57 3e 23 13 70 3e e8 50 38 3e 45 b7 3a 3e
       0.2102618 0.234448 0.17999613 0.18233974
000070 ae f1 c2 3e ce 5b 16 be 31 fb 21 3e 59 3f 8d 3e
       0.38075012 -0.14683458 0.15818478 0.27587393

4.weight f4 [16, 32]
000000 5b 28 df bd 02 28 37 bb 39 6c 12 3e 26 51 07 3e
       -0.10896369 -0.002794743 0.14299096 0.1321455
000010 8b a3 a8 3e ff 1b 8a 3e 86 92 ca 3e 04 45 76 3d
       0.32937273 0.26974484 0.39564914 0.060124412
000020 c1 94 3c 3d 11 ec 10 be 69 40 1c be bc 4c 68 40
       0.0460403 -0.14152552 -0.15258946 3.6296835
000030 87 5c 4a bd 9d ce 46 3e d3 a9 ea 3d b6 bb d4 bd
       -0.049404647 0.19414754 0.11458173 -0.103873655
000040 47 ec 29 be a9 de 10 3d 63 0a d4 3d e0 8a 39 bd
       -0.16594039 0.035368595 0.103535436 -0.045298457
000050 99 30 74 bd b1 ab 2c be 22 76 6e bd 98 aa e0 bd
       -0.05961666 -0.1686237 -0.05821813 -0.10970038
000060 35 33 40 3e 44 e8 30 be 20 69 ba 3e 82 64 82 3d
       0.18769534 -0.17276102 0.3640833 0.063668266
000070 ef a1 40 3e 3d 25 77 bc 92 d8 a4 3d 83 31 15 3e
       0.18811773 -0.015084562 0.0804912 0.14569668
000080 fc ff b5 bd 2a b2 57 bd 5e 35 32 be f1 86 20 be
       -0.08886716 -0.052660145 -0.1740317 -0.15676476
000090 de 1b 12 be 80 15 7c 3c cf ce 06 3e 7c c3 84 3d
       -0.14268443 0.015385985 0.13164829 0.06482598
0000a0 8c f4 34 be d0 8f ae bd 9b 4d 16 be 30 e1 02 be
       -0.17671412 -0.08523524 -0.14678042 -0.12781215
0000b0 a1 89 33 be ba e4 de 3d b2 5d 9b bd c6 fa c4 3d
       -0.1753297 0.1088347 -0.0758623 0.09618144
0000c0 3e b3 0f be b0 a3 0c bc 0c 5f 43 3d be 0d b2 3d
       -0.14033219 -0.008583948 0.047698066 0.08694027
0000d0 1d 58 a0 bd 78 a6 03 be 38 51 d7 bc 46 7f b6 3d
       -0.07829306 -0.12856472 -0.026283845 0.08910994
0000e0 ee 09 ad bd 1e 0a bd 3d 88 dd 85 bc 26 b0 f1 3d
       -0.084491596 0.09230445 -0.016340986 0.11801176
0000f0 64 ed e5 bd 62 51 2d be 01 af 16 3e 0c cf 0b be
       -0.11226919 -0.16925576 0.14715196 -0.13653201
000100 27 13 6e bc ba 5f 2e be 5b 4d c7 bd 37 0c b5 bd
       -0.014530933 -0.17028704 -0.09731551 -0.088402204
000110 4e 81 23 3f 3c a0 4a 3f 6e 66 47 3e 1a 83 e9 3d
       0.6386918 0.7915075 0.19472668 0.11401959
000120 56 b6 ad 3e 57 bb 06 bd ca 67 b6 3d 24 48 25 40
       0.33928174 -0.032893505 0.08906515 2.582528
000130 ee cd 43 3d f2 7a 20 3f 67 2a b8 3d c4 44 b5 3e
       0.04780381 0.626876 0.089924626 0.35404027
000140 cd b3 96 be 34 4f e0 3e df 91 e1 bc 07 2b de bd
       -0.29434052 0.43810427 -0.027535377 -0.108480506
000150 3d f4 f0 3d eb 52 89 3e e5 f4 c6 3e 5d c8 a5 3e
       0.11765335 0.26821074 0.38858715 0.32379428
000160 5e e1 1f 3f 79 d1 40 3e a9 c5 22 3f a2 7b 0d 3e
       0.6245326 0.18829907 0.63582855 0.13816693
000170 0a 81 aa 3d 88 b2 d9 bd e5 cc 9e be 0b ed 59 be
       0.083253935 -0.10629755 -0.31015697 -0.21281831
000180 d2 a4 b3 bc 7a da 23 be 3a da af 3d 49 46 1a be
       -0.021929178 -0.16001311 0.08586545 -0.15065874
000190 85 e5 17 3f 2b 87 9a be 37 3c 9a bd e9 81 cd bb
       0.59334594 -0.3018125 -0.07531016 -0.00627159
0001a0 50 b3 41 bf 3a 45 48 3e 8c 20 87 bd c2 f0 03 bf
       -0.75664234 0.19557658 -0.06598005 -0.5153924
0001b0 80 98 0a 3e 66 06 6d 3e ce ac 07 be 09 12 1f c0
       0.13534737 0.23146972 -0.13249514 -2.4854758
0001c0 aa f8 73 bd 3a ce bc 3d ca cc 1d 3e e9 64 b7 bd
       -0.059563316 0.09219022 0.15410152 -0.08954794
0001d0 e1 55 90 be 42 b2 e4 bd 6d 2e be 3e 0f 58 c2 3d
       -0.2819052 -0.111668125 0.37144795 0.09489452
0001e0 74 54 05 3f 3d 03 1c 3e 27 6a 11 3e 9b 8a 2b 3e
       0.5208199 0.1523561 0.1420065 0.16752093
0001f0 ff 9c 52 3e a7 74 dc bb 3e 7e b1 be 32 fb 9a 3e
       0.20567702 -0.006727773 -0.34666628 0.30269772
000200 f1 b2 ce 3d d9 c6 d5 3e 44 64 d8 3d ad 39 84 bd
       0.10092724 0.4175327 0.10565999 -0.06456313
000210 7d 16 3b bf c3 83 33 c0 50 19 1f bd 6d a9 80 3d
       -0.7308119 -2.804917 -0.0388425 0.062823154
000220 ad af 24 be 9d d1 02 3e 6a 32 1b be 30 40 a0 be
       -0.1608264 0.12775274 -0.1515595 -0.3129897
000230 a1 2a 54 3d ac 6f 20 be 87 91 d4 3c 70 b0 90 be
       0.051798467 -0.156676 0.0259483 -0.2825961
000240 64 94 f4 3d 01 cb 2c be 8b 10 3e 3d 04 47 d7 3d
       0.11942366 -0.16874315 0.046402495 0.10511592
000250 d6 4e 3f bd 7a 3e 23 3e 5e 4f 95 be 4c 84 ba be
       -0.046706043 0.15941802 -0.29162115 -0.3642906
000260 33 99 c8 be 73 0d 7b 3e 56 ca d1 be 34 83 a5 3d
       -0.39179382 0.24516849 -0.40974683 0.08081666
000270 fe ac 0f 3e 76 70 16 3e 71 c3 6b 3e 0c 86 a4 3e
       0.14030835 0.14691338 0.23023774 0.3213352
000280 e7 d1 b9 bd 5e 49 23 be 38 1a 6c bd 87 4e 29 3e
       -0.09073239 -0.15945956 -0.05764219 0.16533862
000290 89 23 d8 3d 6b e7 ff 3c fc 15 95 3c 62 31 ea bd
       0.10553653 0.031238278 0.01819896 -0.114352
0002a0 ea 32 83 3d 61 44 db bc 70 36 59 bc a0 84 87 3b
       0.064061955 -0.026766004 -0.013257608 0.004135683
0002b0 aa b0 d3 bd 0d da 17 bc fc 1e 56 bd 42 7c 5a bd
       -0.1033643 -0.009268296 -0.052275643 -0.053341158
0002c0 d8 e0 49 3d 40 fc 9a bd 29 82 08 be 62 c0 db 3d
       0.049286693 -0.07567644 -0.13330902 0.107300535
0002d0 5c c5 fc bd 0b 23 9e 3d 15 d5 2c be 6f 9e 11 3d
       -0.12342331 0.07721528 -0.1687816 0.035551485
0002e0 54 36 fe bd c0 ac b6 3d f0 72 1b 3e 56 76 8a bd
       -0.12412706 0.08919668 0.15180564 -0.06760852
0002f0 d2 1e 8e 3c 72 ae dd 3d c9 1b 15 3e b0 be 0a be
       0.01734868 0.108242884 0.1456138 -0.13549304
000300 45 1f 06 be 31 ad 21 be 80 57 af bb 9e 98 2c be
       -0.13097866 -0.15788724 -0.005351007 -0.16855094
000310 ec 96 54 3d 3f a9 00 3e 5c 2d 2e 3d f5 0f 0c 3e
       0.051901743 0.12564562 0.042523727 0.13677962
000320 a0 a5 55 3c 42 db f4 3d 46 f7 ff bd e8 f0 f1 bd
       0.013039976 0.119558826 -0.124983355 -0.11813527
000330 19 4d 0d 3e b8 4d 03 3d d2 97 b0 bd 08 8b 45 3d
       0.13798942 0.03205654 -0.086227074 0.048228294
000340 1c 47 25 be d0 7f 62 bd d0 32 2c 3c 7e 37 a1 3d
       -0.16140407 -0.055297673 0.0105101615 0.078719124
000350 a4 3b fc bd 80 79 d8 bc 58 a5 d0 bd 0c 7b 48 bd
       -0.12316063 -0.026425123 -0.10187787 -0.04894547
000360 08 18 5c 3d 03 dd 2a be 80 61 27 bc a8 f3 7d 3d
       0.053733855 -0.16685872 -0.010216117 0.061999947
000370 3b ee 15 3e 86 4f 24 be 12 fc da 3d d0 e0 fb 3c
       0.14641659 -0.16045961 0.1069261 0.030746847
000380 2a 3f 4c be eb d3 65 3e 53 36 50 3e f6 24 7c bd
       -0.1994597 0.22444122 0.20333223 -0.061558686
000390 59 93 af be 3b 88 c3 bd fb e8 23 3e 27 e2 59 3d
       -0.34292105 -0.09547468 0.16006844 0.05319419
0003a0 eb a3 ed 3d 6c f9 3e 3e da c1 ff bd 49 8d b7 bf
       0.116035305 0.18649834 -0.12488146 -1.4339992
0003b0 c9 07 4f 3d d9 91 a2 be 49 79 5b bd 03 6c 93 3e
       0.050544534 -0.31751898 -0.053582463 0.28793344
0003c0 0c b1 ad 3e 53 c7 dd bd cc 0e 18 3e 9d 71 63 3d
       0.3392414 -0.10829034 0.14849395 0.055528272
0003d0 69 ca 74 3e 1c a8 a4 3d ab 15 15 be b6 1a 47 bd
       0.23905338 0.08039877 -0.14559047 -0.048609458
0003e0 65 30 9d be c3 64 b9 3e 2c 35 6c be b6 99 8a 3e
       -0.30700985 0.36209688 -0.23067158 0.27070397
0003f0 a7 0c c5 3d f5 eb e1 bd af e1 75 3e 17 43 9e bc
       0.09621554 -0.11031333 0.24011873 -0.0193191

4.bias f4 [16]
000000 04 a3 fb 3e 88 81 dd bc bd b0 68 3d a2 6e 5e 3e
       0.4914781 -0.027039304 0.056809176 0.2172189
000010 99 72 9e 3e e5 52 1c bd 80 ed b9 bd 4d 02 2f 3e
       0.30946806 -0.038164992 -0.09078503 0.17090721
000020 ec 00 fb 3e 7c 54 a3 3d af e5 b5 3e 8a 59 a5 3e
       0.4902414 0.079750985 0.35526797 0.32294875
000030 47 4f 02 3f 6a 4a 0a bd 5a d1 41 3e 04 0c 59 be
       0.5090222 -0.033762373 0.18927518 -0.2119599

6.weight f4 [8, 16]
000000 62 f2 58 bf 8e 27 22 3e 71 ad 2e bf 4e 77 d1 3e
       -0.84744847 0.15835401 -0.682334 0.40911335
000010 16 77 9f 3d bc cd 94 3d 80 09 69 3d 82 05 7d 3e
       0.07786386 0.07265803 0.056893826 0.24709132
000020 8c 43 bf 3e 4a b7 fd be 07 10 52 3e b1 d5 d8 3e
       0.37356222 -0.495539 0.20513926 0.42350534
000030 58 92 d6 3e 10 ca cd 3e 42 b7 dc 3d 94 11 19 3e
       0.41908526 0.40193224 0.10777141 0.14948112
000040 d9 0c 5a 3f 0e ff 2c be 95 b1 d6 3e 0a d8 cf bf
       0.85175854 -0.1689417 0.4193236 -1.6237805
000050 88 0c 49 3f ac 82 5e be c8 54 4a 3d 1c 57 0a 3f
       0.78534746 -0.21729535 0.04939726 0.5403917
000060 64 1f 63 be f4 3f a9 3e 05 4d 70 3e f0 e5 c7 be
       -0.22179943 0.33056605 0.2346688 -0.39042616
000070 fd 4d 2d be b3 d4 a0 3e b8 f7 d0 bc 4b 75 40 3e
       -0.16924281 0.31412277 -0.025508747 0.18794744
000080 c6 11 66 be 00 cc ff 3b f5 8a 9e be 8e 48 bb be
       -0.22467718 0.007806301 -0.3096539 -0.36578792
000090 ec 24 15 3f a1 eb 3e 3c d8 76 01 3d c8 96 a2 3e
       0.58259463 0.011652858 0.03160748 0.31755662
0000a0 37 76 3b 3e ae 68 1b be f9 fb c9 3e 96 45 3d 3d
       0.18306814 -0.15176651 0.39450052 0.04620894
0000b0 70 ef a6 3e 33 c8 8e 3e ef af c8 3e 27 7f 04 3d
       0.3260455 0.27887115 0.39196727 0.032347824
0000c0 9b dd d4 be 74 2b 03 3e 1f 86 37 be 38 68 09 be
       -0.41575322 0.12809545 -0.17922257 -0.13418663
0000d0 2b 13 c6 3e c8 72 23 bd 28 5e 39 3e 4f ce 06 3f
       0.386865 -0.039904386 0.18102324 0.5265855
0000e0 1e f6 c9 3d e5 6b c2 be c6 ce cb 3e 35 09 59 be
       0.09861396 -0.37972942 0.39806193 -0.21194918
0000f0 61 99 3b be 78 f9 1f 3f d7 c0 a5 3e cf 95 6b be
       -0.18320228 0.62490034 0.32373688 -0.23006366
000100 38 a7 8e bf 80 e7 e2 3d c5 28 24 bf b9 66 d7 be
       -1.1144781 0.11079311 -0.6412471 -0.4207056
000110 43 dd 1f 3e 2c bb 3d be c8 82 62 be 0d 9e b5 3e
       0.15611748 -0.18528432 -0.22120202 0.35472146
000120 89 37 0d 3f 43 2e b4 be c5 06 ab 3e 83 0a 64 3e
       0.55162865 -0.35191545 0.33403602 0.22269635
000130 98 05 8b 3e 4a d6 1f 3e d2 b6 5d 3d de 55 b2 3d
       0.27152705 0.15609089 0.05412943 0.08707784
000140 73 28 ae 3e 18 62 25 3d 6c 36 9d 3b 21 c3 2e be
       0.34015235 0.040376753 0.0047977474 -0.17066623
000150 aa 69 72 3f 6c 7f 7e be 54 3c e0 3d e2 43 f2 bb
       0.9469248 -0.24853295 0.10949007 -0.007393346
000160 95 81 cf be b4 27 a8 bd 99 dc 1e 3e a0 1b 88 3e
       -0.4052855 -0.08210698 0.15513839 0.26583576
000170 7d a0 7b bd 4d 89 1d 3f 62 a0 d5 3e 2c 7b 17 3d
       -0.06143235 0.6153763 0.41723925 0.0369827
000180 ee 2c a4 bd 90 b5 df 3c cf cb 06 bf a0 a6 f0 bd
       -0.08016382 0.027308255 -0.5265474 -0.11750531
000190 ad be ba 3e 04 cb 14 3e ac a6 ae 3d a2 ac e7 3e
       0.364736 0.1453057 0.08527884 0.45248896
0001a0 9d 90 72 3e d3 cb 0c be b0 d1 14 3f a0 48 44 3c
       0.23687978 -0.13749628 0.5813246 0.011980206
0001b0 a8 f0 41 3e 05 8a 30 bb c9 01 cb 3e 27 77 6e be
       0.1893946 -0.0026937735 0.396498 -0.2328764
0001c0 33 17 4b bf d8 42 54 be c4 7e 3c be b5 9a 2b bf
       -0.79332274 -0.20728624 -0.18407732 -0.6703294
0001d0 3b 54 2d 3e 2e 74 05 3e 7c f4 6b 3e 35 2a be 3e
       0.16926663 0.130326 0.23042482 0.37141576
0001e0 6b 6d d8 be 18 0b 97 be 65 d5 89 3d dd 24 b3 3e
       -0.4227098 -0.2950065 0.06730155 0.34989062
0001f0 50 85 0f 3e 67 6b bd 3e 34 77 91 3e 7a 7c 2f be
       0.14015698 0.36996004 0.28411257 -0.17137328

6.bias f4 [8]
000000 93 3f b8 3e 37 b4 08 bf 40 9b 02 3f 52 3c 56 bf
       0.35986003 -0.53399986 0.5101814 -0.8368579
000010 7a a4 c9 3e 19 8c 65 bf d5 7c b9 3e 8a f5 29 bf
       0.39383298 -0.896669 0.36228052 -0.6639029
