logs/best_model_4_2.pt (torch, 46229 bytes, 8 tensors)

0.weight f4 [64, 126]
000000 e3 83 b5 3d 39 13 ba 3d 10 e1 1a bd c7 9f 17 3d
       0.08863046 0.09085698 -0.037812293 0.03701761
000010 49 43 94 bd 36 f7 5e bd 3c d4 ec bd 70 30 22 3d
       -0.07239396 -0.054434977 -0.11563918 0.039596975
000020 8f 97 14 3d 5c 0f 07 be 92 9c 4d bc d3 1f a7 bd
       0.03627735 -0.13189453 -0.012549536 -0.08160367
000030 5f 45 1f bd 01 ba cc bd 71 7c e5 3d df 6d 46 3d
       -0.038884517 -0.09996415 0.11205376 0.048444625
000040 f6 ae f7 3d 6c 62 84 3d 01 16 02 3c 97 5a 8a 3d
       0.12093918 0.06464085 0.007939816 0.0675556
000050 30 ed 73 ba 63 df a1 bd 4d d7 f1 bd f6 6d 20 bd
       -0.0009305058 -0.07903936 -0.118086435 -0.039167367
000060 2d 76 29 be d0 39 22 be 4a af 12 be 09 11 33 be
       -0.16548987 -0.15842366 -0.1432468 -0.17486967
000070 3d 08 82 3c c4 9a 05 be d0 7d ee 3b b8 b6 2b be
       0.015873069 -0.1304732 0.0072781816 -0.1676892
000080 d6 09 1a bd 53 5c c5 bd 3e e3 12 be 30 ef 91 3d
       -0.037607037 -0.0963675 -0.14344499 0.071256995
000090 35 cb 73 bc 6d e3 3b 3d 19 e2 41 bd 33 e2 d0 bd
       -0.014879991 0.045871187 -0.047334764 -0.10199394
0000a0 78 fc 45 bd 92 e7 d2 bd d9 ca 82 3d b0 e8 d3 3d
       -0.048336476 -0.10298075 0.06386346 0.10347116
0000b0 4f 3c ae 3c 84 f8 ac bd 61 22 13 bc 89 f9 47 bd
       0.021268992 -0.08445838 -0.008980365 -0.04882196
0000c0 b0 5b 1c bd ba c8 8d bc ef 40 be bd eb 32 88 bd
       -0.038173378 -0.017307628 -0.09289729 -0.06650337
0000d0 5c d5 eb bd 19 55 77 bb 28 b0 63 bd 53 72 7f bd
       -0.115153044 -0.003773993 -0.055587918 -0.062364887
0000e0 f0 b7 74 3d 11 8e d0 bc d1 eb 56 3b 5d 30 26 be
       0.05974573 -0.025458368 0.0032794366 -0.16229387
0000f0 c1 d0 d1 bd aa ba 30 be 03 d2 b5 bd ac fe ad 3d
       -0.10244895 -0.17258707 -0.08877947 0.084958404
000100 1e 29 12 3e 91 dd c5 3d ed 8b 41 3e f5 3e 7e 3d
       0.14273497 0.09661401 0.18901034 0.06207176
000110 63 8f 7c 3d c4 27 7b 3d df 69 4c 3e 8a 4a 17 3e
       0.06166018 0.06131722 0.19962262 0.14774528
000120 a1 35 4f 3e 2b 27 29 3d 5e bd c5 3c 2b 92 22 3d
       0.20235302 0.04129712 0.024138149 0.039690178
000130 85 39 3c 3d 18 12 16 3e 1e 79 12 3e fb 1e 3e 3e
       0.045953292 0.1465534 0.14304015 0.18566506
000140 d6 4d 87 3d 30 e5 53 3d bf c6 23 3e 81 bd 9c 3d
       0.06606643 0.051732242 0.15993784 0.076533325
000150 f1 9f 1d 3e d6 85 a1 3d 49 d4 1a 3e 91 9d fc 3c
       0.15393044 0.07886855 0.15120043 0.030836852
000160 f7 d7 61 3d 4c 59 02 3e 6f d8 f3 3d f0 ef db 3d
       0.0551376 0.12729377 0.11906516 0.10739124
000170 63 e1 39 3e 82 6d 3f 3e e0 6a 74 3d 21 f1 97 3d
       0.18152384 0.18694118 0.059672236 0.074190386
000180 2f 7f 4c 3e a3 6f ad 3d b5 86 ae 3d e9 e0 fa 3c
       0.19970392 0.08468559 0.08521787 0.030624824
000190 cc 39 87 3d 49 c6 0e 3e f1 bc d7 3d f1 89 56 3d
       0.06602821 0.13942827 0.105340846 0.052377645
0001a0 34 37 f4 3d d5 fb ec 3c 61 3c 71 3c 91 ff 2c 3d
       0.11924592 0.028928677 0.014723868 0.042235915
0001b0 77 ca 38 3c 04 d7 00 3d 0a 3f 33 3e b7 a5 d0 3d
       0.01127874 0.031455055 0.17504516 0.101878576
0001c0 94 e7 12 3e dd bb 07 3d 47 dc 6d 3d 6e 04 b2 3d
       0.14346153 0.033138145 0.0580714 0.08692251
0001d0 66 af 05 3e 48 d4 1b 3d 8a d2 9e 3d ab cc 9d 3d
       0.1305519 0.038044244 0.07755001 0.07705053
0001e0 22 b4 02 3e 51 6a bc 3d 95 be ef 3d f0 f5 76 3d
       0.12764028 0.09199966 0.117062725 0.060293138
0001f0 0c a5 65 3d 73 39 7f 3d b9 cc 0b 3d d9 df a9 bb
       0.056065604 0.062310647 0.034130786 -0.0051841554
000200 a0 f8 13 3e 2f 8c 6b 3d 6f 55 1e 3e 7f 4a cb 3d
       0.14450312 0.057506736 0.15462278 0.099263184
000210 c1 3a d8 b9 93 b0 d3 3d fc 36 90 3c df 88 45 3c
       -0.00041242506 0.10336413 0.017604344 0.012056558
000220 c5 b6 07 bd 37 8f 23 bd dd ba 99 3d a8 17 e2 3c
       -0.033133287 -0.039931502 0.075063445 0.02759917
000230 bb 25 1d 3e bf 74 42 3d 74 a6 3d 3e 90 98 60 3d
       0.15346424 0.04747462 0.18520528 0.054832995
000240 0f 0a d7 3d 92 fa 0c 3e 3d 95 29 3e a2 92 91 3d
       0.104999654 0.1376746 0.16560836 0.07108046
000250 4b 38 b4 3d 6f c5 7f bd 78 70 09 3d 25 de c5 bc
       0.087997995 -0.062444147 0.033554524 -0.024153778
000260 a1 fd 07 bb 95 e2 6b bd 57 5f f6 3d 16 ef 12 bd
       -0.002075054 -0.057589132 0.120299034 -0.03587254
000270 25 53 8f 3d 42 9a 50 3d 56 e5 27 3d e3 f6 18 bd
       0.069982804 0.05092836 0.040990196 -0.037344825
000280 6b 16 ba 3d bb 95 9a 3d 6a bf 69 3d f0 bf e4 bc
       0.09086307 0.0754809 0.057067312 -0.027923554
000290 b1 6b a4 3d 89 17 ca 3c 84 60 43 3b 37 e0 e4 3d
       0.08028353 0.024669426 0.0029812166 0.11175578
0002a0 54 78 a2 3d 63 7c 36 bb 88 c3 32 bc f1 32 e2 3c
       0.07933107 -0.0027845136 -0.010910876 0.027612181
0002b0 02 be 9f 3d e9 fe 8f 3b 80 1d 03 bd 46 0c a9 3c
       0.07799913 0.0043944013 -0.032010555 0.020635735
0002c0 fa f0 c6 bc 65 8d 80 3d 89 5c c1 3d 77 53 88 bd
       -0.024284828 0.06276969 0.09441478 -0.06656545
0002d0 e5 37 34 3d 3e e0 6c 3d 63 4c 6d 3d ba ed 2e bb
       0.043998618 0.05783104 0.057934176 -0.002669199
0002e0 34 24 8e 3d 0e b8 72 3d 07 bd 37 3d d9 17 86 bb
       0.06940499 0.05925756 0.044858005 -0.0040921983
0002f0 cf 1f 6c bc 08 56 e1 3d d5 34 ae 3d 6a 2f 9a 3d
       -0.014411881 0.11002737 0.08506171 0.07528575
000300 7b 4c 24 3e 0d a1 39 3e df 10 c6 3d e2 b9 b1 3d
       0.160448 0.18127842 0.09671187 0.086780325
000310 7c 20 d1 3d 7a a6 c4 3d fe 47 fc 3d c4 48 02 3e
       0.10211274 0.096020654 0.12318419 0.1272307
000320 35 14 b3 3c 76 e5 90 3d da 06 38 3e 97 19 03 3e
       0.021860221 0.07075016 0.17971364 0.1280273
000330 2b db b3 3d 19 67 24 3d 42 2c 27 3d e0 e7 85 3c
       0.08782037 0.040137384 0.040813692 0.016345918
000340 5c 6e 91 3d 93 a1 0b 3e 67 4a f7 3d 34 57 d9 3d
       0.071011275 0.13635854 0.12074738 0.10612336
000350 e1 88 5a bc 57 90 4c 3c 9f 35 57 3d 98 40 1f 3e
       -0.013338299 0.012485585 0.05254137 0.15551984
000360 c0 d1 ad 3d 72 82 ba 3d 73 28 1e 3e d8 86 b1 3d
       0.08487272 0.09106912 0.15445118 0.086682975
000370 9d 05 85 3d 58 d3 40 3e f3 30 a9 3d 8d 4a d6 3d
       0.06495211 0.18830621 0.082612894 0.10463438
000380 1a 4d 08 bc d6 aa 10 3e c7 1b 1b 3e 20 95 f4 3d
       -0.008319164 0.14127669 0.15147315 0.11942506
000390 ea 3c fb 3c e0 73 02 3c 4b d6 e6 3c ee 06 1c 3e
       0.030668695 0.007962197 0.028178355 0.15237018
0003a0 51 23 04 3e cc 5c 25 3e e1 f5 09 3e 24 43 e4 3d
       0.12904097 0.1614868 0.13472702 0.111456186
0003b0 9d 37 b6 3d a6 e5 b9 3c 94 0c a6 3c 1a 79 57 3c
       0.08897326 0.022692513 0.02026967 0.013151431
0003c0 b8 a9 09 3e 1c 6a 60 3d 87 9f a7 3d 3b 84 5b 3d
       0.13443649 0.054788694 0.08184724 0.0535929
0003d0 9a 44 b8 3d 9e 4a 5c 3d d5 d1 7b 3d 8e 49 1a 3e
       0.0899746 0.053782098 0.06147941 0.15067121
0003e0 0e 06 c3 3d c8 11 35 3e 75 73 be 3d 37 08 64 3d
       0.09522639 0.17682564 0.092993654 0.055671897
0003f0 e2 d9 4c 3d 1a fc c5 3c c4 86 2b 3d 03 5c b7 bb
       0.050012477 0.024168063 0.04187657 -0.0055956854

0.bias f4 [64]
000000 ce 16 39 3e 8a bd 18 3e 23 55 43 3d 9e b4 3b 3e
       0.18075106 0.14916053 0.047688615 0.18330619
000010 cf 08 5a 3e 88 27 9c 3d 73 80 38 3d e0 e3 e7 3c
       0.21292423 0.076247275 0.045044374 0.028306901
000020 e0 a6 93 3d b4 15 b5 3d 16 cf 9f 3d df 08 60 3c
       0.07209563 0.0884203 0.078031704 0.01367399
000030 a8 17 0e 3e 07 35 59 3e 05 70 30 3e 08 02 3c 3e
       0.13876212 0.21211635 0.17230232 0.1836015
000040 e4 9f 0e 3e c6 d4 c3 3d c3 c9 a1 bd 4e 21 b6 bd
       0.13928181 0.09562068 -0.07899811 -0.08893071
000050 b8 18 21 3e 20 6f 02 3e 35 3b 0b 3e 75 b8 72 3d
       0.15732086 0.12737703 0.13596804 0.059257943
000060 2a a9 b8 3d d3 93 b5 3d 3e 68 eb 3d 29 b6 d0 3d
       0.090166405 0.08866086 0.11494492 0.10190994
000070 e5 a5 da 3d ea 15 9b 3d 1c cb f5 3d a9 1e 95 3d
       0.10676173 0.07572539 0.12001631 0.072812386
000080 7f 68 24 3e 45 45 63 3d b0 a4 0b 3e ac ce 41 3d
       0.16055487 0.055485982 0.13637042 0.04731624
000090 cf 01 76 bd 33 a1 58 3e f4 03 d4 3d 5b b0 d6 3d
       -0.06006032 0.21155243 0.103523165 0.10482856
0000a0 cd 5c 2c 3e e4 9f bb 3c ff 4b ce 3d a2 3b f3 3d
       0.16832276 0.02290339 0.10073089 0.118766084
0000b0 e4 2e 07 3e 20 4c ba 3d c6 83 13 3d 34 3e ab bd
       0.13201481 0.09096551 0.03601434 -0.08361474
0000c0 d5 18 f9 3d 45 ee 47 3e ae f3 b8 3d a6 d8 0f 3e
       0.121629395 0.19524486 0.09030853 0.14047489
0000d0 2d 5d 25 3e f8 70 fc bd 3d d1 4e 3e a4 4d 4a 3e
       0.16148825 -0.123262346 0.20197006 0.1975618
0000e0 94 9a c3 3d c7 fa 4e 3e f5 db 3a 3e 3d d4 43 3e
       0.09550968 0.20212851 0.1824797 0.19123931
0000f0 f5 fc 43 3e da 7b 00 3e 93 20 26 3e 35 47 ad bd
       0.19139464 0.12547246 0.16223364 -0.08460847

2.weight f4 [32, 64]
000000 ad b3 17 3e 24 68 74 3e e9 a2 b5 3d 4a 51 1c 3e
       0.14814635 0.23867851 0.08868963 0.15265384
000010 e2 36 7c 3d 8b 45 2f 3e ad 92 26 3e 89 ef 60 3e
       0.061575778 0.17116372 0.1626689 0.21966375
000020 44 b7 f4 3d 8e 86 3f 3e 61 c7 46 3e a0 a8 dc 3d
       0.11949018 0.18703672 0.19411995 0.1077435
000030 05 59 e6 b9 09 b9 56 3e e5 bb 2d 3d 70 90 32 3e
       -0.00043935343 0.20969023 0.04241552 0.17437911
000040 a9 a1 9c 3c 49 be 26 3e 38 4f 97 bc 47 b7 1e be
       0.019120054 0.16283526 -0.018470392 -0.15499602
000050 b2 d5 31 3e d3 d9 a8 3d 3d d4 83 3d 90 db 0f 3d
       0.17366675 0.08244672 0.064369656 0.0351215
000060 3d d7 56 3e 89 b7 46 3e d1 7a 24 3e 30 a7 2f 3e
       0.20980544 0.1940595 0.16062476 0.1715362
000070 a3 81 39 3e ea f4 2d 3e 16 09 6e 3e 0f 50 49 3e
       0.18115859 0.16987959 0.23245654 0.19659446
000080 34 d8 81 3d 42 4a dc 3d 94 6a 31 3e 21 9f 67 3e
       0.063400656 0.10756351 0.17325813 0.22619297
000090 d1 94 e0 bd 76 68 5b 3d 2f 53 76 3d d4 59 70 3e
       -0.109658845 0.05356642 0.060137924 0.23471767
0000a0 c2 1a 78 3e cf 76 f2 3b 58 31 a5 3d 12 67 fb 3d
       0.24228957 0.007399417 0.08066052 0.122755185
0000b0 bc a4 f8 3d 29 9a ba 3d 7f 59 b8 3b 8e 66 44 bd
       0.121407956 0.09111435 0.005625903 -0.047949366
0000c0 38 a0 db 3d 9d cb ea 3d f3 6e 0a 3e 36 b5 87 b9
       0.10723919 0.114646174 0.13518886 -0.0002588422
0000d0 34 13 69 3e 22 bd d6 bd e1 78 b4 3d 2a 6b 6f 3e
       0.22761232 -0.10485293 0.08812118 0.23380724
0000e0 ad 7a 01 3e 93 1d da 3c 70 bb 44 3e 97 e2 93 3d
       0.12644453 0.02662543 0.19212127 0.07220953
0000f0 cf 26 7a 3e d0 ef b0 3d 04 88 ce 3c 85 5d 30 be
       0.24428867 0.086394906 0.025211342 -0.17223175
000100 94 7d b3 3c a7 6f 6a bc 3e 8e 67 3d fd 3d 4f 3c
       0.021910466 -0.014308847 0.056532137 0.0126490565
000110 de 91 68 bd cc ee e5 3b 2d 16 04 be a0 94 8c 3c
       -0.056779735 0.007016992 -0.12899084 0.017160714
000120 78 03 81 3b fe 25 f8 bd 8e 77 c3 bd 9c 94 80 bd
       0.003937181 -0.121166214 -0.095442876 -0.06278345
000130 06 c7 9e bc ba c7 3e bc 3f 4a 89 3d 36 0c c5 bd
       -0.019382011 -0.011644298 0.067036144 -0.0962147
000140 9f 0f 6a 3d f7 4e ac bd 3c cd e0 3d 70 3b bb bd
       0.057143804 -0.08413499 0.10976645 -0.09142196
000150 8d 9b bd bd 8e 09 dd 3d 81 e5 df 3d c1 ac 14 bd
       -0.092581846 0.10792838 0.10932446 -0.036297563
000160 c1 6c e8 3d 2a a0 7b 3c c3 b6 36 3d f6 3a bf bc
       0.11348868 0.01535801 0.04460789 -0.023343544
000170 4f 2c 5c bd b4 7b 68 bd 34 d6 cd bd 6a ee be 3d
       -0.053753193 -0.056758597 -0.10050622 0.093228176
000180 94 70 bd 3d f3 25 b4 3d e2 53 13 be 67 36 ab 3d
       0.09249988 0.08796301 -0.14387468 0.08359986
000190 59 52 a5 3d 32 cf 34 3d f6 fe 4c bd 41 dd 5e 3d
       0.08072347 0.04414291 -0.050047837 0.054410223
0001a0 e0 5b b5 3d 69 c1 e9 3d e9 ad 02 be ad 10 5c 3b
       0.088554144 0.11413843 -0.12761654 0.0033579275
0001b0 99 c9 cb 3c d4 a7 10 be 20 33 fe 3d 58 cd 9f 3d
       0.024876403 -0.14126521 0.12412095 0.07802838
0001c0 7d 66 f0 bd 51 41 dd bd 52 6e 9f bc b6 b7 d4 3d
       -0.11738298 -0.10803474 -0.019461785 0.103866026
0001d0 9e 1a 07 3d b5 db 62 bb 48 45 17 bc 00 78 e2 bd
       0.03298437 -0.003461582 -0.0092328265 -0.110580444
0001e0 8d 99 47 3d c0 f6 bc 3d 7b 62 9f bd 22 b2 5e bb
       0.04873042 0.09226751 -0.077824555 -0.0033980687
0001f0 7b 6b 05 3e 43 a4 18 bd 16 4c 98 bd 2f 9c 92 3d
       0.13029282 -0.037266027 -0.07436387 0.07158696
000200 1d ca 3e 3e af f6 62 3e 86 1f 1a 3d 55 7e 1d 3e
       0.18631788 0.22164415 0.03762772 0.15380223
000210 66 fb 1e 3e bb 59 67 3e 87 ca 2c 3e ab f3 fb 3d
       0.15525588 0.22592823 0.16874133 0.12302335
000220 a9 08 90 3d 4d b7 e4 3d 13 24 16 3d ab 6e 17 3e
       0.07032902 0.11167774 0.036655497 0.1478831
000230 46 c1 6c 3e 6a ce 6b 3d e4 91 1a 3d 33 59 60 3e
       0.23120603 0.0575699 0.03773679 0.21909027
000240 a3 6d 0e 3e 38 b5 9d 3d 51 e6 a3 3d 8c 5d 6a be
       0.1390901 0.0770058 0.08002914 -0.22887248
000250 0e 42 80 3d 3b e6 ac 3d 2e e1 00 3e aa e6 2a 3e
       0.06262599 0.084423505 0.12585899 0.16689554
000260 7b 74 47 3e d8 aa 4f 3d a2 f9 f3 3d 76 59 f3 3c
       0.19478028 0.05070004 0.11912848 0.029705744
000270 ba a2 9e 3c 85 8a 07 3e 41 94 67 3e 7a d2 70 3e
       0.019364703 0.13236435 0.22615148 0.2351779
000280 a2 62 f2 3c 70 2f 4a 3e 23 12 b2 3d eb 53 e1 3d
       0.029588047 0.19744658 0.086948656 0.11002334
000290 d6 b7 80 3c e6 1e 6d 3e 27 0c 70 3e 7d b3 0e bc
       0.01571266 0.23156318 0.23442136 -0.0087097855
0002a0 be 96 1a 3e 35 2d 4c 3e 46 9f 20 3e 6a 6d 00 3e
       0.15096566 0.1993912 0.15685758 0.12541738
0002b0 d3 d9 59 3d a1 d4 f6 3c 12 b9 45 3a e6 47 80 3c
       0.05318625 0.030130686 0.0007542531 0.015659284
0002c0 60 05 97 3d af e7 1d 3e 95 7f 8e 3d 01 5b 6d 3e
       0.07374072 0.15420412 0.06957928 0.23179246
0002d0 e2 71 03 3d 52 d0 82 bc 94 c3 97 3d 0b c2 10 3e
       0.03209103 -0.015968475 0.074103504 0.14136522
0002e0 c8 bc 3e 3d c7 20 33 3e 7a 5d 63 3e 35 95 74 3e
       0.046566755 0.17492972 0.22203627 0.23885043
0002f0 ae 6f 12 3d 4b ad 32 3e f9 a0 53 3e 52 0b 51 be
       0.035751037 0.17448919 0.20666875 -0.20414475
000300 9b a6 0d 3e 23 f9 c5 3d ca 86 12 3e 06 4c 3f 3e
       0.13833086 0.0966666 0.1430923 0.18681344
000310 80 d2 ae 3d 7b d1 df 3c 81 04 8a 3c 01 df b2 3d
       0.085362434 0.027321568 0.01684785 0.08733941
000320 77 05 07 3d eb 9d 3b bc cb a6 98 3d b0 61 2a 3e
       0.032964196 -0.011451225 0.07453688 0.16638827
000330 61 d5 b4 3d 60 d4 22 3e 2c b2 2d 3d 2c 32 31 3e
       0.08829761 0.15901327 0.042406246 0.17304295
000340 e6 8a ce 3d a8 21 ec 3c ca 17 81 3d 86 2f 6a bd
       0.100850865 0.028824642 0.063033655 -0.057174228
000350 13 71 af 3c e6 e7 a7 3d 45 96 22 3e e3 de ff ba
       0.021416223 0.08198528 0.15877636 -0.0019521381
000360 bf 76 fa 3d 0a a5 b4 3d 78 8e 4f 3c 71 7b 2f 3d
       0.1222968 0.08820541 0.012668245 0.042842332
000370 ba 32 ce 3d 7f 7c 20 3e 35 e6 29 3e b5 d3 5a ba
       0.10068269 0.15672491 0.16591723 -0.0008347587
000380 3c b1 77 3b 7e 6f 1b 3e 39 84 46 3e 6a 97 2f 3e
       0.003779485 0.1517925 0.19386376 0.17147604
000390 91 bf 40 3d 74 b2 46 3e 11 bf a3 3c 17 1f 88 3d
       0.047057692 0.19404012 0.019988568 0.06646555
0003a0 66 36 9c bc 31 e3 07 3d e2 3a 96 bc 6f 79 1e bd
       -0.019068908 0.03317565 -0.018338624 -0.038690027
0003b0 ad 1b d9 3d c8 24 e7 3d 42 b7 1e 3e 28 9b ce 3d
       0.10600982 0.11286312 0.15499595 0.100881875
0003c0 b0 87 ff bc 28 e9 57 3d fb ad 33 3e ef ea 0f bd
       -0.03119263 0.05271259 0.17546837 -0.03513616
0003d0 6e 88 2a 3e 52 fa bf bd a5 16 cb bc c3 b2 d1 3d
       0.16653606 -0.09373917 -0.024791071 0.10239174
0003e0 ac fa 6e 3d 3b 5b e0 3d 0e 8d 2d 3d ac e4 0c 3e
       0.058344528 0.10954901 0.04237085 0.13759106
0003f0 fd c1 35 3e e0 90 0c 3e 59 22 80 3d d0 65 66 be
       0.17749782 0.1372714 0.06256551 -0.22499776

2.bias f4 [32]
000000 be 7d 1e 3e e9 5b 44 bc ac b4 ed 3d db f8 05 3e
       0.15477654 -0.011984804 0.11606726 0.13083212
000010 c8 c2 8c 3d 15 07 d8 3d 2b b6 e4 3d a0 8d 41 3e
       0.06873089 0.10548226 0.11167558 0.18901682
000020 dc a1 bd 3d 54 bd f6 bd 48 1c 99 bd 5e 6c e8 bd
       0.09259388 -0.1204783 -0.07476097 -0.113487944
000030 90 5e f4 3d 6b 94 3d bd 94 10 e5 bd 18 ef cf 3c
       0.11932099 -0.04628412 -0.11184803 0.025382563
000040 40 5f 5e 3c bf f4 3c 3d f6 f0 02 3d 47 34 33 3e
       0.013572514 0.046131846 0.03196808 0.17500411
000050 ab e0 5f 3e 4c 8e 0d 3e 3e 46 8f bd 72 12 4d 3e
       0.21863048 0.13823813 -0.069958195 0.20026568
000060 97 75 86 3d cd 73 17 bd d6 69 4a 3e 85 fd 02 3d
       0.06565397 -0.03697567 0.19766936 0.031980056
000070 16 12 b2 bd c1 b4 42 bd 26 2b cc bd 1c 02 d8 bc
       -0.08694856 -0.04753566 -0.099691674 -0.026368193

4.weight f4 [16, 32]
000000 ad 78 ab 3d 85 28 3a be e6 b8 af bd 00 10 7b 3b
       0.083726265 -0.1817952 -0.085801885 0.0038309097
000010 8e ee 00 3e fe 44 c5 bd 9e 8a c5 bc e6 6e 9d bc
       0.12591001 -0.096323 -0.02411395 -0.01921792
000020 ac 0f b6 bd fe 45 a2 bd 40 bc 41 bd b6 0f 5a bd
       -0.08889708 -0.07923506 -0.04729867 -0.05323764
000030 fc 1f 60 bd 20 74 8a 3c b0 20 72 bc fd 31 b0 bd
       -0.054718003 0.016901076 -0.014778301 -0.086032845
000040 43 43 be 3d 37 43 e2 3d cf 19 32 bd 5d 75 46 bd
       0.09290173 0.110479765 -0.043481644 -0.04845177
000050 32 ac 36 be ec 90 12 be d0 e9 03 bc 31 8b 41 bd
       -0.17839125 -0.14313096 -0.008051351 -0.047251884
000060 65 ad 1b 3d 2a 19 b4 bd 76 be 43 bd 46 7d 4b 3c
       0.03800716 -0.08793862 -0.04778906 0.012420004
000070 4d b0 31 3e cf 6b 0e 3e 29 26 ee bd f0 34 a8 bc
       0.1735241 0.13908313 -0.11628372 -0.020533055
000080 38 17 ed bc 80 2a b9 bb 1e d3 96 3d f6 a3 91 bd
       -0.028941736 -0.0056508183 0.07364486 -0.07111351
000090 fc 57 1a bd 6a 51 33 be 3a 9c 80 bd e7 89 31 be
       -0.037681565 -0.17511526 -0.06279798 -0.17337762
0000a0 60 2a 80 3d 82 57 0b be d9 e5 b2 bd 1c 45 03 be
       0.062580824 -0.136076 -0.08735246 -0.12819332
0000b0 d3 a6 09 3e f0 8e 54 bd 37 4f 1d 3e 5f e6 b3 bd
       0.13442545 -0.05189413 0.1536225 -0.08784174
0000c0 8d 0a 09 3e 10 5f 0e bd ca fb 07 be d9 60 17 3e
       0.13382931 -0.034758627 -0.13279644 0.14783038
0000d0 c7 4c f6 bd bf e5 d4 bd fe 65 c6 3d b8 30 87 bc
       -0.12026363 -0.10395383 0.09687422 -0.016502723
0000e0 40 f7 2f bb ed 7d 33 3e 82 a7 0f be 15 c4 82 bd
       -0.0026850253 0.17528506 -0.14028743 -0.06385056
0000f0 a6 48 93 3d f4 6c 0b bd 40 f9 43 3b 40 cb 74 bd
       0.07191591 -0.034039453 0.0029903203 -0.059764147
000100 48 56 e0 bc e1 7d 10 3e e0 97 06 bd 68 9a 91 3d
       -0.027384892 0.14110519 -0.032859683 0.07109529
000110 dd 94 08 3e 19 23 0c 3e 8e a9 ab 3d 0e db f8 3d
       0.13338037 0.13685264 0.08381949 0.12151156
000120 58 d1 3b bd c0 f0 66 3c 35 4c 9b bd e1 8e 2f be
       -0.045853943 0.014095485 -0.07582895 -0.17144348
000130 35 50 18 3e 16 0f 2d be 9c 2a e4 bd 68 08 81 bd
       0.14874347 -0.16900286 -0.111409396 -0.063004315
000140 77 95 25 be f6 79 0c be 8d 5f bd bd 70 5d ab 3c
       -0.16170298 -0.137184 -0.092467405 0.020918578
000150 32 45 1e be af 1e 02 be b7 a1 d3 bd 5b 1f 08 be
       -0.15456083 -0.12707017 -0.10333579 -0.13293211
000160 8c f4 29 3d 00 fc c3 3b c4 e4 1e 3d 2b 4e 23 3e
       0.041492984 0.0059809685 0.038792387 0.15947787
000170 51 84 9e bd 7c bc 87 bd 6c fd 66 3d 09 c3 1e 3e
       -0.07740081 -0.066277474 0.056394026 0.15504088
000180 44 9d d0 3d 5f 53 53 bd b9 77 aa 3d 82 22 4c be
       0.10186246 -0.05159318 0.083236165 -0.19935039
000190 f2 c7 fa bd 22 fa ab bd f5 d6 1d be 24 7b b5 bd
       -0.12245168 -0.083973184 -0.15414031 -0.08861378
0001a0 d1 d8 56 be 64 dd 4f 3d 74 5d 5b 3d d3 0e 15 3c
       -0.20981146 0.050748244 0.05355592 0.009097773
0001b0 3f 0f f5 bd ef c8 88 bd 0e a0 b6 3d ce f9 06 be
       -0.119657986 -0.0667895 0.08917247 -0.1318123
0001c0 86 4f 2f 3e b1 92 ef 3d 6b 4f 2c bb a0 43 25 3e
       0.1712018 0.11697901 -0.0026292454 0.16139078
0001d0 05 08 32 3d f7 3d 46 bd a1 21 23 3e d0 e4 b2 3d
       0.04346468 -0.048398938 0.15930797 0.08735049
0001e0 f7 da 7c 3e 14 32 3b bd ee b3 69 be a3 a8 4b 3e
       0.24692903 -0.045702055 -0.22822544 0.19888549
0001f0 b0 8d 27 3c 80 9e ba 3d 00 ae 3b bd 84 4d 4f 3e
       0.010226652 0.09112263 -0.045820236 0.20244414
000200 f9 45 04 be b0 50 17 bb 76 79 fe 3d 47 29 8b bb
       -0.12917317 -0.0023088865 0.124255106 -0.004246864
000210 00 3d 05 3e b0 23 85 3d b2 5c 68 3d 13 8a 43 3e
       0.13011551 0.065009475 0.056729026 0.1909564
000220 92 31 e4 bd d0 91 28 bd 6a a9 e3 3d 55 37 b7 bd
       -0.11142267 -0.041154683 0.111162975 -0.089461006
000230 b3 be 4b be 00 d1 4c 3d fa bb 29 be 5f 76 ab bd
       -0.19896965 0.050004005 -0.16575614 -0.08372187
000240 e2 95 38 3d 0c 27 42 3c 53 6d b8 bd 46 01 22 bd
       0.045064814 0.01185013 -0.09005227 -0.039551996
000250 39 81 1b 3e 02 e4 ec bd 4a aa cf 3d 27 b9 34 bc
       0.15186013 -0.115669265 0.10139902 -0.011030472
000260 75 f4 05 3d 87 70 2c be f7 e7 fc bd 1c c1 39 3e
       0.032703836 -0.16839801 -0.12348931 0.18140072
000270 c2 55 c6 bd d8 f1 0e be b0 f8 61 bc a7 17 69 3e
       -0.09684326 -0.13959444 -0.013792202 0.22762929
000280 18 6a 44 bd ef 73 31 3e fd 5b 2e 3e b3 d8 25 3e
       -0.04795274 0.17329381 0.17027278 0.16195945
000290 fb 13 cf bd a1 db 00 be 13 a6 29 be d8 cb 0c bd
       -0.10111233 -0.12583782 -0.16567259 -0.034374088
0002a0 2e c6 eb bd c2 a9 a8 3d f8 9a 82 3c 93 91 0f 3e
       -0.11512409 0.08235504 0.015943035 0.14020376
0002b0 16 ed 27 be 66 1d 18 be 48 be 06 bd e4 d6 3e 3d
       -0.16399035 -0.14854965 -0.03289631 0.046591654
0002c0 6d 68 18 3e 50 26 72 bc 37 b2 1a 3e d8 04 44 bd
       0.14883585 -0.014779642 0.15107046 -0.04785618
0002d0 00 6e cc bc 37 67 8b bd 2e de 99 bd 86 26 89 bd
       -0.024954796 -0.06806796 -0.075130805 -0.06696801
0002e0 1a 7a 1c be c8 c4 b1 bc 7e 26 74 bd 7a 65 ea bd
       -0.15280953 -0.021700278 -0.05960702 -0.11445136
0002f0 6c 45 06 be 26 90 2e be 2c 41 22 bd 57 60 13 be
       -0.1311242 -0.17047176 -0.039612934 -0.1439222
000300 42 76 4d 3e f0 b8 a5 bc c0 f5 c1 3d f4 c3 d1 bd
       0.20064643 -0.020229787 0.09470701 -0.10242453
000310 8e bb a9 3d b7 ab 1a be bf 3d 0d 3e 46 b4 fb 3d
       0.08287726 -0.15104567 0.13793086 0.12290244
000320 53 96 fc bd ee de 9d 3d 70 5e b8 3c d7 23 c7 bd
       -0.123333596 0.07708536 0.022505969 -0.09723633
000330 72 19 b3 bc a6 fe 59 3e 62 60 83 bd 77 19 1e 3e
       -0.02186272 0.21288547 -0.06414868 0.15439402
000340 7e 78 b0 3d 2c 53 14 3e e1 45 0c bd b1 86 cb 3d
       0.08616732 0.14484853 -0.03424633 0.099378
000350 3e da 97 3d a7 f6 3a 3e d5 01 33 be ae 73 ce bc
       0.07414673 0.18258153 -0.17481168 -0.025201645
000360 36 5b 3a 3b 0e 2f 00 be e7 c7 b2 3d b7 86 1f 3e
       0.0028435714 -0.1251795 0.087295346 0.15578733
000370 fa 2c da 3d c1 82 a6 bd 60 58 92 3d b5 c8 10 be
       0.1065311 -0.08130408 0.071457624 -0.14139064
000380 14 39 1c 3e ed 8f 2b be 0a 33 ff bd 75 5e 69 3d
       0.15256149 -0.16754122 -0.12460907 0.056974847
000390 fa 03 2d 3d 18 6f fd 3c 1a 6d 5f 3e fb fb 5c 3e
       0.04224012 0.030936763 0.21818963 0.21580498
0003a0 6c 4e a8 3d f6 34 24 be b0 f6 de bc 6d 32 03 3d
       0.08218083 -0.16035828 -0.02721724 0.03203051
0003b0 bc 0a 29 be 39 62 46 3e e5 a8 0f 3e b3 7a ab bd
       -0.16508001 0.19373406 0.14029272 -0.083730124
0003c0 25 27 7f 3c 9f 69 08 bd 3e 73 00 3e cd 8a 86 3d
       0.015573298 -0.033303853 0.12543961 0.06569443
0003d0 4d fc a2 bc 2b bd 0e 3e 6c 85 1c bd 11 3d 69 3d
       -0.019895697 0.1393935 -0.03821318 0.056943003
0003e0 c8 0b f3 3d 46 e9 a5 bd 4c ca 0b be 9a 36 01 3e
       0.118674815 -0.08101134 -0.13651389 0.12618485
0003f0 5c 9a ec bd 3a 3e 9e 3d 08 b0 59 bd 63 c4 e9 3d
       -0.11552879 0.077267125 -0.053146392 0.11414411

4.bias f4 [16]
000000 28 cf 15 bd 29 b8 0a be 5a 8d e8 bd 79 51 e7 3c
       -0.036574513 -0.13546814 -0.11355086 0.028237091
000010 ee 58 d8 bd 70 7b b2 3c 0b dc 40 3e e1 49 bf 3d
       -0.10563837 0.021787375 0.1883394 0.09340263
000020 65 23 ef 3d a9 ac f9 bb bc 21 f0 bc a2 69 35 be
       0.11676673 -0.0076194596 -0.02931296 -0.17716077
000030 00 8b a0 3a f6 59 05 be 25 4d 6a 3e 05 1c 9c bd
       0.0012248456 -0.13022599 0.22880991 -0.07622532

6.weight f4 [8, 16]
000000 73 1b a4 3d 6c 22 19 be 88 b9 8d 3d f7 e9 eb 3c
       0.08013048 -0.14954537 0.06920153 0.028798087
000010 d2 d5 f4 bd 00 b6 c6 bd 06 7f 87 3e ca d8 6d 3d
       -0.119548455 -0.097026825 0.264641 0.058068074
000020 7d 5c 0d 3d cf 75 34 3d 89 1e 83 be d7 a5 d1 bd
       0.03451203 0.044057664 -0.25609234 -0.102367096
000030 2e 87 65 3e 76 ad 73 3e 14 62 21 bd 22 20 20 3e
       0.22414848 0.23796639 -0.039400175 0.15637258
000040 c1 9b e3 3c 34 d6 61 3e 90 e6 0e 3d e0 23 31 bd
       0.02778423 0.22054368 0.03488785 -0.043247104
000050 51 e0 c6 bd 98 f4 57 3d cf ba 75 be 6a 8f 79 be
       -0.09710754 0.052723497 -0.23997043 -0.24371114
000060 de d5 28 bd d1 c7 2e be fb 50 5b be f4 51 23 bd
       -0.041219585 -0.17068411 -0.2141761 -0.03987308
000070 5c 08 0e 3e e8 65 fd 3d 9f 4b f4 bc e3 40 c5 bc
       0.13870376 0.12372953 -0.029821215 -0.024078792
000080 84 9a 61 3e 30 83 5d 3d f6 16 2e 3e 41 91 a6 bd
       0.220316 0.05408019 0.17000946 -0.08133174
000090 61 4c b0 be 44 62 ed bd a2 59 0b 3e b3 aa 5a 3d
       -0.34433272 -0.11591008 0.13608411 0.053385448
0000a0 41 dd fc bd 55 00 bb 3e c0 2e ac be 5a 06 1b 3c
       -0.12346888 0.3652369 -0.33629417 0.009461964
0000b0 98 0a cc 3d 40 21 8a bd f8 ae 47 3e b3 40 0a 3e
       0.09962958 -0.06744623 0.19500339 0.13501243
0000c0 ea a6 1e be 72 33 0b be 2c 53 e6 bd 71 34 a3 be
       -0.1549336 -0.13593844 -0.112463325 -0.31875947
0000d0 28 1a ef 3d 42 a9 6a 3e c1 fa 93 bd 59 23 6b 3d
       0.11674911 0.22916129 -0.07225562 0.057406757
0000e0 b8 b2 95 3d e2 95 f6 3d 4d 8d 61 be 8c 90 1b be
       0.073094785 0.12040307 -0.22026558 -0.15191859
0000f0 fc 33 79 3e 10 13 15 3e 65 19 a0 3e 86 a6 63 3e
       0.24336237 0.14558053 0.31269374 0.22231492
000100 2e f4 cc bc 8e 39 34 3e 40 60 03 bc cd 24 25 bd
       -0.025018778 0.1760008 -0.008018553 -0.0403183
000110 44 71 44 be a2 a4 47 3e 17 ca a2 3d cb 60 04 3e
       -0.19183832 0.19496396 0.07948702 0.12927549
000120 b1 84 3a be f1 ec 3c 3e 97 cb 6f be 2c f7 5b bd
       -0.1821468 0.18449761 -0.23417507 -0.05370252
000130 d0 22 b7 bc fc ce bd 3d 62 26 04 3e 1e ba 0b 3e
       -0.022355467 0.09267995 0.12905267 0.13645217
000140 16 5f 2d be 7e 6e 41 be a8 63 b8 3d 88 f1 a9 bd
       -0.16930804 -0.18889806 0.09003383 -0.082980216
000150 8d 48 a8 be 88 4d d3 bd e6 e3 08 be cb 36 24 3e
       -0.32867852 -0.10317522 -0.13368186 0.16036527
000160 45 90 08 3d 67 7d ac 3e 98 96 82 be 18 02 03 be
       0.03334071 0.33689424 -0.2550552 -0.12793767
000170 18 82 74 3d c8 88 86 bd ac c5 8e 3e 55 c1 1c 3e
       0.05969438 -0.06569058 0.27885187 0.15308125
000180 2f d4 3f bc e8 6d c4 bd 70 ad 1a 3e a9 a3 a5 bc
       -0.011708303 -0.095912755 0.15105224 -0.02021964
000190 ed 02 14 3e d2 74 24 3e 4e 2a 87 bd af 38 b8 bd
       0.14454241 0.16060188 -0.06599866 -0.089951865
0001a0 80 c1 02 be 5e 12 87 3e d2 66 4a bd 72 56 cd 3c
       -0.12769127 0.263812 -0.049414463 0.025065634
0001b0 58 9c 1a 3d 30 fb 56 3d 24 46 af bc 43 22 1e 3e
       0.037746757 0.052485645 -0.02139575 0.15442757
0001c0 43 4e 25 3e 9c b3 04 3e e8 9e 43 3d 7c 02 a1 be
       0.16143136 0.1295914 0.047758967 -0.31447208
0001d0 c8 be d8 bb c0 df cb bd 46 3c 59 3e df 7e f7 3d
       -0.00661454 -0.09954786 0.21214399 0.120847456
0001e0 3e e4 68 bd b1 40 06 3e 02 7a 69 be 96 f0 3b 3d
       -0.056858294 0.13110615 -0.22800449 0.045883738
0001f0 a0 60 4c bc 80 fe 81 3b 5e 7b 07 3e 2a d7 97 3e
       -0.012474209 0.0039671063 0.13230655 0.29656345

6.bias f4 [8]
000000 f0 87 be bc d3 2b 85 3e 19 18 44 3d a2 3b 99 3e
       -0.02325818 0.26009998 0.047874544 0.2992831
000010 74 7a 2f 3e 95 0d f3 3d 66 ad 99 3c 83 07 bf bd
       0.17136556 0.11867825 0.01875944 -0.093276046
