logs/best_model_4_2.pt (torch, 46229 bytes, 8 tensors)

0.weight f4 [64, 126]
0.08179134 0.052130233 0.024549158 0.049095117 0.043472696 0.021351026 -0.034889597 -0.012714181
-0.054973535 -0.0150828725 0.011787374 -0.0887389 -0.018213417 0.059046727 0.15909348 -0.00021040223
0.0781398 0.12036036 0.11355307 0.013118101 0.037688404 -0.034808207 -0.054193657 -0.06628512
-0.0515438 -0.053678658 0.018002868 -0.06322968 0.029294932 -0.0034050394 -0.094754316 -0.015072341
-0.097917035 -0.047820535 -0.024504015 0.019992858 0.037447143 -0.0014144559 -0.04812328 0.020754242
0.027343584 0.008690509 0.060595945 -0.01240479 -0.02594495 -0.07499354 -0.0029261291 -0.09067336
-0.0951824 -0.064752296 0.031164939 -0.069784895 0.021010406 -0.0094027165 -0.033550784 -0.10326412
-0.081993856 -0.10165317 -0.11319767 -0.0639144 -0.015992666 0.017350223 -0.020034384 0.05377711
0.01835212 0.06838589 0.061279066 0.046734 0.035299014 0.06661612 0.029876875 0.14647429
-0.018822296 0.11362956 0.044573385 0.14517383 0.14006196 0.0038907519 0.053160172 0.10291794
0.044549063 0.10270985 0.13740781 0.14620435 0.0017858456 0.08447084 -0.009040979 0.14062326
0.046391863 0.06878813 -0.00762009 0.116446584 0.065294676 0.10237855 0.096954904 0.079038665
0.037607413 0.13381433 0.08397855 -0.009884131 0.13447383 0.09693128 0.08964734 0.13285598
0.09261305 0.047067057 0.10422245 -0.00085381477 0.095774695 0.13710351 0.020083806 -0.010640372
0.0045153657 0.022082929 0.14472288 0.051718775 0.05280585 0.14364411 -0.007977676 0.010339152
0.06612529 0.10662343 0.13653798 0.06838557 0.12477649 0.0070571452 0.1024209 -0.004211442
0.14910537 0.12944439 0.11255417 0.005582333 0.015080581 0.022783048 0.099774905 0.09791319
-0.015357652 0.04056182 0.020928157 0.08986822 0.101245485 0.04075846 0.15349361 0.019562483
0.055607956 0.008175624 0.1330037 0.14052093 0.12196369 0.0143605275 0.048555396 -0.019111156
0.11879714 0.096214846 0.028306663 0.08039768 0.019911002 0.10812145 -0.003224627 0.04333043
0.07570517 0.057685193 0.056384727 0.10859323 0.13002492 0.10635242 0.12399546 0.12818752
0.038198143 0.06489522 -0.0092067905 -0.01795396 -0.017908197 0.028719265 0.147434 0.15109043
0.08338497 0.03747162 -0.012872823 0.077086136 0.13747509 0.017641056 -0.032287315 -0.004768299
0.034587402 0.07908629 0.046598233 -0.03465915 0.13639449 0.045934014 0.013770959 0.0033513159
0.057577718 0.1686945 0.012897776 0.053293712 0.014492863 0.0081335865 0.15205492 0.046466608
0.025069155 0.0031071818 0.13976273 0.009534766 0.13571613 0.07059984 0.11889576 0.1308624
0.11950564 0.01967317 0.11366668 0.1245631 0.011018734 0.024948992 0.11485996 0.094194606
0.1275416 0.065930426 0.045936782 0.08458314 0.074051686 0.15944456 0.060393147 0.1294852
0.16044323 0.0525594 0.124506 0.051608242 0.14647399 0.14729977 0.0709275 0.056596223
0.11681903 0.061749876 -0.009598354 0.117088936 0.16675314 0.15944462 0.09688418 0.014527941
0.091328755 0.057532284 0.017126925 0.14684723 0.13667084 0.082923025 0.11595465 0.14705215
0.07382446 0.11188025 0.16109376 0.043370113 0.0908177 0.00035633743 0.006416994 0.012478191
00000000: 3882 a73d 8386 553d 511b c93c f617 493d
00000010: 6d10 323d 59e8 ae3c 65e8 0ebd 244f 50bc
00000020: ee2b 61bd 271e 77bc d41f 413c bebc b5bd
00000030: 4e34 95bc fbda 713d 67e9 223e 6b9f 5cb9
00000040: c207 a03d 7e7f f63d 838e e83d 4eed 563c
00000050: 285f 1a3d 0d93 0ebd 2bfa 5dbd 7ec0 87bd
00000060: 971f 53bd 27de 5bbd c07a 933c 907e 81bd
00000070: edfb ef3c 1527 5fbb 8d0e c2bd fbf1 76bc
00000080: ba88 c8bd 77df 43bd a5bc c8bc 10c8 a33c
00000090: 2d62 193d 4465 b9ba eb1c 45bd cd04 aa3c
000000a0: a7ff df3c a362 0e3c 7433 783d 763d 4bbc
000000b0: 818a d4bc 3796 99bd 4dc4 3fbb f4b2 b9bd
000000c0: fdee c2bd da9c 84bd 9d4d ff3c 62eb 8ebd
000000d0: 041e ac3c da0d 1abc 8c6c 09bd 247c d3bd
000000e0: 65ec a7bd 8a2f d0bd 2ed4 e7bd 8ee5 82bd
000000f0: 0d03 83bc 0e22 8e3c 261f a4bc 6345 5c3d
00000100: 2f57 963c e70d 8c3d c2ff 7a3d 276c 3f3d
00000110: b395 103d 086e 883d 59c0 f43c 5bfd 153e
00000120: 3731 9abc 9db6 e83d 9592 363d 73a8 143e
00000130: 676c 0f3e fcfb 7e3b 7bbe 593d a4c6 d23d
00000140: 1479 363d 8b59 d23d a2b4 0c3e 98b6 153e
00000150: 0913 ea3a 0cff ac3d 9d20 14bc 8bff 0f3e
00000160: 6505 3e3d cbe0 8c3d f3b1 f9bb 8c7b ee3d
00000170: 37b9 853d d8ab d13d 4b90 c63d 06df a13d
00000180: 3b0a 1a3d a006 093e f2fc ab3d 0df1 21bc
00000190: 82b3 093e e883 c63d 0699 b73d 660b 083e
000001a0: e9ab bd3d 63c9 403d 9472 d53d 8ad2 5fba
000001b0: 8625 c43d dd64 0c3e cb86 a43c f454 2ebc
000001c0: a2f5 933b 42e7 b43c 3c32 143e 11d7 533d
000001d0: f24a 583d 7117 133e ccb4 02bc 8c65 293c
000001e0: b26c 873d 635d da3d 9dd0 0b3e bc0d 8c3d
000001f0: d18a ff3d a03f e73b 0cc2 d13d 2300 8abb
00000200: 14af 183e 128d 043e cd82 e63d 01ec b63b
00000210: 8b14 773c 84a3 ba3c c956 cc3d b686 c83d
00000220: a99e 7bbc 2724 263d 8771 ab3c d40c b83d
00000230: cb59 cf3d 58f2 263d 6e2d 1d3e 8041 a03c
00000240: 2bc5 633d 0df3 053c 1f32 083e b8e4 0f3e
00000250: 19c8 f93d 6b48 6b3c 06e2 463d 008f 9cbc
00000260: ea4b f33d 4a0c c53d 60e3 e73c 8aa7 a43d
00000270: 661c a33c c76e dd3d 4454 53bb 407b 313d
00000280: 500b 9b3d 4f47 6c3d acf3 663d 2166 de3d
00000290: 4125 053e 4ccf d93d 55f1 fd3d 9743 033e
000002a0: a875 1c3d c9e7 843d 14d8 16bc 2f14 93bc
000002b0: 36b4 92bc aa44 eb3c f0f8 163e 73b7 1a3e
000002c0: bdc5 aa3d d77b 193d 88e8 52bc 56df 9d3d
000002d0: 45c6 0c3e fa83 903c b43f 04bd 643f 9cbb
000002e0: 85ab 0d3d fef7 a13d cadd 3e3d c1f6 0dbd
000002f0: ffaa 0b3e 4e25 3c3d 979f 613c c0a1 5b3b
00000300: 9dd6 6b3d 40be 2c3e 3251 533c 824a 5a3d
00000310: 7973 6d3c bc42 053c 49b4 1b3e c553 3e3d
00000320: d45d cd3c dca1 4b3b f61d 0f3e b537 1c3c
00000330: 2bf9 0a3e a696 903d 9f7f f33d cb00 063e
00000340: 5fbf f43d a129 a13c 14ca e83d f01a ff3d
00000350: ec87 343c d461 cc3c b33b eb3d 1ae9 c03d
00000360: 449a 023e 8806 873d 3528 3c3d ed39 ad3d
00000370: 69a8 973d 6f45 233e ce5e 773d c597 043e
00000380: 3b4b 243e 8748 573d 00fd fe3d 2a63 533d
00000390: 47fd 153e c0d5 163e 7042 913d 71d1 673d
000003a0: d13e ef3d 70ed 7c3d 6a42 1dbc 53cc ef3d
000003b0: 56c1 2a3e 7345 233e 376b c63d 9a06 6e3c
000003c0: 920a bb3d f9a6 6b3d c44d 8c3c 1f5f 163e
000003d0: 71f3 0b3e 8cd3 a93d a279 ed3d d794 163e
000003e0: 4731 973d 7921 e53d c3f5 243e dca4 313d
000003f0: a1fe b93d cdd2 ba39 a645 d23b 5471 4c3c

0.bias f4 [64]
0.030815251 0.01731166 0.0261804 0.08943718 -0.029368192 0.06759269 0.015826989 0.14100797
0.12935534 0.044005908 0.098938674 -0.081188664 -0.026265625 0.076118715 0.10185676 -0.010450829
-0.0035699443 0.007833318 0.14873284 0.09065863 -0.021292225 0.08814371 0.057182252 0.036031555
0.040924083 0.04143362 -0.01093534 0.15111482 0.13878544 -0.0076439963 -0.009609934 0.047493435
0.015217495 -0.026403883 0.013288944 0.08695469 0.13571833 0.048233952 0.03584924 0.094349384
0.13254546 0.060702678 0.108954564 0.055717666 -0.017523661 0.08230285 0.11971388 0.13463424
0.10146845 0.04779932 0.024366433 0.031741746 0.08945345 0.13925186 0.037955552 -0.085614756
0.07432169 0.07661222 -0.06631789 0.105669744 0.049555115 0.11726135 0.05593651 0.1347519
00000000: 4470 fc3c 2fd1 8d3c 4778 d63c d72a b73d
00000010: 9095 f0bc 096e 8a3d 9aa7 813c 6564 103e
00000020: ba75 043e 8a3f 343d 5ca0 ca3d 3e46 a6bd
00000030: 022b d7bc 21e4 9b3d 479a d03d f439 2bbc
00000040: baf5 69bb 5157 003c 6c4d 183e 3bab b93d
00000050: 086d aebc b084 b43d f037 6a3d d395 133d
00000060: 03a0 273d 4db6 293d 242a 33bc d8bd 1a3e
00000070: c51d 0e3e 7d7a fabb fc72 1dbc 7a88 423d
00000080: cd52 793c f54c d8bc dfb9 593c 4d15 b23d
00000090: bff9 0a3e f790 453d a7d6 123d 403a c13d
000000a0: ffb9 073e 5fa3 783d 9223 df3d 3538 643d
000000b0: c88d 8fbc 668e a83d 8d2c f53d 8fdd 093e
000000c0: b1ce cf3d 38c9 433d 1d9c c73c a203 023d
000000d0: 5f33 b73d 0a98 0e3e 4877 1b3d ca56 afbd
000000e0: f835 983d dee6 9c3d add1 87bd 6169 d83d
000000f0: 4efa 4a3d b826 f03d af1d 653d 67fc 093e

2.weight f4 [32, 64]
0.0877317 0.1028139 -0.01989554 0.17743911 0.04656484 0.03147616 -0.11622738 0.078303784
0.14155455 0.079385504 -0.019501638 0.015371859 0.1825643 0.02963262 0.17053533 -0.076426975
0.08427285 0.02917497 0.019500073 0.018011106 -0.03127658 0.07561058 0.11144134 -0.08310542
-0.015462587 -0.048291553 -0.040057708 0.12048857 0.09682257 0.15776108 0.00046511937 -0.04641034
-0.018534565 0.0636057 -0.064198956 0.01570728 0.06834649 0.16480386 0.12545735 0.1423328
0.10805295 0.06329579 0.117731996 0.10451066 0.09320891 0.09902539 0.08983856 -0.062654756
0.11613539 0.02899126 0.17374569 0.17168613 0.1414485 0.011366009 -0.0162194 0.0048801005
-0.016596569 0.078082815 0.026261793 0.11848611 0.14043146 0.16976668 0.018880883 0.11302077
-0.02974224 0.117366105 0.040523898 -0.008595421 0.06717344 0.06449375 -0.048922405 -0.056741375
0.008286994 0.07719592 0.037878864 0.0114507675 -0.08325876 0.052490644 0.09399577 0.018989846
0.049958862 0.034775525 0.0787246 -0.0050157025 0.07980109 -0.12740663 0.061692517 -0.05832829
-0.0076778135 0.10705118 -0.07921598 -0.093958214 -0.00895312 0.045038797 -0.029307751 -0.038112834
0.0737996 -0.026421338 0.023451779 -0.06335452 0.032611866 -0.0649679 -0.06654114 -0.06717669
0.01739781 -0.034134872 -0.08745657 -0.0133874025 -0.09326642 -0.10137824 -0.10361463 -0.038870424
0.13271615 0.10938482 0.027315151 0.004718868 -0.068894446 -0.12408912 -0.015165789 -0.120050445
-0.028712036 -0.10223253 0.0045138597 0.088539235 0.057922132 0.022910012 0.04789475 0.07370795
-0.08579759 -0.015605688 0.12405875 0.10981807 0.0014419705 0.02852951 0.06957996 0.019452795
-0.027557388 0.021158904 -0.014593452 -0.09956293 0.06491798 -0.046530113 -0.04776457 0.01465936
0.09342007 0.050213143 -0.055020005 -0.030733496 -0.124485835 0.024510771 -0.07787451 -0.059161782
0.032012478 0.056774408 0.061571553 0.042085633 -0.06090659 0.018663645 -0.036035538 -0.10013127
-0.091319785 0.06210585 0.021733955 0.087100625 -0.018246919 -0.06991866 -0.11740862 -0.11882979
0.016431645 -0.048998594 -0.09249151 -0.098134294 -0.004563734 -0.036875263 0.013846323 -0.09238763
0.08943139 0.05367382 0.100259766 -0.085041925 -0.0088594705 -0.08039306 0.07539408 -0.006436765
-0.07942566 -0.020518377 -0.03681305 -0.024472326 -0.089019775 0.08381872 -0.11573838 0.084244475
-0.066986576 0.07521353 0.036047272 0.01012131 -0.060322523 -0.058766432 -0.11181201 0.16135193
0.17317648 0.179277 -0.02608672 0.03879331 0.10996489 -0.023688557 0.16703427 0.00256141
-0.03463701 0.053641632 -0.02265929 0.1786492 0.10195092 0.049281877 -0.0064800754 -0.029467262
0.086466394 0.15335973 0.033075497 0.13148522 0.11233658 0.17701763 0.11185667 0.1560246
0.13832304 0.11377152 0.089994945 0.13862324 -0.035823613 0.11559311 0.17083207 0.17564717
0.08013582 0.16161369 -0.039740916 0.13034536 -0.036519416 0.14760269 -0.012200163 0.070659384
0.09424049 0.1855611 0.081861965 0.1078915 0.12104229 -0.061347056 -0.06507007 0.020062175
0.114736095 0.024830714 0.02039143 -0.025485368 0.08709448 0.14305268 0.043748703 0.1627868
00000000: adac b33d 1890 d23d f9fb a2bc 99b2 353e
00000010: c6ba 3e3d 25ed 003d 9f08 eebd bc5d a03d
00000020: adf3 103e de94 a23d e6c1 9fbc 40da 7b3c
00000030: 23f2 3a3e 1cc0 f23c d0a0 2e3e bf85 9cbd
00000040: 3e97 ac3d 5900 ef3c 9ebe 9f3c 078c 933c
00000050: df1b 00bd b8d9 9a3d 5b3b e43d 2d33 aabd
00000060: ca56 7dbc 5dcd 45bd 8d13 24bd b6c2 f63d
00000070: e94a c63d 1f8c 213e 44db f339 c518 3ebd
00000080: cdd5 97bc b543 823d be7a 83bd 8eac 803c
00000090: 3ff9 8b3d 58c2 283e e477 003e b1bf 113e
000000a0: dd4a dd3d 39a1 813d 791d f13d af09 d63d
000000b0: 50e4 be3d d3cd ca3d 47fd b73d 2351 80bd
000000c0: 64d8 ed3d 147f ed3c 64ea 313e 7dce 2f3e
000000d0: e0d7 103e 7f38 3a3c 8cde 84bc 40e9 9f3b
000000e0: 87f5 87bc e2e9 9f3d f922 d73c d8a8 f23d
000000f0: 44cd 0f3e 51d7 2d3e 15ac 9a3c 6f77 e73d
00000100: 00a6 f3bc a45d f03d 63fc 253d cfd3 0cbc
00000110: 3a92 893d 4d15 843d dc62 48bd a569 68bd
00000120: 2cc6 073c e518 9e3d de26 1b3d 009c 3b3c
00000130: 9283 aabd 6e00 573d db80 c03d 9890 9b3c
00000140: aaa1 4c3d c870 0e3d 5d3a a13d c35a a4bb
00000150: c16e a33d e276 02be 4bb1 7c3d a5e9 6ebd
00000160: 2b96 fbbb a63d db3d fd3b a2bd 2a6d c0bd
00000170: 1bb0 12bc 9a7a 383d cf16 f0bc 341c 1cbd
00000180: 3f24 973d 9071 d8bc f21d c03c 04c0 81bd
00000190: 0594 053d e40d 85bd b946 88bd ef93 89bd
000001a0: da85 8e3c 02d1 0bbd 6e1c b3bd d656 5bbc
000001b0: 7702 bfbd 659f cfbd e833 d4bd 9836 1fbd
000001c0: bee6 073e 2605 e03d 06c4 df3c bca0 9a3b
000001d0: 8818 8dbd 7022 febd ee79 78bc 02dd f5bd
000001e0: 8135 ebbc 4a5f d1bd 00e9 933b 0f54 b53d
000001f0: c23f 6d3d c7ad bb3c 492d 443d 32f4 963d
00000200: a6b6 afbd 00af 7fbc 8412 fe3d 4ce8 e03d
00000210: 8000 bd3a b8b6 e93c f07f 8e3d 785b 9f3c
00000220: 08c0 e1bc 7055 ad3c 6019 6fbc a6e7 cbbd
00000230: b8f3 843d 5c96 3ebd c8a4 43bd d02d 703c
00000240: 0653 bf3d 4cac 4d3d a85c 61bd d0c4 fbbc
00000250: 6ef2 febd d0ca c83c ac7c 9fbd a053 72bd
00000260: 841f 033d 488c 683d 7432 7c3d fc61 2c3d
00000270: 3079 79bd 80e4 983c 009a 13bd a011 cdbd
00000280: de05 bbbd b462 7e3d 680b b23c d061 b23d
00000290: 907a 95bc 8431 8fbd ee73 f0bd 085d f3bd
000002a0: a89b 863c c0b2 48bd 306c bdbd a2fa c8bd
000002b0: 608b 95bb 840a 17bd b0db 623c ba35 bdbd
000002c0: ce27 b73d 14d9 5b3d fe54 cd3d 762a aebd
000002d0: 5027 11bc 1ea5 a4bd 3668 9a3d 80eb d2bb
000002e0: eca9 a2bd 2816 a8bc 48c9 16bd 307a c8bc
000002f0: 0050 b6bd 26a9 ab3d 3e08 edbd 5e88 ac3d
00000300: 4230 89bd 8d09 9a3d 4ea6 133d dad3 253c
00000310: c014 77bd 12b5 70bd b2fd e4bd 7139 253e
00000320: 2d55 313e 6494 373e d1b3 d5bc bce5 1e3d
00000330: 4635 e13d 810e c2bc 080b 2b3e 54dd 273b
00000340: 8adf 0dbd 54b7 5b3d fa9f b9bc d1ef 363e
00000350: a5cb d03d cbdb 493d d056 d4bb 5465 f1bc
00000360: 4b15 b13d 550a 1d3e 2c7a 073d 10a4 063e
00000370: b910 e63d 1c44 353e 1c15 e53d eac4 1f3e
00000380: 8ea4 0d3e 0b01 e93d 454f b83d 40f3 0d3e
00000390: c8bb 12bd 15bc ec3d 9aee 2e3e dadc 333e
000003a0: 401e a43d 0f7e 253e 5fc7 22bd 4179 053e
000003b0: 6295 15bd 2925 173e 31e3 47bc deb5 903d
000003c0: 2801 c13d bb03 3e3e 3fa7 a73d 38f6 dc3d
000003d0: 05e5 f73d 0d47 7bbd 7543 85bd 6e59 a43c
000003e0: c2fa ea3d c869 cb3c ee0b a73c b1c6 d0bc
000003f0: 975e b23d 677c 123e d731 333d 95b1 263e

2.bias f4 [32]
0.016916702 -0.12020159 -0.094455406 0.14536391 0.15458046 0.10412814 0.17858914 0.10332522
-0.11256762 0.09407633 0.07354399 0.16103779 0.15473263 -0.037087016 0.105424464 0.089741066
0.10865902 0.007756364 -0.08362671 -0.0031499672 0.16152807 -0.007976017 -0.08084808 -0.006256297
-0.03408175 -0.040471617 -0.058420554 0.039667 0.12701689 -0.09504695 0.030150095 -0.09727892
00000000: e594 8a3c 402c f6bd d671 c1bd 47da 143e
00000010: 574a 1e3e 2241 d53d 12e0 363e 2c9c d33d
00000020: da89 e6bd 17ab c03d 3b9e 963d 17e7 243e
00000030: 3b72 1e3e 8ee8 17bd c8e8 d73d 2aca b73d
00000040: 9f88 de3d 1929 fe3b 7b44 abbd ae6f 4ebb
00000050: 9d67 253e d7ad 02bc ae93 a5bd a001 cdbb
00000060: 4e99 0bbd 91c5 25bd 644a 6fbd dd79 223d
00000070: b710 023e faa7 c2bd 55fd f63c 2c3a c7bd

4.weight f4 [16, 32]
0.12507492 0.17916557 0.07667889 0.12403396 0.21519646 0.012612648 0.043394104 0.16823639
-0.1642549 -0.012341286 0.10598561 0.15263401 -0.06402421 -0.18461506 0.10852225 -0.09262501
-0.039615344 -0.12264668 0.16288209 0.036043018 0.09372325 0.2150685 0.1022148 -0.17411351
0.14502305 0.123203784 -0.06522983 0.20933975 0.19014749 -0.107455224 0.24066387 0.12670146
0.042933505 0.18433452 -0.041124105 -0.0538961 0.025876362 0.0314397 0.10306807 0.0059859855
0.17336641 -0.032874174 0.07231865 0.18242013 -0.082487315 0.15438192 0.21165836 0.0075471704
0.15746075 0.09455412 -0.1588677 -0.10308688 0.19556111 0.05125512 -0.043776393 0.027638197
0.15358698 -0.14617129 -0.060251683 -0.005580004 0.20419985 0.13389646 -0.044880703 0.16160972
-0.007789143 -0.08382692 -0.07628915 0.09330646 0.09131534 0.13140564 -0.15081526 -0.016464977
0.1468602 -0.021022364 0.08102297 0.0460258 -0.1447929 0.13378105 -0.022645567 0.014865935
0.10182532 0.048168153 0.11546631 -0.032710817 0.032567024 -0.12044725 0.16040696 0.042548552
-0.032149106 0.12670313 0.1572098 -0.107914686 0.12919925 0.10147105 0.06785308 -0.015616581
-0.044210132 0.09953563 -0.15745546 -0.100078814 -0.12712261 0.120922044 -0.10689127 0.060483616
-0.11098595 0.06043811 0.11624749 0.050574318 -0.055173736 0.1269427 0.06662332 0.08079625
0.14138234 0.08131693 0.06953782 -0.049758084 -0.18912409 -0.049586345 -0.11192104 0.011802807
0.15560187 0.08561201 -0.118398815 -0.1797877 -0.019003006 0.08982916 -0.048521593 -0.099986166
-0.16367678 0.08311157 -0.16028869 0.03395757 0.063393936 0.11308779 -0.05802936 0.073883906
0.059240013 -0.12519258 -0.06046591 -0.092507586 0.08644341 0.12741192 -0.0077176094 0.072213486
-0.030485258 -0.059408195 0.017954752 -0.07488593 -0.06594416 0.12063281 -0.112973996 -0.0008986145
0.029797465 0.04936017 -0.040650025 -0.15474498 0.16464134 -0.12486766 -0.0815144 0.003983408
-0.16250056 -0.09639551 -0.021590099 -0.049108315 -0.19016863 -0.1600845 0.018987957 0.0667049
0.12188564 0.108086504 -0.08310202 0.008858485 0.055457935 0.0446834 0.044490207 0.028864248
0.12450832 -0.05144226 -0.05152085 -0.12244702 0.18183316 -0.1735944 0.14695834 -0.14317214
-0.09689113 0.14722861 -0.075119846 0.091862015 0.01838581 -0.038106665 -0.059782468 -0.0768062
0.18513796 -0.001956511 0.1575451 -0.03270881 -0.102681555 0.08772758 0.14679241 0.17061856
0.028697133 0.19189817 -0.048573863 -0.025999734 0.053325728 -0.020958677 0.18575653 0.011705911
0.11160009 -0.1339845 0.124396235 -0.028634675 0.14399494 0.086169496 -0.07594025 -0.15934981
0.20739079 0.072331816 0.011864886 -0.087366864 0.047813024 -0.008297935 0.11063556 0.04198283
0.08727958 -0.12574452 -0.16465057 0.15867436 -0.051602583 0.06507539 -0.021411654 -0.034554992
0.13156228 0.22880456 0.028288895 0.050073832 0.06430383 0.25042912 -0.072699204 0.033631723
-0.07967572 -0.06395511 0.14432177 -0.10624891 -0.065653004 -0.04050791 -0.073121406 -0.11712809
0.01902331 -0.14152634 -0.17475347 -0.018586317 -0.013392609 -0.1631514 -0.15565561 0.046769306
00000000: a413 003e 2e77 373e d209 9d3d 8405 fe3d
00000010: 765c 5c3e 48a5 4e3c 04be 313d 2946 2c3e
00000020: 7032 28be 1b33 4abc fc0e d93d 174c 1c3e
00000030: 201f 83bd bb0b 3dbe ea40 de3d 2eb2 bdbd
00000040: b343 22bd 2f2e fbbd 90ca 263e d8a1 133d
00000050: faf1 bf3d eb3a 5c3e fe55 d13d d04a 32be
00000060: ec80 143e 4452 fc3d 3897 85bd 295d 563e
00000070: 06b6 423e 7c11 dcbd 9770 763e 07be 013e
00000080: 0bdb 2f3d 30c2 3c3e c071 28bd 28c2 5cbd
00000090: aafa d33c eac6 003d 5a15 d33d 1626 c43b
000000a0: f786 313e 12a7 06bd cd1b 943d 58cc 3a3e
000000b0: 1cef a8bd 4b16 1e3e f8bc 583e 414e f73b
000000c0: 643d 213e 97a5 c13d 37ae 22be 371f d3bd
000000d0: 2c41 483e e4f0 513d e04e 33bd 8069 e23c
000000e0: e845 1d3e edad 15be 78ca 76bd 77d8 b6bb
000000f0: c419 513e 271c 093e d4d4 37bd 057d 253e
00000100: 113c ffbb 73ad abbd 7c3d 9cbd 7517 bf3d
00000110: 8903 bb3d 338f 063e 516f 1abe 8fe1 86bc
00000120: 8562 163e 1837 acbc 5fef a53d 8d85 3c3d
00000130: 9744 14be e6fd 083e 3283 b9bc 4090 733c
00000140: cb89 d03d f84b 453d 9a79 ec3d c7fb 05bd
00000150: 0065 053d 0cad f6bd b941 243e 6447 2e3d
00000160: c8ae 03bd 77be 013e 9bfb 203e 6002 ddbd
00000170: cf4c 043e 0ed0 cf3d 8ef6 8a3d b0dc 7fbc
00000180: af15 35bd 56d9 cb3d 013c 21be 1ff6 ccbd
00000190: 6e2c 02be faa5 f73d cfe9 dabd abbd 773d
000001a0: 9a4c e3bd f48d 773d 2a13 ee3d 0427 4f3d
000001b0: dbfd 61bd 44fd 013e cf71 883d 8178 a53d
000001c0: 88c6 103e 7e89 a63d d869 8e3d 22cf 4bbd
000001d0: bfa9 41be 0d1b 4bbd dc36 e5bd 9060 413c
000001e0: 1956 1f3e 5955 af3d 147b f2bd 441a 38be
000001f0: 31ac 9bbc 5af8 b73d 94be 46bd 8cc5 ccbd
00000200: e39a 27be 6636 aa3d b822 24be 1817 0b3d
00000210: aed4 813d 929a e73d 32b0 6dbd 7250 973d
00000220: a8a5 723d 7c32 00be 1aab 77bd 9e74 bdbd
00000230: 3e09 b13d 4578 023e 00e4 fcbb aae4 933d
00000240: 38bc f9bc 0256 73bd d815 933c cb5d 99bd
00000250: bb0d 87bd 560e f73d e95e e7bd 0091 6bba
00000260: d019 f43c e42d 4a3d a480 26bd 7875 1ebe
00000270: bd97 283e 9eba ffbd 06f1 a6bd 4087 823b
00000280: 8c66 26be 026b c5bd b8dd b0bc cd25 49bd
00000290: 91bb 42be 31ed 23be a28c 9b3c 949c 883d
000002a0: 2e9f f93d 755c dd3d 6431 aabd 2e23 113c
000002b0: dc27 633d f105 373d 5d3b 363d b774 ec3c
000002c0: 38fe fe3d 1fb5 52bd 8707 53bd 81c5 fabd
000002d0: 7932 3a3e bbc2 31be 3f7c 163e b89b 12be
000002e0: db6e c6bd 19c3 163e 6fd8 99bd 2722 bc3d
000002f0: d79d 963c bc15 1cbd 76de 74bd 924c 9dbd
00000300: ce94 3d3e cf38 00bb 8153 213e acf9 05bd
00000310: b54a d2bd 84aa b33d c050 163e a2b6 2e3e
00000320: 4016 eb3c f480 443e 63f5 46bd 65fd d4bc
00000330: 146c 5a3d 88b1 abbc f636 3e3e 26ca 3f3c
00000340: 978e e43d 3c33 09be 74c3 fe3d 4493 eabc
00000350: 6973 133e a279 b03d 9086 9bbd 992c 23be
00000360: 405e 543e b422 943d f064 423c 66ed b2bd
00000370: 97d7 433d 10f4 07bc e594 e23d 30f6 2b3d
00000380: a3bf b23d 2cc3 00be 299a 28be 887b 223e
00000390: 3b5d 53bd 3f46 853d 7e67 afbc 8989 0dbd
000003a0: 43b8 063e be4b 6a3e 1dbe e73c 381a 4d3d
000003b0: bab1 833d 3f38 803e 52e3 94bd 6bc1 093d
000003c0: 062d a3bd e6fa 82bd 16c9 133e 0799 d9bd
000003d0: 1575 86bd 9feb 25bd adc0 95bd dae0 efbd
000003e0: c6d6 9b3c 48ec 10be 93f2 32be 5542 98bc
000003f0: ac6c 5bbc 2911 27be 2f64 1fbe 2c91 3f3d

4.bias f4 [16]
0.07501865 0.016823202 -0.07092763 0.089754745 -0.08260911 0.06882737 0.1957029 0.07581441
0.15411097 -0.16246662 -0.0548883 -0.14001358 0.14041856 -0.1420432 -0.10260911 0.14406435
00000000: 61a3 993d d0d0 893c 8142 91bd 56d1 b73d
00000010: f72e a9bd 5df5 8c3d 5766 483e 9644 9b3d
00000020: 44cf 1d3e a65d 26be 8ed2 60bd b85f 0fbe
00000030: e2c9 0f3e c673 11be ba24 d2bd 9b85 133e

6.weight f4 [8, 16]
0.31142643 0.16663302 0.0120923985 0.15718816 0.23747027 -0.19578685 0.2946087 -0.062246073
0.17858256 0.010212779 -0.24398091 -0.08789343 0.08284818 -0.23194368 0.15279092 0.11429239
-0.22771698 -0.17941949 0.14035058 0.099573985 -0.09577608 0.009363267 0.12286217 0.10261962
0.21836928 0.22157636 -0.07574022 0.04165253 -0.14954461 0.0018673539 0.21570687 -0.29155716
0.14014776 -0.07846899 0.22450103 0.03658705 -0.21273449 0.14475471 -0.013864305 -0.2792857
0.25083154 0.1429933 -0.17526689 0.2028943 0.12869391 -0.14994796 -0.19598055 0.01968935
0.2006497 -0.23866765 0.21549061 -0.049493775 -0.11677703 -0.28326634 -0.24430597 -0.24679779
0.12929659 0.126658 0.18059072 0.24818277 -0.25816584 0.058386683 -0.008496599 0.040837944
-0.21250598 -0.21707284 -0.088338226 -0.22390056 0.0934104 -0.07956551 0.17574035 -0.20352319
0.23593193 -0.03863612 -0.21056426 0.015059918 0.06379254 0.0334889 -0.071992055 -0.030371394
0.24528977 -0.23377237 -0.22034411 -0.123698786 0.09811333 -0.26234666 0.24771744 -0.19073987
-0.028763605 -0.12804392 -0.06631976 0.07072598 0.1738396 0.063524306 -0.067589335 0.1409927
0.08173076 -0.058602493 0.10794164 0.0051933187 -0.18351176 0.1884522 -0.16854618 -0.049349
0.023192132 0.03642276 0.19178414 -0.23049083 -0.077559374 -0.019140571 0.12579487 0.031648055
0.11414913 0.14586577 0.24348427 0.2174541 0.07062891 0.010376807 -0.14572151 -0.032230936
0.242973 -0.08724505 0.1304462 -0.09802905 0.03451594 -0.20790137 0.06962849 -0.22114028
00000000: 4973 9f3e d9a1 2a3e 321f 463c eff5 203e
00000010: 682b 733e 597c 48be f4d6 963e bdf5 7ebd
00000020: 59de 363e 8053 273c 22d6 79be 7801 b4bd
00000030: 4eac a93d a582 6dbe 3975 1c3e 2112 ea3d
00000040: a42e 69be beb9 37be 10b8 0f3e 72ed cb3d
00000050: 4026 c4bd 6368 193c 299f fb3d 3c2a d23d
00000060: 329c 5f3e eae4 623e b01d 9bbd d89b 2a3d
00000070: 3922 19be 00c2 f43a 43e2 5c3e fb46 95be
00000080: e582 0f3e 5ab4 a0bd 99e3 653e 4ddc 153d
00000090: 12d7 59be 943a 143e 1c27 63bc 89fe 8ebe
000000a0: fe6c 803e d66c 123e 2a79 33be 86c3 4f3e
000000b0: 56c8 033e f58b 19be 20af 48be 8f4b a13c
000000c0: 1d77 4d3e 4b65 74be 92a9 5c3e fcb9 4abd
000000d0: cc28 efbd 4908 91be 582b 7abe 8fb8 7cbe
000000e0: 5366 043e a2b2 013e c6ec 383e a023 7e3e
000000f0: 502e 84be e026 6f3d 5235 0bbc b045 273d
00000100: 2b9b 59be 5848 5ebe acea b4bd 3046 65be
00000110: f44d bf3d 3ef3 a2bd 47f5 333e 6268 50be
00000120: 2498 713e e840 1ebd 289e 57be e0bd 763c
00000130: aaa5 823d a82b 093d 9270 93bd 6ecd f8bc
00000140: 3e2d 7b3e 0662 6fbe e3a1 61be ca55 fdbd
00000150: a4ef c83d 4d52 86be a4a9 7d3e 5051 43be
00000160: a7a1 ebbc f21d 03be a8d2 87bd c8d8 903d
00000170: 0203 323e 0819 823d 476c 8abd 6460 103e
00000180: 7562 a73d 2b09 70bd 8210 dd3d b72c aa3b
00000190: 82ea 3bbe 9df9 403e 5f97 2cbe 2d22 4abd
000001a0: 6dfd bd3c 0830 153d 1063 443e ca05 6cbe
000001b0: 73d7 9ebd b0cc 9cbc 5fd0 003e 64a1 013d
000001c0: 05c7 e93d d65d 153e f153 793e 4aac 5e3e
000001d0: e4a5 903d 7c03 2a3c 0538 15be 9604 04bd
000001e0: eacd 783e 88ad b2bd b093 053e 74c3 c8bd
000001f0: 9660 0d3d 19e4 54be 6299 8e3d 9972 62be

6.bias f4 [8]
0.22452223 0.15442465 0.16280924 0.08708534 -0.015480084 -0.041442093 -0.18025772 -0.2329847
00000000: 28e9 653e 7f21 1e3e 77b7 263e cc59 b23d
00000010: 2ea0 7dbc 2fbf 29bd 7b95 38be 8b93 6ebe
