logs/best_model_4_2.pt (torch, 46229 bytes, 8 tensors)

0.weight f4 [64, 126]
0.0010851189 -0.03318292 -0.07256899 0.009081042 0.0220387 0.060448352 0.4709759 0.03581716
-0.12013652 -0.25730988 -0.089801125 -0.21194902 0.16999835 -0.09685704 -0.07811025 -0.07860006
-0.25595033 -0.28861138 -0.020663328 -0.33757588 -0.4567095 -0.015739568 0.057001315 -0.42239344
-0.3841187 -0.16095132 0.1758336 0.11472051 0.26372218 -0.0138099445 0.07528596 -0.19558777
-0.13441396 -0.045310788 -0.076022424 0.123692095 -0.08667216 0.07563371 -0.07307355 -0.084520355
-0.15179116 -0.026390461 0.0642865 -0.07616264 0.13511579 0.028966084 -0.3286938 -0.315825
-0.19296522 0.06327847 0.2212467 -0.15575083 -0.15555276 -0.018877981 -0.020234393 -0.08079339
-0.07486048 0.015016003 -0.23505266 -0.105491325 0.12286227 -0.13127185 -0.13782747 -0.044643793
-0.053701386 -0.13392222 -0.04456258 0.086298116 0.10771007 0.08705873 0.13058834 0.2898916
0.21390559 0.11243019 0.012769743 0.007929066 -0.10276528 0.063710146 0.04536353 0.1259066
0.154435 0.004266409 0.070458 0.000559692 -0.017096415 -0.088937625 -0.05263082 0.086661346
-0.0041195974 -0.0006428146 -0.002800431 0.1726673 0.18250021 0.015986536 -0.04062708 -0.07985562
-0.09527189 -0.18296377 0.13209893 0.05133181 0.04736313 -0.02960766 0.043414418 -0.07757573
-0.13143054 0.20378727 0.06875227 0.12446889 0.086271085 0.06271633 0.11917058 0.03710859
0.09531275 0.09964222 0.12257597 -0.100255765 -0.07489679 -0.08613887 0.018301297 0.068209924
0.046203323 0.21213996 0.21948019 0.040339306 0.1112608 -0.0019368881 -0.022130568 -0.14699109
0.19829276 -0.037929147 0.116688736 0.0023195988 0.03496563 -0.02616045 0.07307298 0.1928878
0.28868586 0.091512874 -0.0068095024 -0.026621435 0.8912823 -0.14665255 -0.022940444 0.009709346
0.018810075 0.07567854 0.12556149 -0.1363877 -0.031227803 0.09288572 -0.02958348 0.19388345
0.20561412 0.24404281 0.17842327 0.07962385 0.31335706 -0.0009066301 -0.039133113 0.08919067
0.105051875 0.16965601 0.0034814416 0.15372157 0.12750149 0.14869054 -0.012350275 0.090116255
0.44324335 -0.18057582 0.08542208 -0.22901943 0.09696752 0.47457266 0.036811754 0.14641726
0.17553425 0.31255835 0.4209697 -0.004833763 0.058051456 0.07764819 0.14471623 0.16353339
-0.034328334 0.074529625 0.055040274 -0.019914325 0.13328195 0.08614271 -0.054136116 -0.06565491
-0.0529682 0.007129608 -0.03594251 0.025286632 -0.1470541 -0.2327228 -0.3015553 -0.21451227
-0.055309094 -0.10017744 -0.1252455 -0.117431894 -0.13597743 -0.037436217 -0.15462068 -0.05801778
0.014907717 0.076849505 -0.026170352 -0.041344978 0.03660895 -0.003011676 0.008467437 0.051154036
0.07923006 0.052989095 0.08923029 0.03652384 0.09229356 -0.00043121105 0.07315473 0.15757981
0.002852989 0.0384745 0.07463665 0.067779966 0.05850947 0.20260876 0.34589195 0.27738443
0.25500047 0.140316 0.15361995 0.24579513 0.10216351 0.13971101 -0.15295859 0.060237665
0.038779445 0.12812462 0.13359402 0.095723726 0.20297794 -0.023554942 -0.0442305 -0.063407645
-0.072808206 0.047530524 0.117834724 0.14120618 0.20747833 -0.007968842 0.11874702 -0.09425033
00000000: 8c3a 8e3a d0ea 07bd 0d9f 94bd a7c8 143c
00000010: 818a b43c b198 773d c123 f13e 04b5 123d
00000020: 230a f6bd 1fbe 83be a7e9 b7bd 2a09 59be
00000030: 0c14 2e3e fc5c c6bd 44f8 9fbd 11f9 a0bd
00000040: ec0b 83be dfc4 93be 2446 a9bc bfd6 acbe
00000050: d4d5 e9be 44f0 80bc 367a 693d f443 d8be
00000060: 35ab c4be 6cd0 24be b90d 343e 96f2 ea3d
00000070: 9806 873e 1b43 62bc 872f 9a3d 2948 48be
00000080: d0a3 09be ce97 39bd a5b1 9bbd 4852 fd3d
00000090: 2c81 b1bd d9e5 9a3d 96a7 95bd 0219 adbd
000000a0: 246f 1bbe cf30 d8bc a4a8 833d 28fb 9bbd
000000b0: cb5b 0a3e 484a ed3c 8e4a a8be d0b3 a1be
000000c0: ad98 45be 2498 813d 7f8e 623e 257d 1fbe
000000d0: 3949 1fbe ffa5 9abc 99c2 a5bc 0177 a5bd
000000e0: 7450 99bd ae05 763c a5b1 70be d60b d8bd
000000f0: 379f fb3d 216c 06be a522 0dbe 69dc 36bd
00000100: fcf5 5bbd e822 09be 4087 36bd 11bd b03d
00000110: 1997 dc3d d94b b23d f3b8 053e ac6c 943e
00000120: 110a 5b3e cd41 e63d 2f38 513c eae8 013c
00000130: 9a76 d2bd 777a 823d 1ccf 393d a9ed 003e
00000140: 3524 1e3e 3ccd 8b3b 494c 903d 4bb8 123a
00000150: c80d 8cbc ee24 b6bd 6a93 57bd 817b b13d
00000160: b0fd 86bb 8f82 28ba 7087 37bb b2cf 303e
00000170: 56e1 3a3e 32f6 823c 9568 26bd 588b a3bd
00000180: e91d c3bd db5a 3bbe f144 073e 4e41 523d
00000190: d7ff 413d c38b f2bc 51d3 313d 06e0 9ebd
000001a0: ba95 06be 9cad 503e fdcd 8c3d 8ce9 fe3d
000001b0: e5ae b03d 6b71 803d b40f f43d 2dff 173d
000001c0: 5533 c33d 3811 cc3d 1c09 fb3d e552 cdbd
000001d0: 7d63 99bd 9369 b0bd 9aec 953c a5b1 8b3d
000001e0: b23f 3d3d 383b 593e 6abf 603e d43a 253d
000001f0: b4dc e33d 2edf fdba 2a4b b5bc d584 16be
00000200: 420d 4b3e 985b 1bbd 81fa ee3d 6904 183b
00000210: 1f38 0f3d 714e d6bc 49a7 953d 6184 453e
00000220: a2ce 933e 1a6b bb3d 3f22 dfbb 3215 dabc
00000230: 142b 643f 162c 16be 99ed bbbc f313 1f3c
00000240: 9617 9a3c 5afd 9a3d 3193 003e 38a9 0bbe
00000250: 73d1 ffbc de3a be3d 0e59 f2bc 6289 463e
00000260: 828c 523e 5ce6 793e 97b4 363e d411 a33d
00000270: 5670 a03e ebaa 6dba 0b4a 20bd 99a9 b63d
00000280: 7025 d73d 4eba 2d3e e628 643b 3069 1d3e
00000290: c08f 023e 5542 183e cf58 4abc df8e b83d
000002a0: cbf0 e23e dee8 38be c5f1 ae3d 1284 6abe
000002b0: e896 c63d 30fb f23e ecc7 163d 68ee 153e
000002c0: 40bf 333e a607 a03e 5789 d73e 8b64 9ebb
000002d0: 5dc7 6d3d 0406 9f3d 7e30 143e 4c75 273e
000002e0: de9b 0cbd fda2 983d e971 613d 5e23 a3bc
000002f0: 107b 083e 976b b03d d5bd 5dbd 1576 86bd
00000300: 2ff5 58bd 7d9f e93b 7438 13bd e925 cf3c
00000310: 5a95 16be e34e 6ebe 7565 9abe 1ba9 5bbe
00000320: ca8b 62bd d429 cdbd 5b40 00be 2280 f0bd
00000330: ab3d 0bbe b856 19bd e254 1ebe 0da4 6dbd
00000340: 7f3f 743c 4663 9d3d 3563 d6bc 5a59 29bd
00000350: 44f3 153d 8a5f 45bb 01bb 0a3c e586 513d
00000360: 5f43 a23d 180b 593d 5fbe b63d 069a 153d
00000370: 6804 bd3d 2b14 e2b9 26d2 953d 9a5c 213e
00000380: 36f9 3a3b 7097 1d3d 1adb 983d 39d0 8a3d
00000390: a0a7 6f3d ac78 4f3e c018 b13e 5505 8e3e
000003a0: 6c8f 823e ffae 0f3e 8c4e 1d3e b8b1 7b3e
000003b0: 1a3b d13d 6710 0f3e 2da1 1cbe c5bb 763d
000003c0: 32d7 1e3d 1a33 033e dfcc 083e cd0a c43d
000003d0: 73d9 4f3e 4bf6 c0bc 0a2b 35bd dedb 81bd
000003e0: 781c 95bd 5eaf 423d 5553 f13d 5a98 103e
000003f0: 3375 543e bf8f 02bc a331 f33d 5106 c1bd

0.bias f4 [64]
0.25549075 0.3007433 0.15102835 0.12251832 0.08991647 0.17243996 0.101590954 0.13564822
0.17627643 0.41517952 -0.070075035 0.328202 0.2912134 0.0077463887 -0.10341063 0.10722539
0.2508443 -0.09321958 0.03336073 0.08569025 0.29308942 0.0060873316 0.42925116 -0.0044510206
-0.04191586 0.10356199 0.37146875 -0.08807641 0.2152155 0.3068644 -0.016734684 0.4486946
0.16245882 -0.1480157 0.09357804 0.356378 0.29475775 0.47935647 0.10082412 -0.16587117
-0.05087998 0.069595024 0.16618022 0.18265955 0.52563304 0.224507 0.5996192 0.019041086
-0.281899 0.39393854 -0.028669512 0.19488929 0.03784715 0.0234636 0.30853137 0.30658013
0.001297227 0.2329419 0.4366288 -0.24489658 0.4115218 -0.01796205 0.23714423 0.17696965
00000000: afcf 823e 07fb 993e 2da7 1a3e e3ea fa3d
00000010: 2026 b83d 1a94 303e eb0e d03d 5ee7 0a3e
00000020: cf81 343e 6992 d43e 8083 8fbd 180a a83e
00000030: ec19 953e 6bd5 fd3b f4c8 d3bd fc98 db3d
00000040: aa6e 803e e8e9 bebd 43a5 083d 5f7e af3d
00000050: d10f 963e 3d78 c73b cfc6 db3e ded9 91bb
00000060: f7af 2bbd 4f18 d43d 2731 be3e 6861 b4bd
00000070: 7461 5c3e 551d 9d3e 2d17 89bc 4cbb e53e
00000080: 9b5b 263e 6d91 17be d8a5 bf3d 2d77 b63e
00000090: 7dea 963e 366e f53e e07c ce3d 22da 29be
000000a0: 8767 50bd d687 8e3d 262b 2a3e 1b0b 3b3e
000000b0: e38f 063f 2ae5 653e a580 193f 0dfc 9b3c
000000c0: 1155 90be 50b2 c93e 53dc eabc 0f91 473e
000000d0: 9d05 1b3d bc36 c03c d3f7 9d3e 12f8 9c3e
000000e0: b707 aa3a 5288 6e3e cf8d df3e 2bc6 7abe
000000f0: fcb2 d23e 2625 93bc f0d5 723e 8837 353e

2.weight f4 [32, 64]
-0.12283161 0.0003732009 0.07226212 0.06878526 -0.2299737 0.19266462 -0.16517538 -0.12196027
0.070228495 0.3513415 -0.20905451 0.5949552 -0.18254259 -0.11881974 0.0032025909 -0.08158753
0.09300116 -0.039046157 0.48140806 0.58228034 0.3084738 -0.16867189 0.2769107 -0.2524883
0.094218224 0.16590665 0.024358513 0.08536963 -0.08778245 0.21129367 -0.024155619 0.40999797
-0.30816805 -0.12178384 -0.0153847905 0.33257654 0.08053464 0.15055615 -0.06798772 -0.31112283
-0.08209158 -0.047115073 0.31572896 -0.08702943 -0.0025762976 -0.21505296 0.3064381 0.13013841
-0.0013710484 0.13656397 0.46050075 0.08941433 -0.23108926 -0.009777655 0.37281147 -0.15671742
-0.107975274 -0.2294678 -0.004230104 0.1268368 0.13203806 0.061592296 0.19636539 -0.04477626
0.19602962 0.027736207 -0.186757 0.01796818 -0.29578742 0.10478372 0.1292461 -0.1446025
0.03002067 0.043987546 0.16775934 0.46489975 -0.24664165 -0.2803053 -0.07116612 0.20781124
0.124898694 0.11199156 -0.09680885 0.57581985 0.2046182 -0.31520978 0.54697454 0.07415722
-0.043520074 0.16718492 0.13412347 0.027445734 -0.30773017 0.18531309 -0.22486667 0.055429
-0.39681542 0.17157578 0.16487011 0.056557957 0.04108571 0.11843007 0.09730301 0.030197334
0.027231667 0.18019518 0.3216256 -0.43701446 0.21000911 0.22742444 0.0615565 -0.06912317
0.18883248 -0.031529836 0.36243728 -0.02193789 -0.0071125627 0.19786586 0.44394967 0.16740344
0.09695817 -0.3185611 0.114607506 0.16147219 0.25987926 -0.15381575 -0.08207936 -0.19457051
0.11901349 0.012507537 -0.103017025 0.13183917 -0.4083894 0.06302388 0.116165414 -0.27957273
0.029632607 -0.009842562 0.04335399 0.2185451 -0.2698278 -0.45101306 0.027691336 0.19142015
0.030325368 -0.0067156684 0.07665976 0.7792671 0.18724509 -0.318931 0.75028855 -0.11817631
-0.08663844 0.34260443 0.12443506 -0.0048009157 -0.37793532 0.008327306 -0.17343378 0.15067576
-0.3898732 0.21065772 0.27307191 0.13684157 0.020180885 0.1220749 0.13650037 0.15528832
0.020410327 0.22472781 0.25470582 -0.26854214 0.019991731 0.23166831 0.2425785 -0.13063115
0.111244515 0.09561763 0.69604224 -0.0027324506 0.02044645 0.108151786 0.36236337 0.06076801
0.116623335 -0.22548355 0.06283154 0.26141652 0.33609486 -0.15189959 0.04409824 0.16926846
-0.050289936 0.05886111 -0.1484324 -0.088873826 -0.06263543 -0.13689859 0.048445184 0.02968687
-0.12513524 -0.08419931 0.046258356 0.025607828 0.05386268 -0.14580661 0.03713955 0.014136312
0.06695244 0.11404646 -0.097380534 -0.095765114 -0.08023658 -0.045498278 0.08789307 0.0348859
0.10960092 0.06835552 -0.17526725 0.05266756 -0.054628707 -0.012403374 -0.07345856 -0.10533414
-0.11469182 0.060592618 -0.122716226 0.043955866 -0.101994984 -0.09015699 -0.1540117 -0.11068721
-0.09740553 -0.06464398 0.0025375965 -0.034423 -0.11038843 -0.013593202 -0.045918927 -0.14747486
-0.037348732 0.04664463 -0.04528283 0.04734687 -0.10463284 -0.11249786 -0.117277555 0.089714736
0.060563963 -0.114803344 0.05118336 -0.05494565 0.05032964 0.0128075965 -0.084219135 0.04966032
00000000: 248f fbbd 2daa c339 2afe 933d 49df 8c3d
00000010: 3a7e 6bbe e049 453e bc23 29be 4ec6 f9bd
00000020: f5d3 8f3d 08e3 b33e 6312 56be fc4e 183f
00000030: 72ec 3abe c457 f3bd 8fe2 513b 5d17 a7bd
00000040: 6477 be3d ddee 1fbd 1e7b f63e 5310 153f
00000050: 47f0 9d3e 53b8 2cbe 3dc7 8d3e 2546 81be
00000060: 7cf5 c03d 6fe3 293e 818b c73c 46d6 ae3d
00000070: 49c7 b3bd 5e5d 583e 01e2 c5bc 41eb d13e
00000080: 34c8 9dbe ce69 f9bd 7d10 7cbc 7947 aa3e
00000090: 58ef a43d 642b 1a3e 253d 8bbd 7e4b 9fbe
000000a0: a11f a8bd bcfb 40bd 3aa7 a13e 7c3c b2bd
000000b0: 1ad7 28bb d836 5cbe 74e5 9c3e 0143 053e
000000c0: c0b4 b3ba 6dd7 0b3e c1c6 eb3e dc1e b73d
000000d0: aaa2 6cbe 7532 20bc 25e1 be3e 887a 20be
000000e0: 2422 ddbd 9bf9 6abe af9c 8abb 82e1 013e
000000f0: fc34 073e 3448 7c3d 0214 493e 5067 37bd
00000100: fdbb 483e 0b37 e33c 3a3d 3fbe 0132 933c
00000110: 7371 97be d998 d63d 1759 043e ae12 14be
00000120: e8ed f53c 492c 343d 1bc9 2b3e 5707 ee3e
00000130: a18f 7cbe 2d84 8fbe 8bbf 91bd 78cc 543e
00000140: e3ca ff3d d55b e53d b843 c6bd ee68 133f
00000150: 6f87 513e 2d63 a1be 8606 0c3f bedf 973d
00000160: 1b42 32bd 8632 2b3e aa57 093e e0d5 e03c
00000170: cf8e 9dbe b7c2 3d3e 7343 66be 8509 633d
00000180: 642b cbbe 90b1 2f3e b6d3 283e 51a9 673d
00000190: 7d49 283d 778b f23d cd46 c73d 6660 f73c
000001a0: f214 df3c 1685 383e 1cac a43e 5cc0 dfbe
000001b0: a10c 573e f4e1 683e ab22 7c3d 7390 8dbd
000001c0: 4d5d 413e 6e25 01bd 6191 b93e 17b7 b3bc
000001d0: 8010 e9bb 599d 4a3e 5f4d e33e cf6b 2b3e
000001e0: 0192 c63d 711a a3be 57b7 ea3d f758 253e
000001f0: e50e 853e e081 1dbe 3919 a8bd 7e3d 47be
00000200: 58bd f33d 6aec 4c3c 97fa d2bd d900 073e
00000210: 6a18 d1be aa12 813d 22e8 ed3d 2824 8fbe
00000220: 15c0 f23c b242 21bc f493 313d 49ca 5f3e
00000230: df26 8abe 2feb e6be f1d8 e23c a503 443e
00000240: e86c f83c 1c0f dcbb cbff 9c3d 0c7e 473f
00000250: 2dbd 3f3e ed4a a3be e912 403f 6c06 f2bd
00000260: 7f6f b1bd d969 af3e cfd7 fe3d 0051 9dbb
00000270: bd80 c1be 416f 083c a098 31be bf4a 1a3e
00000280: 769d c7be a8b6 573e 15d0 8b3e 3220 0c3e
00000290: 6252 a53c 6802 fa3d c1c6 0b3e e703 1f3e
000002a0: 8f33 a73c 0c1f 663e cd68 823e 5b7e 89be
000002b0: b3c5 a33c 753a 6d3e 8066 783e 2cc4 05be
000002c0: 2ad4 e33d 2dd3 c33d d32f 323f ea12 33bb
000002d0: 507f a73c af7e dd3d b187 b93e e0e7 783d
000002e0: 37d8 ee3d 29e5 66be d3ad 803d 63d8 853e
000002f0: a014 ac3e 918b 1bbe 5ba0 343d b654 2d3e
00000300: d2fc 4dbd 5918 713d aafe 17be 7b03 b6bd
00000310: 0147 80bd 252f 0cbe 756e 463d e131 f33c
00000320: 7423 00be b070 acbd 6779 3d3d 82c7 d13c
00000330: 1d9f 5c3d 544e 15be a41f 183d fd9b 673c
00000340: 5c1e 893d 3191 e93d 726f c7bd 8020 c4bd
00000350: 1353 a4bd 675c 3abd 4801 b43d 84e4 0e3d
00000360: 7276 e03d fbfd 8b3d 4279 33be f0b9 573d
00000370: 5ac2 5fbd 8537 4bbc 7171 96bd 6db9 d7bd
00000380: 8ce3 eabd f72f 783d a552 fbbd 110b 343d
00000390: bfe2 d0bd 3aa4 b8bd 3eb5 1dbe faaf e2bd
000003a0: 8d7c c7bd 1064 84bd ce4d 263b 22ff 0cbd
000003b0: 5413 e2bd 06b6 5ebc 7c15 3cbd a603 17be
000003c0: fcfa 18bd 710e 3f3d 7d7a 39bd cbee 413d
000003d0: be49 d6bd 4765 e6bd 372f f0bd 5cbc b73d
000003e0: eb11 783d 041e ebbd a5a5 513d b10e 61bd
000003f0: 7426 4e3d f4d6 513c 157b acbd 9f68 4b3d

2.bias f4 [32]
0.04851 0.36210978 0.3528195 -0.113157086 0.20184132 -0.20506583 0.48504677 -0.11710429
0.8516918 0.27963895 0.15506536 -0.11959491 -0.013394522 0.28576437 -0.047897365 0.06835414
0.32182628 0.12994999 0.019763729 0.27704573 0.32454795 0.051988106 -0.11121339 0.13052799
0.07009215 0.30876473 0.06109294 0.17892413 0.4126469 -0.14578603 0.18345076 0.2410624
00000000: 6cb2 463d 7466 b93e c2a4 b43e e7be e7bd
00000010: 7eaf 4e3e c7fc 51be 0d58 f83e 60d4 efbd
00000020: 7908 5a3f d62c 8f3e 74c9 1e3e 2dee f4bd
00000030: b274 5bbc b54f 923e 0730 44bd 41fd 8b3d
00000040: 6ac6 a43e 9c11 053e 8be7 a13c f0d8 8d3e
00000050: 262b a63e 7bf1 543d d9c3 e3bd 21a9 053e
00000060: 798c 8f3d 6916 9e3e 973c 7a3d e337 373e
00000070: 7446 d33e ef48 15be 84da 3b3e 10d9 763e

4.weight f4 [16, 32]
-0.4369408 0.017689401 0.18930815 0.13418426 0.88370556 -5.2618847 0.2825541 0.018424459
0.5559139 -0.09095063 1.3330212 0.2838404 -0.0079013035 0.11733677 0.13864402 -0.3927322
-0.24158393 -0.07761723 0.050587866 0.015019426 0.058255404 -0.43461502 -0.1188414 -0.42662135
-0.15257767 -0.12453951 1.4069736 0.15554814 0.17252822 0.011163563 0.21330532 0.2354395
-0.08886716 -0.052660145 -0.1835321 -0.15676476 -0.15219107 0.0058792173 0.12214158 0.06482598
-0.17671412 -0.09473612 -0.14678042 -0.13731845 -0.1753297 0.099327914 -0.0758623 0.08667504
-0.14033219 -0.018090831 0.03819167 0.08694027 -0.08779958 -0.138071 -0.035790723 0.07960324
-0.09399845 0.08279787 -0.02584746 0.10850507 -0.12177543 -0.16925576 0.14715196 -0.14599033
-0.49303713 -0.21660714 -0.18768229 -0.089538015 0.64029473 2.9049196 0.14404398 0.12198138
0.4718495 -0.10535302 0.564623 1.003784 0.049534973 0.72371423 0.10791345 0.6783593
-0.35957235 0.53606737 0.07558439 -0.19163525 0.068212464 0.25054225 0.37615898 0.33572516
0.61643356 0.18390271 0.9588659 0.1061541 0.05046931 -0.08282062 -0.35833946 -0.26933506
0.7882952 -0.28966147 -0.10391482 -0.14904188 0.4857952 -3.885421 0.74216825 -0.049836174
-0.5495459 0.038906805 1.4515046 -1.1191083 0.14409003 -0.28123218 -0.12971337 0.32614538
-0.19042963 -0.14257562 -0.056017578 -0.27144146 -0.50068593 -0.3804617 0.5640292 0.2363826
0.27639303 0.13135873 0.26554102 0.30927536 0.51396763 -0.036858685 0.07309667 0.03423383
0.64383954 0.28930613 0.11508778 -0.07200347 -0.4178831 0.9210782 0.12258814 0.039205927
0.29824662 0.11147909 -1.1253376 -0.38264215 0.04883503 0.108676404 0.029417736 -0.5642133
-0.048677012 0.05122473 0.10276717 0.061125908 -0.012745723 0.22351559 -0.20551345 -0.16237484
-0.11055095 0.25932872 -0.41757077 0.12625152 0.19103803 0.17428932 0.14738435 0.33061948
-0.8253908 -0.14434803 0.07253316 0.14222056 0.3702881 1.5747535 0.19187121 -0.114352
0.3347286 0.01149997 1.2667029 0.014896876 -0.07593642 0.34798273 -0.073623136 -0.033383373
0.14203896 -0.20051733 -0.3501812 0.3219061 -0.2613568 0.0030250384 -0.28466594 -0.014534806
-0.14297658 0.06113611 0.6447997 -0.11551069 0.16238862 0.10428496 0.318497 -0.0149959065
-0.15900272 -0.18598504 -0.033459917 -0.16855094 0.02379959 0.12564562 0.014409148 0.13677962
-0.015069568 0.09145569 -0.124983355 -0.14623496 0.13798942 0.0039547877 -0.086227074 0.020133594
-0.1895109 -0.08338268 -0.0175844 0.05061073 -0.15126166 -0.05451441 -0.12998585 -0.07705786
0.025646718 -0.19496918 -0.038316246 0.03388983 0.11830251 -0.16045961 0.07881988 0.0026425712
0.35360605 0.26533023 0.2108108 -0.05917087 -0.2645822 -1.0754355 0.051408138 0.03669955
0.15883294 0.21500845 -1.0933154 -0.25700283 0.06792503 -0.24892995 -0.04964714 -0.062460296
0.3434075 -0.12852588 0.2959635 0.08285884 0.2676014 0.0898939 -0.1503951 -0.08158631
-0.16869622 0.32040572 -0.6593337 0.221802 0.011324506 -0.07647479 0.18269002 0.0013228599
00000000: b4b6 dfbe 5de9 903c ffd9 413e 9967 093e
00000010: 873a 623f 5c61 a8c0 eeaa 903e e4ee 963c
00000020: 6050 0e3f 5344 babd 70a0 aa3f 8753 913e
00000030: 7874 01bc 434e f03d b3f8 0d3e 3214 c9be
00000040: c761 77be c8f5 9ebd 3935 4f3d 0a14 763c
00000050: 389d 6e3d dc85 debe 1f63 f3bd 1d6e dabe
00000060: 523d 1cbe 920e ffbd b617 b43f 0348 1f3e
00000070: 3dab 303e 60e7 363c b66c 5a3e 0d17 713e
00000080: fcff b5bd 2ab2 57bd d7ef 3bbe f186 20be
00000090: fad7 1bbe 73a6 c03b 5d25 fa3d 7cc3 843d
000000a0: 8cf4 34be 0305 c2bd 9b4d 16be 359d 0cbe
000000b0: a189 33be 6f6c cb3d b25d 9bbd af82 b13d
000000c0: 3eb3 0fbe 3933 94bc de6e 1c3d be0d b23d
000000d0: 44d0 b3bd 7c62 0dbe 4b99 12bd 0607 a33d
000000e0: 4282 c0bd ee91 a93d 0dbe d3bc e837 de3d
000000f0: 6665 f9bd 6251 2dbe 01af 163e 7d7e 15be
00000100: 5d6f fcbe 43ce 5dbe c92f 40be b55f b7bd
00000110: 5bea 233f 34ea 3940 4480 133e 60d1 f93d
00000120: 4296 f13e 53c3 d7bd 228b 103f fe7b 803f
00000130: 2fe5 4a3d 5645 393f ba01 dd3d f5a8 2d3f
00000140: de19 b8be b63b 093f fdcb 9a3d 083c 44be
00000150: fab2 8b3d 1347 803e e997 c03e 2be4 ab3e
00000160: 97ce 1d3f fe50 3c3e 3c78 753f 5267 d93d
00000170: e8b8 4e3d db9d a9bd 4578 b7be 49e6 89be
00000180: b7cd 493f 824e 94be 4bd1 d4bd 6f9e 18be
00000190: 26ba f83e bdaa 78c0 bdfe 3d3f 0421 4cbd
000001a0: 0aaf 0cbf be5c 1f3d e7ca b93f f13e 8fbf
000001b0: 568c 133e aafd 8fbe 95d3 04be 87fc a63e
000001c0: fcff 42be 58ff 11be b072 65bd 60fa 8abe
000001d0: f42c 00bf e0cb c2be 3864 103f 480e 723e
000001e0: 6383 8d3e e782 063e fef4 873e 5759 9e3e
000001f0: 6293 033f 22f9 16bd b5b3 953d c638 0c3d
00000200: abd2 243f ef1f 943e 24b3 eb3d 8e76 93bd
00000210: c6f4 d5be c8cb 6b3f 7e0f fb3d 6596 203d
00000220: c8b3 983e 264f e43d 100b 90bf ace9 c3be
00000230: 3e07 483d bc91 de3d 77fd f03c 4870 10bf
00000240: 8c61 47bd 06d1 513d 9877 d23d 295f 7a3d
00000250: 70d3 50bc 45e1 643e 1e72 52be 9745 26be
00000260: 8968 e2bd bcc6 843e d6cb d5be 1448 013e
00000270: 799f 433e e678 323e eceb 163e f546 a93e
00000280: d04c 53bf f8cf 13be 448c 943d 44a2 113e
00000290: 6796 bd3e 8691 c93f e379 443e 6231 eabd
000002a0: 8c61 ab3e 5f6a 3c3c 5223 a23f 0712 743c
000002b0: 8e84 9bbd cb2a b23e bac7 96bd 01bd 08bd
000002c0: a972 113e 6a54 4dbe f34a b3be e0d0 a43e
000002d0: 8fd0 85be b93f 463b bcbf 91be 6523 6ebc
000002e0: 7468 12be dc69 7a3d 9811 253f de90 ecbd
000002f0: 3449 263e 5a93 d53d 0a12 a33e 64b1 75bc
00000300: 9cd1 22be dd72 3ebe 440d 09bd 9e98 2cbe
00000310: 5cf7 c23c 3fa9 003e 5914 6c3c f50f 0c3e
00000320: 59e6 76bc 1f4d bb3d 46f7 ffbd 9ebe 15be
00000330: 194d 0d3e 2a97 813b d297 b0bd 35ef a43c
00000340: 250f 42be 8ac4 aabd 290d 90bc 324d 4f3d
00000350: 56e4 1abe 814a 5fbd 031b 05be 83d0 9dbd
00000360: 1119 d23c 00a6 47be 7ff1 1cbd 10d0 0a3d
00000370: 9648 f23d 864f 24be 516c a13d fd2e 2d3b
00000380: da0b b53e 5dd9 873e c9de 573e 275d 72bd
00000390: 5177 87be dfa7 89bf 5791 523d 4452 163d
000003a0: 1aa5 223e 2d2b 5c3e c2f1 8bbf e095 83be
000003b0: 471c 8b3d 7ee7 7ebe cd5a 4bbd 5ed6 7fbd
000003c0: 1cd3 af3e 4a9c 03be 8788 973e e5b1 a93d
000003d0: 0d03 893e 4b1a b83d 2c01 1abe b916 a7bd
000003e0: b4be 2cbe 380c a43e 18ca 28bf 1020 633e
000003f0: 6c8a 393c d19e 9cbd 1813 3b3e d063 ad3a

4.bias f4 [16]
0.68167716 -0.0365447 0.11916577 -0.474906 0.227609 0.3187555 -0.11887666 0.28143916
0.48830584 0.17177625 0.4265238 0.08020292 0.40704906 0.09271319 0.24683793 -0.21206543
00000000: 6582 2e3f e5af 15bd 2f0d f43d e126 f3be
00000010: 5512 693e ec33 a33e 9b75 f3bd cb18 903e
00000020: 3903 fa3e 1de6 2f3e 5461 da3e 6e41 a43d
00000030: bc68 d03e 6ae0 bd3d 15c3 7c3e ae27 59be

6.weight f4 [8, 16]
1.1076081 0.14890724 -0.8517843 0.854075 -0.08325118 -0.73393476 0.056893826 0.20688115
0.42412665 -0.66419744 0.23877914 0.3609451 0.4628516 0.40215862 0.1057914 0.13715963
-1.7569473 -0.17826882 0.32313332 -1.236614 0.3362801 -0.34652454 0.03428674 0.53335434
-0.14344262 0.29950824 0.061535817 -0.055370245 -0.087662615 0.18540682 0.09843275 0.20773387
-0.09848536 -0.0016506511 -0.39462397 -0.11077446 0.42044038 -0.095727384 0.03160748 0.3156487
0.23133102 -0.224858 0.43075833 -0.016920755 0.3609183 0.25272617 0.42278135 0.029885734
0.072946236 0.11902879 -0.27921435 0.34862298 0.13636595 -1.7354572 0.16591275 0.44724494
0.055034373 -0.4391389 0.20408548 0.11930225 -0.1220391 0.6423609 0.40733802 -0.22638577
-0.1903536 0.10133736 -0.7112634 -0.044327684 0.033304524 -0.8714229 -0.22120202 0.33805904
0.6222162 -0.42545828 0.3530496 0.18229239 0.3469017 0.13098288 0.0840752 0.0974249
-0.51491594 0.031236293 -0.18316376 0.001049283 0.43617016 -0.64039135 0.094379544 -0.0070168353
-0.35009563 -0.19870888 0.056757815 0.41855225 -0.046122517 0.57304484 0.45296156 0.016448706
0.022312313 0.017870527 -0.595833 0.12697886 0.23444024 -0.03691898 0.08527884 0.4279603
0.22776888 -0.22480857 0.5448642 0.0054453956 0.22008087 -0.020041166 0.43707782 -0.22941326
-0.22119209 -0.21666399 -0.34901798 -0.09566352 -0.19095069 -1.5063387 0.21531433 0.33899
-0.2622127 -0.34482098 0.14123495 0.4960501 0.23676318 0.3523453 0.35191557 -0.17858875
00000000: 1ac6 8d3f 247b 183e 890e 5abf a9a4 5a3f
00000010: 987f aabd 26e3 3bbf 8009 693d a7d8 533e
00000020: 2127 d93e d808 2abf 8582 743e cccd b83e
00000030: e3fa ec3e bce7 cd3e 29a9 d83d 9373 0c3e
00000040: a6e3 e0bf 1a8c 36be bb71 a53e 5e49 9ebf
00000050: e82c ac3e aa6b b1be 4170 0c3d e989 083f
00000060: 9fe2 12be 2559 993e fb0c 7c3d e9cb 62bd
00000070: 7588 b3bd 49db 3d3e 1c97 c93d 30b8 543e
00000080: b1b2 c9bd a95a d8ba 270c cabe b8dd e2bd
00000090: f643 d73e b80c c4bd d876 013d b59c a13e
000000a0: 0ae2 6c3e 2d41 66be 5b8c dc3e 659d 8abc
000000b0: 49ca b83e 5365 813e cc76 d83e edd2 f43c
000000c0: d664 953d 5ec5 f33d 2ff5 8ebe b67e b23e
000000d0: 84a3 0b3e 7623 debf 08e5 293e 4afd e43e
000000e0: b96b 613d d0d6 e0be c9fb 503e bd54 f43d
000000f0: a3ef f9bd c471 243f 9c8e d03e acd1 67be
00000100: 0eec 42be f689 cf3d 5c15 36bf f290 35bd
00000110: 536a 083d 9215 5fbf c882 62be 1316 ad3e
00000120: 9049 1f3f abd5 d9be ebc2 b43e dbaa 3a3e
00000130: 1a9d b13e 6020 063e 9e2f ac3d b586 c73d
00000140: 88d1 03bf 41e3 ff3c 488f 3bbe 1888 893a
00000150: b251 df3e b0f0 23bf 104a c13d 7bed e5bb
00000160: bc3f b3be 577a 4bbe e27a 683d 7b4c d63e
00000170: f7ea 3cbd 11b3 123f 94ea e73e 70bf 863c
00000180: 50c8 b63c 3665 923c 8388 18bf bf06 023e
00000190: 1a11 703e 5b38 17bd aca6 ae3d 9d1d db3e
000001a0: 3f3c 693e 3834 66be 387c 0b3f 4a6f b23b
000001b0: e15c 613e 5f2d a4bc aac8 df3e 4feb 6abe
000001c0: 2e80 62be 2add 5dbe 7cb2 b2be 3ceb c3bd
000001d0: 9488 43be b5cf c0bf 5c7b 5c3e 1990 ad3e
000001e0: be40 86be 608c b0be e59f 103e 47fa fd3e
000001f0: 0c72 723e 9a66 b43e 472e b43e f8df 36be

6.bias f4 [8]
0.16550797 0.02963189 0.467093 -0.4414678 0.44634557 -0.67297244 0.3561199 -0.3929389
00000000: ec7a 293e 94be f23c d026 ef3e 1108 e2be
00000010: 6887 e43e ec47 2cbf 5955 b63e 4a2f c9be
