logs/best_model_4_2.pt (torch, 46229 bytes, 8 tensors)

0.weight f4 [64, 126]
0	0xbce34446	-0.027742516
1	0xbd25a94a	-0.04044465
2	0x3d6594af	0.05605
3	0x3d9f2d15	0.077722706
4	0x3cd04330	0.025422662
5	0x390d1ac7	0.00013456783
6	0xbd37c2c6	-0.044863485
7	0x3cfae85a	0.030628372
8	0xbd8c63a3	-0.06854942
9	0xbdd12bdd	-0.102134444
10	0xbccc6ba8	-0.024953678
11	0x3c8682bf	0.016419766
12	0xbd2bf610	-0.04198271
13	0xbcc8949f	-0.02448493
14	0xbcf144fb	-0.029451838
15	0x3d178fdf	0.03700244
16	0x3e1589cf	0.14603351
17	0x3de84a1f	0.113422625
18	0x3bebb1c6	0.007192823
19	0x3e1257e4	0.1429134
20	0x3e131264	0.14362484
21	0xbe16b76e	-0.1471841
22	0xbcf9a46c	-0.03047391
23	0xbcc0e525	-0.023546765
24	0xbd26e207	-0.0407429
25	0xbdb3fa76	-0.08788006
26	0xbe3ec8d6	-0.186313
27	0xbd47f9a8	-0.048822075
28	0xbd56786f	-0.05236095
29	0x3d889d4e	0.066706285
30	0x39d76949	0.0004108644
31	0x3c914b1c	0.01773601
32	0xbd2215e5	-0.03957166
33	0xbb44b997	-0.0030017847
34	0xbdf3ec03	-0.1191025
35	0x3d0103e9	0.03149787
36	0x3e459e5e	0.19298694
37	0x3df4992b	0.11943277
38	0x3d4b3f49	0.0496209
39	0x3e121f5b	0.14269774
40	0xbd40f9a8	-0.04711309
41	0x3d62d595	0.05537947
42	0x3d8923ae	0.066962585
43	0x3c14dafa	0.009085411
44	0x3c1a73be	0.009427009
45	0x3dfbd600	0.12296677
46	0xbcc277d5	-0.023738781
47	0xbd026778	-0.031836957
48	0xbd95b67e	-0.07310198
49	0x3d3da76c	0.046302244
50	0x3d82c1f0	0.06384647
51	0x3df32d5c	0.11873886
52	0xbd02f0a4	-0.031967774
53	0xbc399d41	-0.011328996
54	0xbd0fb110	-0.03508097
55	0x3d1df0c3	0.038559686
56	0x3d6bf603	0.057607662
57	0x3ca2c49c	0.019869141
58	0xbba5dc45	-0.0050616586
59	0xbdc8becc	-0.098020166
60	0xbe0c18ed	-0.13681383
61	0xbdbc5cec	-0.09197411
62	0xbe1ee90b	-0.15518586
63	0x3dc50e54	0.096218735
64	0x3d5d68b8	0.054054946
65	0x3dbf3643	0.093365215
66	0x3cbee97a	0.02330469
67	0x3c175cbc	0.009238418
68	0x3db16060	0.0866096
69	0x3e26d562	0.16292337
70	0x3d863324	0.06552723
71	0x3e1339dd	0.14377542
72	0x3d110d2d	0.035412956
73	0x3da7e073	0.08197107
74	0x3d1eb660	0.038748145
75	0x3e022c1b	0.12712137
76	0x3e259707	0.16170894
77	0x3dc23e1b	0.09484502
78	0xbc91fb75	-0.0178201
79	0x3db5e451	0.088814385
80	0x3d1b9aa3	0.03798927
81	0xbd20a746	-0.039222024
82	0x3d7e988c	0.0621572
83	0x3dbe71c3	0.09299042
84	0x3d515024	0.05110182
85	0x3bc3feeb	0.0059813163
86	0x3dcdb0aa	0.100434616
87	0xbb8e6b3c	-0.0043462794
88	0x3d9cfd10	0.07665455
89	0x3b93da46	0.004512104
90	0x3d1e4ad3	0.038645577
91	0x3dba329b	0.090916835
92	0x3df79266	0.1208847
93	0x3df27d83	0.11840346
94	0x3db0a414	0.086250454
95	0x3e43aca7	0.1910883
96	0x3df51884	0.119675666
97	0x3dac824d	0.084232904
98	0x3dde7d88	0.10863787
99	0xbc1a8713	-0.009431618
100	0x3da7394d	0.08165226
101	0x3df350da	0.118806556
102	0x3e1986f7	0.14992891
103	0xbb0dcd42	-0.0021637236
104	0x3d4a932a	0.049456753
105	0x3df07975	0.11741916
106	0x3db16c2f	0.086632125
107	0xbbb56397	-0.0055355537
108	0x3e074a85	0.1321202
109	0x3e0e7c64	0.13914639
110	0x3d50c810	0.050972044
111	0x3ce7836f	0.028260915
112	0x3e0eae2e	0.13933632
113	0xbcf228e4	-0.029560514
114	0x3ca71793	0.020396983
115	0x3d88be18	0.066768825
116	0x3dc26ca1	0.094933756
117	0x3dc07931	0.093981154
118	0x3db1eb9f	0.08687519
119	0x3df5414b	0.11975344
120	0x3e1361b1	0.14392735
121	0x3e45636a	0.19276205
122	0x3de90436	0.11377756
123	0x3d1dd555	0.038533527
124	0x3dd09849	0.10185296
125	0x3e131465	0.14363249
126	0xbcad9c76	-0.02119277
127	0x3e002742	0.12514976
128	0x3dd30a45	0.10304693
129	0x3e0b4140	0.1359911
130	0x3d988e90	0.07449067
131	0x3df38e91	0.11892427
132	0x3dbf4804	0.09339908
133	0xbca55a0a	-0.020184536
134	0xbc114d92	-0.008868592
135	0x3dcd60a9	0.10028202
136	0x3dade638	0.08491176
137	0x3e1be5ce	0.15224382
138	0x3c699f6c	0.014259201
139	0x3d97341b	0.07382985
140	0x3d571789	0.05251268
141	0x3cb38495	0.021913806
142	0xbd82e863	-0.063919805
143	0xbd58b783	-0.052909385
144	0x3c75f460	0.015011877
145	0xbcf3b16d	-0.02974769
146	0xbd16b5f0	-0.036794603
147	0xbd1a0e04	-0.037611023
148	0x3c9d7b70	0.019223899
149	0x3d992e3f	0.07479524
150	0x3bc680d1	0.0060578366
151	0xbc0fc300	-0.008774519
152	0x3defc0e4	0.11706713
153	0x3c6d4dfc	0.014483925
154	0x3d587aaf	0.052851375
155	0x3d133500	0.035939217
156	0x3d73f4e3	0.059559714
157	0x3d964224	0.07336834
158	0xbc641480	-0.013920903
159	0x3dbe7b2d	0.09300838
160	0x3d8e084f	0.069351785
161	0x3c86b67d	0.016444439
162	0xbd938323	-0.07202747
163	0xbcef5ad8	-0.029218122
164	0x3dab2c1e	0.08358024
165	0x3d61d093	0.055130553
166	0x3dd3e735	0.103468336
167	0xbb91dd1a	-0.004451406
168	0x3d45cc43	0.048290502
169	0x3d80f730	0.06297147
170	0xbd5304c7	-0.051518228
171	0xbc795813	-0.015218752
172	0xbd8393db	-0.064246856
173	0xbd4c3909	-0.04985908
174	0x3d5d2265	0.05398788
175	0x3cbf293b	0.02333509
176	0xbdb57672	-0.08860482
177	0x3c9fe332	0.019517515
178	0xbdbaab57	-0.09114712
179	0x3d8c1a87	0.06840997
180	0xbd8ecb2a	-0.06972344
181	0x3d9c0462	0.076180235
182	0x3dc23d3f	0.09484338
183	0x3e130c50	0.14360166
184	0x3d863c7c	0.06554505
185	0x3e03cbb1	0.12870671
186	0x39b64e26	0.0003477197
187	0x3d9f344c	0.07773647
188	0x3e1981f5	0.14990981
189	0x3d71f257	0.059069004
190	0x3d0af7fd	0.033927906
191	0x3d59b1b7	0.053147998
192	0xbd82d625	-0.06388501
193	0x3db179ff	0.08665847
194	0x3bf8019e	0.007568552
195	0x3c921d82	0.017836336
196	0x3ca6703c	0.02031719
197	0xbe197c09	-0.14988722
198	0xbc2fc668	-0.010728456
199	0xbd6491f1	-0.055803243
200	0xbc06d414	-0.008229274
201	0xbd7b0163	-0.06128062
202	0xbd8beb2d	-0.068319656
203	0xbd27508d	-0.040848304
204	0x3da3e296	0.08002202
205	0xbbf19f61	-0.007373736
206	0xbd309dbc	-0.043119177
207	0xbc1a147b	-0.009404297
208	0x3d4f7a64	0.05065383
209	0xbd0920cd	-0.033478547
210	0xbcae5fa3	-0.021285838
211	0x3c5ca725	0.013467585
212	0xbb9d360f	-0.004797704
213	0x3c684730	0.014177129
214	0xbbe7ce7b	-0.007074175
215	0xbe034de4	-0.12822682
216	0xbd1aeab2	-0.03782148
217	0xbd650888	-0.05591634
218	0xbcfd4c12	-0.030920062
219	0xbd2cf836	-0.0422289
220	0xbd1f437e	-0.038882725
221	0xbd29a9f1	-0.041421834
222	0xbddd06e8	-0.10792333
223	0x3c2938c1	0.010328473
224	0xbd82b1b4	-0.063815504
225	0x3d129b7a	0.035792805
226	0xbc5939eb	-0.013258438
227	0xbd2b6922	-0.04184831
228	0x3c903753	0.017604506
229	0xbc3f35a9	-0.011670508
230	0x3bdf4860	0.0068140477
231	0xbdc5434a	-0.09631975
232	0xbdc4af9f	-0.096038096
233	0x3d4cf4eb	0.05003826
234	0x3d1423d5	0.036166985
235	0x3d973dd1	0.073848374
236	0xbd10d79d	-0.035361875
237	0x3b7d2264	0.0038625235
238	0xbda0d201	-0.07852555
239	0x3d30d2fa	0.043169953
240	0xbcea6d82	-0.02861667
241	0x3cc9022c	0.024537168
242	0x3d79968c	0.06093459
243	0x3d19a85a	0.03751407
244	0xbc5de37d	-0.013543007
245	0xbdcb9f87	-0.09942537
246	0xbe21129b	-0.15729754
247	0xbd035bdc	-0.032070026
248	0xbe2235d1	-0.15840842
249	0xbdc093d8	-0.09403199
250	0xbd82567b	-0.06364151
251	0xbc82f437	-0.015985591
252	0x3e2215c6	0.15828618
253	0x3e0164ed	0.12636156
254	0x3d972de8	0.07381803
255	0x3e07568d	0.1321661

0.bias f4 [64]
0	0x3db90b76	0.09035389
1	0x3d888c12	0.06667341
2	0x3dbd26ef	0.092359416
3	0x3dbf0a20	0.09328103
4	0x3d71b0d0	0.059006512
5	0x3dd1cc05	0.10243992
6	0x3e426b85	0.18986328
7	0x3db4300f	0.08798229
8	0x3ddfa251	0.10919631
9	0x3e50d1a2	0.20392469
10	0xbd049579	-0.03236911
11	0xbd99629c	-0.07489511
12	0x3cb89900	0.022533894
13	0x3db832c8	0.08994061
14	0x3ddaad9d	0.10677645
15	0x3d14ae7c	0.036299214
16	0x3dd8842f	0.10572087
17	0x3cd8426c	0.02639886
18	0x3dce7e2c	0.10082659
19	0x3deeb824	0.11656216
20	0x3da7f7fb	0.082015954
21	0x3e3840e2	0.17993501
22	0x3dbf94d0	0.093545556
23	0xbbcaf83e	-0.0061941436
24	0x3defeeb0	0.11715448
25	0x3d2e371b	0.04253302
26	0x3de7049a	0.112801746
27	0x3e3387b5	0.17532237
28	0x3d8a6af1	0.06758679
29	0x3dd219da	0.10258837
30	0x3d203c96	0.03912028
31	0x3c7674e3	0.015042516
32	0x3e22ac6e	0.15886089
33	0x3d390c1f	0.045177575
34	0x3c9a7354	0.01885382
35	0x3e1ed7ef	0.1551206
36	0x3e4b9af5	0.1988333
37	0x3caf914c	0.021431588
38	0x3e244d9b	0.16045229
39	0x3e11bbc9	0.1423179
40	0x3dc4560a	0.09586723
41	0x3c50a300	0.012734175
42	0x3e344b13	0.17606764
43	0x3e0e8e62	0.13921502
44	0x3e21ed58	0.15813196
45	0x3e036450	0.12831235
46	0x3e43748d	0.1908743
47	0x3d911b2f	0.07085263
48	0x3e16de47	0.1473323
49	0x3db30773	0.08741655
50	0xba438d1c	-0.00074596866
51	0x3c12164e	0.008916451
52	0x3dfbb5a2	0.12290503
53	0x3e0a8a8b	0.13529412
54	0x3dfcaead	0.12338004
55	0x3dd1c1e2	0.10242058
56	0x3ca1fc6f	0.01977369
57	0x3e3ec729	0.18630661
58	0x3deefab3	0.11668911
59	0x3e149826	0.14511165
60	0x3e35a57a	0.17738906
61	0x3d7945fa	0.06085775
62	0x3e0793ea	0.13240018
63	0x3e174e39	0.14775933

2.weight f4 [32, 64]
0	0x3e3a81a1	0.18213512
1	0xbc85eb4c	-0.01634755
2	0xbe2b3eac	-0.16723126
3	0x3d2118ba	0.03933022
4	0x3dd88996	0.105731174
5	0x3e2c2d62	0.16814187
6	0x3de71d7b	0.1128492
7	0x3d6d4a44	0.057932153
8	0xbe4b1a4d	-0.19834252
9	0x3e3d4701	0.18484117
10	0x3e2187dc	0.15774482
11	0x3c7e8b79	0.015536183
12	0xbe1df5bd	-0.15425773
13	0xbd1c5856	-0.03817018
14	0xbdce3ecc	-0.10070571
15	0xbdf98488	-0.121834815
16	0xbd976504	-0.07392314
17	0x3e25ae87	0.16179858
18	0xbe2730f6	-0.16327271
19	0x3dd97dd1	0.10619701
20	0x3dc880d0	0.09790194
21	0x3c2ae9fe	0.010431765
22	0x3d89d51d	0.06730101
23	0x3e386f2f	0.18011163
24	0x3d7dbbdb	0.06194673
25	0x3d7f1af7	0.062281575
26	0x3d7f08d4	0.06226428
27	0x3d60a213	0.054842066
28	0x3e51ec45	0.20500286
29	0x3e23b721	0.15987827
30	0xbe0141f3	-0.12622814
31	0xbe6f5707	-0.23373042
32	0x3e474375	0.19459327
33	0x3b05d3f0	0.0020420514
34	0x3cefb0c8	0.0292591
35	0x3e3c6603	0.1839829
36	0x3ae303dd	0.0017319877
37	0xbe0d0d30	-0.13774562
38	0x3e5bea19	0.2147602
39	0x3e3de390	0.1854384
40	0x3e76c8de	0.24100062
41	0x3c0253bc	0.007954534
42	0x3e3d10eb	0.18463485
43	0x3d5c4dd3	0.053785156
44	0xb94c34a4	-0.00019474566
45	0x3e483c83	0.19554333
46	0x3dc40dbe	0.095729336
47	0xbe8175a3	-0.25285062
48	0x3e274635	0.16335376
49	0xbdfc67c2	-0.12324478
50	0xbd4d742f	-0.05015963
51	0xbccc3722	-0.024928633
52	0x3e7151a6	0.23566303
53	0xbe27514f	-0.1633961
54	0x3e6b5b4a	0.22984043
55	0x3dd4fb14	0.10399452
56	0xbac560a2	-0.0015058706
57	0x3e21c56b	0.15797965
58	0x3d538aac	0.05164592
59	0xbe6d28b5	-0.2316006
60	0x3e332f43	0.17498498
61	0x3e36c4e3	0.17848544
62	0x3e776e09	0.24163069
63	0x3c596c32	0.013270425
64	0x3d606d7c	0.054791912
65	0xbd0ee260	-0.034883857
66	0x3caabd58	0.02084224
67	0xbd20b9a4	-0.03923954
68	0x3d529d08	0.051419288
69	0xbdf3f2ee	-0.119115695
70	0xbc6a8da0	-0.014315993
71	0x3d224d00	0.039624214
72	0x3da6e8d2	0.08149876
73	0xbda88758	-0.0822894
74	0x3d99a318	0.07501811
75	0x3dae46ec	0.08509621
76	0x3b045a00	0.0020195246
77	0xbdd100fe	-0.10205267
78	0xbd96d782	-0.073653236
79	0xbd6830a8	-0.056687027
80	0x3caa9da8	0.02082713
81	0x3d937a16	0.072010204
82	0x3dfe5608	0.12418753
83	0xbd753184	-0.059861675
84	0xbd30c560	-0.04315698
85	0xbdf4a754	-0.11945978
86	0xbd6d2a44	-0.057901636
87	0x3c934078	0.017975077
88	0x3d38b8d4	0.04509814
89	0xbd459d40	-0.04824567
90	0xbdf549cc	-0.11976966
91	0xbd03e3fc	-0.032199845
92	0x3aafbb80	0.001340732
93	0x3ba5d8a0	0.005061224
94	0xbd29d544	-0.04146315
95	0xbde0977a	-0.10966392
96	0xbdd78d0e	-0.10524951
97	0xbd902218	-0.07037753
98	0x3cf0fa50	0.029416233
99	0xbdbaa93c	-0.0911431
100	0x3dc855f0	0.09782016
101	0x3dbc5f82	0.09197904
102	0xbb6f55c0	-0.0036519617
103	0x3b3547c0	0.0027661175
104	0x3d897692	0.067120686
105	0x3cb45238	0.022011861
106	0xbdab7aec	-0.08373055
107	0xbcf12c70	-0.029440135
108	0xbde552a2	-0.111974016
109	0x3cb8f720	0.022578776
110	0xbdc576ea	-0.09641822
111	0x3dbcc782	0.092177406
112	0x3d43a3a4	0.04776348
113	0x3daffa80	0.08592701
114	0x3dd8fc86	0.1059504
115	0x3cadb680	0.021205187
116	0xbdb4a456	-0.08820407
117	0xbd9a2b3e	-0.07527779
118	0x3deb5e6e	0.114926204
119	0xbd601fcc	-0.054717824
120	0xbd54fb2c	-0.05199735
121	0xbd54a3e4	-0.05191411
122	0xbd99bbd6	-0.0750653
123	0xbb923140	-0.0044614375
124	0xbd8ebf7e	-0.06970118
125	0xbc976e18	-0.018485114
126	0xbdd80fd6	-0.105498955
127	0x3b3fcc80	0.0029266179
128	0xbe327cc8	-0.17430413
129	0x3e239b07	0.15977107
130	0x3dbca797	0.09211653
131	0xbe5ff99c	-0.21872562
132	0xbd84d122	-0.064852014
133	0xbdf66e36	-0.1203274
134	0xbe120ca9	-0.14262642
135	0x3d63256a	0.055455603
136	0x3e71ebfe	0.2362518
137	0x3e01ecb3	0.1268795
138	0xbdfae62c	-0.12250933
139	0x3d6e7db4	0.05822535
140	0x3e6eab9e	0.23307654
141	0x3e25f4a0	0.16206598
142	0x3dff168f	0.124554746
143	0x3e6f4e7e	0.23369786
144	0x3e770537	0.24123083
145	0xbe121c7f	-0.14268683
146	0x3df2e299	0.11859626
147	0xbe4d00d0	-0.20019841
148	0xbe265b28	-0.16245711
149	0x3d6038ac	0.054741547
150	0x3db14ef4	0.08657637
151	0xbde3541f	-0.11100029
152	0xbe11bc2a	-0.14231935
153	0xbe098d45	-0.13432796
154	0xbded8bf1	-0.11598957
155	0x3e1074b1	0.14107014
156	0xbc18453e	-0.009293852
157	0xbe55c746	-0.20876798
158	0x3df5f13d	0.12008903
159	0x3e5cbebc	0.21557134
160	0x3e19c0b8	0.15014923
161	0xbdcab4b7	-0.0989775
162	0x3e1c20a3	0.15246825
163	0x3e439842	0.1910105
164	0xbd0ddbcb	-0.03463344
165	0x3e0af2cf	0.13569187
166	0xbe53042b	-0.20607059
167	0xbe67af6a	-0.22625509
168	0xbe592376	-0.21204934
169	0x3d9c6a70	0.07637489
170	0x3d6986eb	0.057013433
171	0xbe0fbbcc	-0.14036483
172	0xbd6e5c3a	-0.058193423
173	0x3e124120	0.14282656
174	0x3ccd6f8c	0.025077604
175	0x3e7a078e	0.24416944
176	0x3e19bc03	0.15013127
177	0x3e505d27	0.20348035
178	0x3d995f34	0.07488862
179	0x3e1f6b35	0.1556824
180	0xbde3a857	-0.11116093
181	0x3e4a1070	0.19732833
182	0xbe4d2b2a	-0.20035997
183	0x3e22f34e	0.15913126
184	0x3e1e237b	0.15443222
185	0xbd9cf934	-0.07664719
186	0x3a81da51	0.0009906982
187	0x3d475747	0.04866722
188	0xbdc3fb4f	-0.09569418
189	0xbe3e1c9e	-0.18565604
190	0xbe13b469	-0.1442429
191	0xbdd1f023	-0.102508806
192	0x3e24ad94	0.1608184
193	0xbde43bb0	-0.11144197
194	0xbddac0d4	-0.1068131
195	0x3d9a4783	0.07533171
196	0x3e5c6fb0	0.2152698
197	0x3d3f6e8f	0.046736296
198	0x3d2119fc	0.03933142
199	0x3e5a2c42	0.21305946
200	0x3d45afbb	0.048263293
201	0x3e198cae	0.14995071
202	0xbc615c67	-0.013754941
203	0x3d388baa	0.04505507
204	0xbe16ad45	-0.14714535
205	0xbdd9cbc1	-0.10634566
206	0xbc100a66	-0.008791542
207	0xbe3a9095	-0.18219216
208	0xbe354161	-0.17700721
209	0x3e7c9ef0	0.24670005
210	0x3cc17c15	0.023618737
211	0x3d95a3c6	0.07306628
212	0x3e2aaab2	0.16666678
213	0x3e18bb92	0.14915302
214	0x3e32d51c	0.17464107
215	0x3d194589	0.03741983
216	0x3cf4d2f6	0.02988575
217	0x3e04f499	0.12983932
218	0x3e180ae7	0.14847909
219	0x3e54d146	0.20782956
220	0x3c5ee3b3	0.013604092
221	0x3e660cb5	0.22465785
222	0xbe27955a	-0.16365567
223	0xbe29c002	-0.16577151
224	0x3e2683f5	0.16261275
225	0x3d0c87b4	0.034309104
226	0xbe5794d6	-0.2105287
227	0x3e2da8e3	0.16958956
228	0x3d9f9d80	0.077937126
229	0xbdd09ac7	-0.101857714
230	0x3e3028be	0.17203042
231	0x3db57a54	0.08861223
232	0x3dbdf7ab	0.092757545
233	0xbdf2efbe	-0.118621334
234	0x3d15a495	0.03653391
235	0x3df727fb	0.120681725
236	0x3e1fec7c	0.15617555
237	0x3dc8253b	0.09772726
238	0x3d0c44e5	0.03424539
239	0xbe3803fb	-0.17970268
240	0x3e5c98fb	0.21542732
241	0xbe2d1f42	-0.16906455
242	0xbdf8235a	-0.12116118
243	0x3a772df3	0.0009429149
244	0x3d22fe4f	0.03979331
245	0x3c7514c0	0.0149585605
246	0x3e1e79b6	0.15476117
247	0x3dc6a514	0.09699455
248	0xbd961418	-0.07328051
249	0x3e615082	0.22003368
250	0x3dad755b	0.084696494
251	0xbe4936c2	-0.19649795
252	0x3e11abf4	0.14225751
253	0x3e546a96	0.20743784
254	0x3e2caf7e	0.1686382
255	0x3e40d128	0.18829787

2.bias f4 [32]
0	0x3e34c89f	0.17654656
1	0xbcfe2d50	-0.031027466
2	0x3e184839	0.14871301
3	0x3dca8790	0.09889138
4	0x3dc43546	0.095804736
5	0xbdfd600a	-0.123718336
6	0x3e16e348	0.14735138
7	0x3e1af0fd	0.15130992
8	0x3de3085a	0.11085577
9	0x3cb7dcbf	0.022444127
10	0xbce5a16a	-0.02803107
11	0x3dbcd38b	0.09220036
12	0x3dda1f34	0.10650483
13	0x3dec7b5b	0.11546966
14	0x3e156f2f	0.14593194
15	0xbcadd416	-0.021219295
16	0x3bebd922	0.007197515
17	0x3dfe7a66	0.124256894
18	0xbd32afea	-0.043624796
19	0x3d62dccc	0.05538635
20	0xbaaa9630	-0.001301473
21	0x3e056524	0.13026863
22	0x3e3b4586	0.1828824
23	0x3e3c8112	0.18408611
24	0x3d03c50d	0.032170344
25	0x3d99d712	0.075117245
26	0x3e5aefa4	0.21380478
27	0xbda21172	-0.07913484
28	0x3ded438f	0.115851514
29	0xbd5b5b34	-0.053553775
30	0x3d730663	0.059332263
31	0x3d76c2c7	0.060244348

4.weight f4 [16, 32]
0	0x3b6c89d0	0.0036092885
1	0xbd4024c8	-0.046910077
2	0xbbba28f4	-0.0056811515
3	0xbe062268	-0.13099062
4	0xbc037c4e	-0.008025242
5	0x3d40b250	0.047045052
6	0x3e1266e6	0.14297065
7	0x3c0192c5	0.007908528
8	0xbdaf69db	-0.08565112
9	0xbdced69e	-0.10099529
10	0x3d9910ef	0.07473933
11	0xbe466f6d	-0.19378443
12	0xbe5f6070	-0.21814132
13	0x3e192f3e	0.14959428
14	0xbe336869	-0.17520298
15	0xbddd81b8	-0.108157575
16	0x3bfe43d8	0.0077595524
17	0x3c1d2c6e	0.009593112
18	0xbe0b65dd	-0.13613077
19	0xbe983516	-0.29728
20	0xbe4ee4c2	-0.20204452
21	0x3e018c9b	0.12651293
22	0x3d71f153	0.059068035
23	0x3e42d021	0.19024707
24	0x3e196a16	0.14981875
25	0xbe08c2e2	-0.13355592
26	0x3d313102	0.043259628
27	0x3dffa344	0.12482312
28	0x3e1ec7fb	0.15505974
29	0xbdbdf013	-0.09274306
30	0x3e4c16da	0.19930592
31	0x3df23566	0.11826591
32	0x3dfb92c3	0.12283852
33	0x3ca2bb98	0.019864842
34	0xbdbdda2f	-0.09270131
35	0x3d6b6b11	0.057475153
36	0xbe092d31	-0.13396145
37	0x3dfaa82a	0.12239106
38	0x3e9261fc	0.2859038
39	0x3d184796	0.037177645
40	0x3e315874	0.17318898
41	0x3db52bf0	0.08846271
42	0x3df104f6	0.11768524
43	0x3e31eee4	0.17376286
44	0xbdb1372c	-0.08653101
45	0xbd03ca70	-0.03217548
46	0xbe7ed8fc	-0.2488746
47	0xbdf69cd1	-0.12041629
48	0x3d44fefa	0.048094727
49	0x3e21ef67	0.15813981
50	0xbd96c601	-0.07361985
51	0xbe5bf664	-0.2148071
52	0xbcc6d2c8	-0.02427043
53	0x3ea1915e	0.3155622
54	0xbc7225b9	-0.014779502
55	0x3dd5f317	0.10446756
56	0x3e180e0c	0.14849108
57	0x3defbdd8	0.11706132
58	0x3e7e6ed0	0.24846959
59	0x3cd805f6	0.02637003
60	0x3e8283d7	0.2549121
61	0x3e28858d	0.16457196
62	0x3dc5d952	0.09660591
63	0xbdbfafb1	-0.09359682
64	0xbde3f84b	-0.111313425
65	0xbdc65fef	-0.09686267
66	0x3d330138	0.043702334
67	0x3e05fccb	0.13084714
68	0x3e2094f3	0.1568182
69	0xbce148c8	-0.027500525
70	0x3ce0bd20	0.027433932
71	0xbc0f0b20	-0.00873068
72	0x3dd16842	0.10224964
73	0x3d9eee8a	0.077603415
74	0x3e0a4481	0.13502695
75	0x3deeccaa	0.1166013
76	0xbe250063	-0.16113429
77	0xbd84105e	-0.06448434
78	0xbe03a4ec	-0.12855881
79	0xbe2c8c30	-0.16850352
80	0x3d8d0cee	0.06887232
81	0xbdaf445b	-0.0855796
82	0xbd72b64a	-0.059255876
83	0x3d1aa788	0.037757427
84	0xbd852f38	-0.06503147
85	0xbdc69680	-0.09696674
86	0x3dda45e2	0.1065786
87	0xbe0765cb	-0.13222425
88	0xbd0863f4	-0.033298448
89	0xbd59e934	-0.053200915
90	0xbe29b7ca	-0.16574016
91	0x3b560b80	0.0032660663
92	0x3e24e0a3	0.16101317
93	0x3db26ef6	0.0871257
94	0x3e023f65	0.12719496
95	0xbc67a090	-0.014137402
96	0x3e1cf152	0.15326431
97	0x3e17cc21	0.14823963
98	0x3d59f0ef	0.053208288
99	0xbbb33e03	-0.005470039
100	0x3d3b422d	0.045717407
101	0x3d3dae88	0.046309024
102	0x3ded53d9	0.11588258
103	0x3dbb0824	0.09132412
104	0x3db6748a	0.08908947
105	0x3e228413	0.15870695
106	0x3d8a2fe1	0.067474134
107	0x3b3c22f1	0.002870735
108	0xbd3647b6	-0.044501983
109	0x3d067519	0.032826517
110	0xbe07b8a5	-0.1325403
111	0xbd8a126a	-0.067417935
112	0xbb6f20b2	-0.0036487994
113	0xbe298f4f	-0.16558574
114	0xbdf52f05	-0.11971859
115	0xbd8d4ee9	-0.068998165
116	0xbd83d8ef	-0.06437861
117	0xbe12ca03	-0.14334874
118	0xbdff72eb	-0.12473091
119	0xbd014315	-0.031558115
120	0x3ddde9d3	0.10835614
121	0xbd6425b6	-0.055700026
122	0xbde3cdb3	-0.111232184
123	0x3d172044	0.036896005
124	0x3ddb0579	0.10694403
125	0x3e0ec921	0.13943912
126	0xbe067d7c	-0.13133806
127	0xbdd49df7	-0.10381692
128	0xbbba630a	-0.005688076
129	0x3e2cefc7	0.16888343
130	0xbe9b1a4c	-0.302935
131	0x3e846188	0.2585566
132	0x3cd42774	0.025897719
133	0x3df32366	0.11871986
134	0x3e90bd3b	0.2826937
135	0x3d52590f	0.051354464
136	0x3be95506	0.0071207313
137	0xbdef99fb	-0.11699291
138	0xbdafca05	-0.08583454
139	0x3d89679c	0.06709215
140	0xbe9f03c5	-0.31057563
141	0x3d58cc98	0.05292949
142	0xbddf5ee5	-0.109067716
143	0xbd324fb4	-0.043533042
144	0x3d73593c	0.059411272
145	0x3e167ddd	0.1469645
146	0xbe03ae0e	-0.12859365
147	0xbe346188	-0.1761533
148	0x3c145ced	0.009055358
149	0x3e69d1eb	0.22833984
150	0xbe0e40d8	-0.13891923
151	0x3e4a6708	0.19765866
152	0x3e0412c5	0.12897785
153	0x3e90ce7c	0.28282535
154	0x3e92bd1f	0.28659913
155	0x3d8f4d21	0.06997133
156	0x3e41cae2	0.1892505
157	0x3dcc716e	0.099825725
158	0x3e831906	0.2560503
159	0xbd3d8bdc	-0.04627596
160	0x3e10a517	0.14125477
161	0xbd82d138	-0.063875616
162	0xbe41f1d1	-0.18939902
163	0x3e00f7d6	0.12594542
164	0x3bf3f4cf	0.007444955
165	0xbafaaa00	-0.001912415
166	0x3e4bcd3e	0.19902512
167	0x3e82c3a0	0.25539875
168	0x3e0ef0dd	0.1395907
169	0xbe2ffc31	-0.17186047
170	0x3dba0d44	0.090845615
171	0x3da1c682	0.078991905
172	0xbe8301e8	-0.25587392
173	0x3d902c3c	0.07039687
174	0xbe94855f	-0.29008004
175	0xbe42656c	-0.18984002
176	0x3e204b78	0.15653789
177	0x3e8be5da	0.273238
178	0x3de4289d	0.11140559
179	0xbcbd8f1a	-0.023139525
180	0xbe34ce68	-0.17656863
181	0x3e06cf00	0.13164902
182	0xbdeea138	-0.11651844
183	0x3d8cce5f	0.068753
184	0x3dc946d9	0.09827966
185	0x3de710e2	0.11282517
186	0x3e8ee81c	0.2791146
187	0x3d203753	0.03911526
188	0xbccb4214	-0.024811782
189	0xbd83a524	-0.064279824
190	0x3d67def6	0.056609116
191	0x3e1d1252	0.1533902
192	0x3dfc2fba	0.123137906
193	0x3b8a8500	0.0042272806
194	0xbc7f5d50	-0.015586212
195	0x3da639ca	0.08116491
196	0xbda486a7	-0.080334954
197	0x3dc9d966	0.098559186
198	0x3d0cd9ff	0.034387585
199	0x3dd87d37	0.10570758
200	0xbcb596a7	-0.022166563
201	0x3d45cfb8	0.0482938
202	0xbc03a060	-0.008033842
203	0x3e54c7b8	0.20779312
204	0xbe2587e5	-0.16165121
205	0x3e8dd0d5	0.2769839
206	0xbdf65b5f	-0.120291464
207	0xbd18c863	-0.03730048
208	0x3e5a39cd	0.21311112
209	0x3e3a482b	0.18191592
210	0x3e28c306	0.16480646
211	0xbe1a3b76	-0.15061745
212	0xbe57e0d8	-0.21081865
213	0x3d12fa43	0.0358832
214	0x3cafcd7a	0.021460284
215	0x3e4b3574	0.1984461
216	0x3e25453f	0.16139697
217	0x3def514a	0.116854265
218	0x3e30b6b5	0.17257197
219	0x3d04a7d8	0.03238663
220	0x3e247f5c	0.16064209
221	0xbe1aa82b	-0.15103213
222	0x3e8b9e69	0.27269295
223	0xbe108795	-0.1411422
224	0x3e67dcfc	0.22642893
225	0xbbd11600	-0.0063807964
226	0x3e47c767	0.1950966
227	0x3db45765	0.08805732
228	0x3d7baa80	0.0614419
229	0xbd52732c	-0.051379368
230	0x3e5855e7	0.21126519
231	0x3ba5f7c2	0.0050649354
232	0x3dd71d06	0.10503583
233	0x3d591d7c	0.053006634
234	0x3df7efaa	0.12106259
235	0x3e8f9bfa	0.28048688
236	0x3d0f3149	0.03495911
237	0xbd89390a	-0.067003325
238	0x3e61a1c6	0.22034368
239	0x3e8ef832	0.27923733
240	0x3e50d019	0.20391883
241	0x3da3159b	0.07963105
242	0x3c839da0	0.016066372
243	0xbaa3ed3f	-0.0012506618
244	0x3d775094	0.06037958
245	0x3c461f77	0.012092463
246	0x3d078f0e	0.033095412
247	0xbd7778ed	-0.06041806
248	0xbd2618e7	-0.040551092
249	0x3e7b8976	0.24564156
250	0xbdd17995	-0.10228268
251	0xbdc60501	-0.09668923
252	0x3d22a2d3	0.039706063
253	0x3dfafcb6	0.12255232
254	0x3e1f1ad2	0.15537575
255	0x3e8f56c3	0.2799588

4.bias f4 [16]
0	0x3e10988c	0.14120692
1	0x3e58b4cc	0.21162719
2	0xbdbb75c4	-0.091533214
3	0x3de70e8b	0.11282071
4	0x3d9b5608	0.075847685
5	0x3e6a657b	0.22890274
6	0xbc3fc5db	-0.011704887
7	0xbd812d44	-0.06307462
8	0x3e2de014	0.1698001
9	0x3d983098	0.074311435
10	0xbd1a01b4	-0.03759928
11	0x3da0fbc4	0.078605205
12	0x3e4ffd34	0.20311433
13	0x3dea1e4d	0.11431561
14	0x3d5202f7	0.05127236
15	0xbc8b6a00	-0.017018318

6.weight f4 [8, 16]
0	0x3d9ffc49	0.078117914
1	0x3e43de2b	0.19127719
2	0xbb4df180	-0.0031424463
3	0x3dc7ec0b	0.097618185
4	0xbbbb0de9	-0.0057084453
5	0x3e994823	0.29937848
6	0x3e9c4d51	0.30527738
7	0xbd8d84d8	-0.069101036
8	0x3e498c0b	0.19682328
9	0x3ea0c619	0.31401137
10	0x3e81db30	0.2536254
11	0xbe4bae7f	-0.19890784
12	0x3d2edb7a	0.042689778
13	0x3e05e09f	0.13073967
14	0x3e01d12d	0.1267745
15	0xbbb3718d	-0.005476183
16	0x3d17f854	0.03710206
17	0x3e322a37	0.17398916
18	0xbdefc250	-0.11706984
19	0x3dcc818c	0.099856466
20	0xbe248e91	-0.1607001
21	0xbd19603b	-0.03744529
22	0x3dfce1da	0.12347765
23	0xbe26b85e	-0.16281268
24	0xbde5ae7e	-0.11214922
25	0xbe3dec59	-0.1854719
26	0xbdca49b3	-0.09877338
27	0xbe44f540	-0.1923418
28	0xbe979f0b	-0.29613528
29	0xbd8ec463	-0.069710515
30	0xbd94c198	-0.072634876
31	0xbe176873	-0.14785938
32	0xbd6425db	-0.055700164
33	0x3e1923d0	0.14955068
34	0x3cbe7c20	0.023252547
35	0xbe795023	-0.24346976
36	0x3ea2db9f	0.31808183
37	0x3e08037a	0.13282576
38	0x3e794a66	0.24344787
39	0x3e43de2b	0.19127719
40	0xbdbacdf9	-0.091213174
41	0xbcb33772	-0.021877024
42	0xbd768e96	-0.060194574
43	0xbe145fa0	-0.14489603
44	0xbe22f3bd	-0.15913291
45	0x3ec44a33	0.3833786
46	0x3e388f9c	0.18023533
47	0x3dd02adb	0.10164424
48	0x3dbc6f65	0.09200934
49	0x3e9baabc	0.30403697
50	0xbd8960f0	-0.067079425
51	0xbb6932e4	-0.0035583312
52	0x3e49312e	0.19647667
53	0x3e9172f6	0.2840802
54	0x3deb4138	0.11487049
55	0xbe0ad923	-0.13559394
56	0x3ea2bd33	0.31784973
57	0xbdabb7d2	-0.0838467
58	0xbccfa0d9	-0.025345253
59	0x3d4f7598	0.050649256
60	0xbd6b3bc6	-0.05743005
61	0x3e8ae5bd	0.271284
62	0x3db534ee	0.08847986
63	0x3da57f89	0.08080966
64	0x3e689be9	0.22715725
65	0xbdf425c1	-0.119212635
66	0xbe09b8a2	-0.13449338
67	0x3e4baaf9	0.1988944
68	0x3e5ec1b0	0.21753573
69	0x3e30bf2c	0.17260426
70	0xbc133cff	-0.008986711
71	0xbdf9e7ad	-0.12202392
72	0x3e548d82	0.20757106
73	0x3e38e21b	0.18055002
74	0xbdf05e9d	-0.11736796
75	0xbc800fc8	-0.015632525
76	0xbe5a1ee9	-0.21300854
77	0x3e958b1f	0.29207703
78	0x3dce3006	0.100677535
79	0x3e9f5744	0.31121266
80	0xbdd58d93	-0.10427394
81	0x3a85e60d	0.0010215655
82	0x3e576dc4	0.21037966
83	0x3e008f0e	0.12554571
84	0x3d85b7f9	0.065292306
85	0x3db10c95	0.08644978
86	0x3e04d8e7	0.12973367
87	0x3e7b22f8	0.24525058
88	0x3eb8e08e	0.36108822
89	0x3cf639e4	0.030056901
90	0x3d4f6b94	0.050639704
91	0x3cc00ccc	0.023443602
92	0xbe84495c	-0.2583722
93	0x3e29a5d3	0.16567163
94	0x3e619521	0.22029544
95	0xbddb3a1c	-0.10704443
96	0x3e87e79f	0.265439
97	0x3e7dc97b	0.2478389
98	0xbd089e58	-0.033354133
99	0x3daf028d	0.085454084
100	0x3c7a6622	0.015283139
101	0x3df83350	0.12119162
102	0x3dad0215	0.08447663
103	0x3d2cf978	0.0422301
104	0x3e1b75b8	0.15181625
105	0x3e15ffcf	0.14648364
106	0xbe0b8dce	-0.13628313
107	0xbeb44fd2	-0.35217148
108	0x3d464b40	0.048411608
109	0x3df87e1c	0.121334285
110	0x3e376077	0.17907892
111	0x3eb8c1cd	0.36085358
112	0xbc922e89	-0.017844455
113	0xbd415845	-0.04720332
114	0x3e1c132e	0.15241691
115	0x3d05224f	0.032503422
116	0x3d9d804b	0.076904856
117	0x3e168003	0.1469727
118	0xbde3362f	-0.11094319
119	0x3d74a591	0.05972821
120	0x3cef5f85	0.029220352
121	0x3e24c4ad	0.16090651
122	0x3c267807	0.010160453
123	0xbe8eb5c9	-0.27873066
124	0x3b102e26	0.0022000163
125	0x3e7588f8	0.2397803
126	0x3ec08389	0.37600353
127	0x3e842854	0.25812018

6.bias f4 [8]
0	0xbe5da42a	-0.21644655
1	0xbdf9220f	-0.12164699
2	0x3d685adb	0.05672727
3	0x3e13880a	0.14407364
4	0x3d8774e0	0.06614089
5	0xbde20717	-0.110365085
6	0xbe307d27	-0.17235242
7	0x3e348821	0.17630054
